FC-hackaton/checkpoints/model_A_best.pth (torch, 876698 bytes, 73 tensors)

gnn_node.node_encoder.weight f4 [1, 100]
0	0x3e5c621e	0.21521804
1	0xbda81b87	-0.082083754
2	0xbecea1b3	-0.40357742
3	0xbf51b950	-0.8192339
4	0x3fca353b	1.5797495
5	0xbfbf1a6d	-1.492994
6	0xbe1adf95	-0.15124352
7	0x3f968e77	1.1762227
8	0xbeb46144	-0.35230458
9	0x3f8ea32f	1.114355
10	0x3f6b23aa	0.91851294
11	0xbf0dec70	-0.554389
12	0x3fa87f52	1.3163855
13	0xbfb63e7c	-1.4237819
14	0xbfccdfd3	-1.6005806
15	0xbdc6fc68	-0.097161114
16	0x40019858	2.0249233
17	0x3f4021ca	0.7505156
18	0x3fcda426	1.6065719
19	0xbff45f29	-1.909154
20	0x3f9d2ac7	1.227868
21	0xbeabd757	-0.3356273
22	0xbf3ab5a4	-0.7293341
23	0xbf0afc6c	-0.54291415
24	0xbf4e05e9	-0.8047777
25	0xbee14eb0	-0.44005346
26	0xbf9edda7	-1.2411393
27	0x3f55a09e	0.8344821
28	0x3fdf6f5d	1.745586
29	0x3f1d96bd	0.61558133
30	0x3f2f24a7	0.684153
31	0xbef94c16	-0.4869086
32	0x3f8cc6ed	1.0998207
33	0xc0256065	-2.5840085
34	0xbdfec063	-0.124390386
35	0x40040fe2	2.0634694
36	0x3feba149	1.8408595
37	0x3fb5635d	1.4170948
38	0xbf9a0657	-1.2033185
39	0x3e58d241	0.21173956
40	0x3f01eb7e	0.5074996
41	0x400db044	2.2138834
42	0xbf777470	-0.96662045
43	0xbfb016cd	-1.3756958
44	0x3d70889c	0.05872403
45	0x3e4d7e42	0.20067695
46	0x3ed7f612	0.42179924
47	0x3f682f89	0.9069753
48	0x3f6733d2	0.90313447
49	0xbf30b58b	-0.6902701
50	0x406bde4c	3.685443
51	0xbf01297c	-0.50453925
52	0xbe96e308	-0.29470086
53	0x3fe1a318	1.7627897
54	0xbf361fd7	-0.71142334
55	0x3f6539c2	0.89541256
56	0x3ecbfeec	0.39842927
57	0xbf7dbe2a	-0.9911829
58	0x3d09ba85	0.033625145
59	0xbe1fafd4	-0.15594417
60	0xbf52e9b5	-0.8238786
61	0x3f9e7701	1.2380067
62	0x3fd2b116	1.6460292
63	0x3fd86e58	1.6908674
64	0x3f478a43	0.77945346
65	0x40102376	2.2521644
66	0xbf614b21	-0.8800526
67	0x3ecd1fa0	0.4006319
68	0x3f43cc5b	0.76483697
69	0x3d08d5a3	0.033406865
70	0xbf7954d2	-0.9739505
71	0xbd997dcb	-0.07494696
72	0x3fb5a3a6	1.4190567
73	0x3f23d6ac	0.6399944
74	0x3fa0fddc	1.2577472
75	0xbdaed31e	-0.08536361
76	0x3f086ad9	0.53288037
77	0x3fa7ec74	1.3119035
78	0x3ea321c1	0.3186169
79	0x3f44e3ee	0.76910293
80	0x3fa1ed08	1.2650461
81	0x3ecf6d29	0.4051297
82	0x3fb34771	1.4006177
83	0x3fda67a1	1.7062875
84	0x3f86f1b6	1.0542514
85	0xbef9de61	-0.48802474
86	0x3f4a7d5b	0.7909753
87	0xbf597c54	-0.84955335
88	0xbf0df92c	-0.5545833
89	0x3eaa47e0	0.3325796
90	0x3ec78f05	0.38976303
91	0xbb3bdd92	-0.0028666002
92	0x3f0e6240	0.5561867
93	0xbee5276c	-0.4475664
94	0xbf210ac0	-0.6290703
95	0x3f2a4d5f	0.6652431
96	0x3fc99732	1.5749266
97	0xbfcc9c19	-1.5985137
98	0x3ea4e6fb	0.32207474
99	0x3dcc5b44	0.09978345

gnn_node.convs.0.mlp.0.weight f4 [200, 100]
0	0xbcf141af	-0.029450266
1	0x3d337dd2	0.043821163
2	0xbd08846d	-0.033329416
3	0xbdbae015	-0.091247715
4	0xbbaec866	-0.005333948
5	0x3d798a4b	0.060922902
6	0x3df8d589	0.121501036
7	0x3de03e89	0.10949428
8	0x3df4796e	0.119372234
9	0xbd57e729	-0.052710686
10	0xbd1de634	-0.038549617
11	0x3dc1eab2	0.09468593
12	0x3da282ed	0.07935128
13	0x3d951dd2	0.072810784
14	0xbd221d12	-0.039578505
15	0x3d04febc	0.032469496
16	0xbd8631b5	-0.065524496
17	0xbb325a7d	-0.002721458
18	0x3d66e047	0.05636623
19	0x3d985aa2	0.07439162
20	0xbcbb5897	-0.022869391
21	0x3d7c6fd4	0.061630085
22	0x3dc42c38	0.095787466
23	0xbd905d55	-0.07049052
24	0x3cf6241a	0.030046511
25	0x3d6bfcbc	0.057614073
26	0xbd99ac47	-0.075035624
27	0x3d931768	0.07182199
28	0xbd73f316	-0.059557997
29	0xbd8f9e89	-0.0701266
30	0x3ce3a5f5	0.027789095
31	0xbd4c00d5	-0.04980548
32	0xbd5d3910	-0.054009497
33	0xbc8f3c30	-0.017484754
34	0xbd1c4764	-0.03815402
35	0x3cfff1d7	0.031243248
36	0x3e0246ec	0.12722367
37	0xbaa7df02	-0.001280755
38	0xbd631c04	-0.05544664
39	0x3d6e9090	0.058243334
40	0xbbf304c7	-0.007416341
41	0xbd0af4e5	-0.033924956
42	0xbc6980de	-0.014251916
43	0x3c85a167	0.016312314
44	0x3c5f7dec	0.013640862
45	0x3df2897d	0.1184263
46	0x3ddc7ae8	0.1076563
47	0x3c07b363	0.008282515
48	0x3d3a9cd7	0.04555973
49	0x3d5602d9	0.05224881
50	0x3b91e8c3	0.004452796
51	0xbd5d8fbf	-0.054092165
52	0x3cf9ebc2	0.030507926
53	0x3cddf418	0.027093932
54	0x3da04521	0.07825685
55	0x3d24182b	0.04006211
56	0x3cd56913	0.02605108
57	0x3da902b5	0.082524695
58	0x3db8c619	0.09022159
59	0x3d8ff931	0.07029951
60	0x3d0da368	0.034579664
61	0x3d7b7b97	0.06139716
62	0x3d9f6584	0.077830344
63	0xbd1509cc	-0.036386296
64	0x3da09f60	0.07842898
65	0xbca83287	-0.020531906
66	0xbdac3f60	-0.08410525
67	0xbd441ad2	-0.04787714
68	0x3dde60c1	0.10858298
69	0x3dd56be9	0.10420973
70	0xbcfb7f59	-0.030700373
71	0x3dd65402	0.10465242
72	0x3def6c0d	0.11690531
73	0x3e2b3210	0.16718316
74	0xbd1016cf	-0.035178002
75	0xbcc92922	-0.024555746
76	0x3da19f7f	0.078917496
77	0x3dc8cabb	0.09804293
78	0x3dbfac06	0.09358983
79	0x3d9c9ad1	0.076467164
80	0xbd98bbbf	-0.07457685
81	0x3d7d72d4	0.061877087
82	0xbd2900f1	-0.041260663
83	0x3d2b23df	0.041782256
84	0x3d8d62b3	0.06903591
85	0x3d7e4592	0.062078066
86	0xba22e5c0	-0.0006214045
87	0x3caa0593	0.020754611
88	0x3db3d912	0.08781637
89	0x3dfea8ea	0.124345616
90	0xbdc374b6	-0.09543745
91	0xbcbe6c9c	-0.023245148
92	0x3d9c4c42	0.076317325
93	0xbe2c7d67	-0.16844712
94	0xbd414615	-0.047185976
95	0x3e1107a0	0.14163065
96	0xbd5be2d3	-0.053683113
97	0x3ba620d2	0.0050698305
98	0x3b018fff	0.0019769666
99	0xbcebf7fd	-0.028804773
100	0xbd41d296	-0.04731997
101	0xbdcf9fb6	-0.10137884
102	0x3e83f2fa	0.25771314
103	0x3cc86690	0.024462968
104	0xbdbbd0c9	-0.09170682
105	0x3d800f79	0.06252951
106	0xbc1411b3	-0.009037423
107	0x3d2f2ac6	0.0427654
108	0xbd75bb15	-0.05999287
109	0x3d79a2ff	0.06094646
110	0x3d94d9f9	0.072681375
111	0x3bf326ca	0.0074203955
112	0xbc2dff71	-0.010619984
113	0x3c2b5055	0.010456164
114	0xbdc57524	-0.096414834
115	0xbd79c205	-0.060976047
116	0xbda62fcd	-0.08114586
117	0xbdc8b5e2	-0.098003164
118	0xbdc5abc9	-0.09651906
119	0x3db3700e	0.08761607
120	0x3be88ac9	0.0070966226
121	0xbca07c81	-0.019590618
122	0xbda0fd3d	-0.07860801
123	0xbce8187c	-0.028331988
124	0xba4ebf91	-0.0007886822
125	0x3da74863	0.081681035
126	0x3caf4b69	0.021398263
127	0xbd0aeb1f	-0.033915635
128	0xbd570f3e	-0.05250477
129	0x3dad33d2	0.084571496
130	0xbd4fe879	-0.050758813
131	0x3ae98323	0.0017815571
132	0xbcf220e3	-0.029556697
133	0x3dad5d20	0.08465028
134	0xbd7a2fc8	-0.061080724
135	0xbd4e50f3	-0.050370168
136	0x3d959aec	0.0730494
137	0x3db6909a	0.08914299
138	0x3c2c3dba	0.010512764
139	0xbd0cf42b	-0.034412544
140	0x3d8c76ad	0.06858573
141	0xbd9588e8	-0.073015034
142	0xbd175af2	-0.036951967
143	0xbd83622d	-0.0641521
144	0xbdbb08d0	-0.0913254
145	0x3cf04223	0.029328411
146	0xbdfa790b	-0.12230118
147	0x3ceee621	0.029162468
148	0x3d6ec461	0.05829275
149	0x3c8025d2	0.015643034
150	0xbdb4508a	-0.08804424
151	0x3e2d9a5f	0.16953419
152	0xbdbf8c1a	-0.09352894
153	0x3ceaeaee	0.028676476
154	0xbc5bf74b	-0.013425658
155	0x3d670a78	0.05640647
156	0xbe01d47e	-0.12678716
157	0xbc50382d	-0.012708706
158	0xbdcd0a6f	-0.10011756
159	0x3b776424	0.0037748897
160	0x3d7c32b2	0.061571784
161	0x3b7e18a2	0.0038772007
162	0xbbe76d8a	-0.0070626186
163	0x3db67bf8	0.08910364
164	0xbd23105d	-0.039810527
165	0xbd690b0f	-0.056895312
166	0x3cdea429	0.027177887
167	0x3e120178	0.14258373
168	0xbda63f02	-0.081174865
169	0x3dd8fb31	0.10594786
170	0x3d9a1ee6	0.07525425
171	0xbdec4109	-0.11535842
172	0x3d28df39	0.041228507
173	0xbd335e8f	-0.04379135
174	0xbbb54505	-0.0055319094
175	0x3db4168f	0.08793365
176	0xbe2b3f15	-0.16723283
177	0x3d823af3	0.063589
178	0x3d552daa	0.0520455
179	0x3db06628	0.08613235
180	0xbd62aa11	-0.05533797
181	0xbe5c7289	-0.21528067
182	0x3c156c2e	0.00912003
183	0x3da4de21	0.0805018
184	0x3d988263	0.07446744
185	0xbd2143a6	-0.039371155
186	0xbd7ae2fb	-0.06125162
187	0x3cce1cb0	0.025160164
188	0xbd8eddac	-0.06975874
189	0xbda59b92	-0.08086313
190	0x3d2aebbc	0.04172872
191	0xbe3bda3d	-0.1834497
192	0x3d2d5537	0.042317595
193	0x3e34b849	0.17648424
194	0xbc1ff2b9	-0.009762459
195	0xbd6f820c	-0.05847363
196	0x3d5a2fdc	0.0532683
197	0x3db167bd	0.08662365
198	0xbe42a61d	-0.1900868
199	0x3ea8b3bc	0.32949626
200	0xbe2463c7	-0.16053687
201	0xbd8c0547	-0.06836944
202	0x3ea810b2	0.32825238
203	0x3db49301	0.08817101
204	0xbddcce53	-0.10781541
205	0xbd66f248	-0.0563834
206	0xbd91565e	-0.07096551
207	0x3db5c6b6	0.08875792
208	0xbd3578f7	-0.044304814
209	0x3d9978db	0.074937545
210	0x3da23a2a	0.0792125
211	0xbcd9e12d	-0.02659663
212	0x3dc9e04a	0.09857233
213	0xbd8be7f7	-0.06831353
214	0x3d14e938	0.036355227
215	0xbdb81916	-0.0898916
216	0xbda16dfd	-0.07882307
217	0xbdc43b46	-0.09581618
218	0x3c6d22c9	0.014473625
219	0x3cbeace7	0.023275806
220	0x3d7d794b	0.061883252
221	0xbd16fa29	-0.036859665
222	0xbd83b2ee	-0.064306125
223	0xbc4012d0	-0.011723235
224	0x3d8db935	0.06920091
225	0xbc3a6d14	-0.011378545
226	0xbd66de1f	-0.056364175
227	0x3d3d003e	0.04614281
228	0x3d1a0550	0.037602723
229	0x3dfc2e72	0.12313546
230	0x3da488f9	0.08033938
231	0xbdc0d4bb	-0.09415575
232	0xbda3119a	-0.079623416
233	0xbd140aa4	-0.03614296
234	0xbd5466eb	-0.051855963
235	0xbd999d35	-0.07500688
236	0xbd713784	-0.058890834
237	0xbd86077f	-0.065443985
238	0xbd5b3910	-0.053521216
239	0xbd8a5a9b	-0.06755563
240	0x3e4f74d5	0.20259412
241	0x3d8e73ff	0.06955718
242	0x3d498541	0.049199346
243	0x3dbb8a1c	0.09157202
244	0x3b4099d0	0.0029388554
245	0xbd04e13f	-0.032441374
246	0x3a8ae275	0.0010596054
247	0x3d53a5bf	0.05167174
248	0xbcf68616	-0.030093234
249	0x3dcbbfb0	0.09948671
250	0x3da891a0	0.08230901
251	0xbcb8d376	-0.02256177
252	0xbc91b30a	-0.017785568
253	0x3d487840	0.048942804
254	0xbbbe148d	-0.0058007897
255	0x3d88265b	0.06647941

gnn_node.convs.0.mlp.0.bias f4 [200]
0	0xbd9abc1e	-0.07555412
1	0x3d8b0f61	0.06790043
2	0xbb8ca649	-0.0042922837
3	0xbd9c5d43	-0.07634976
4	0x3d807e2f	0.062740676
5	0x3d6bae91	0.057539526
6	0xbccbd9c0	-0.024884105
7	0xbd065b06	-0.03280165
8	0xbda9680f	-0.08271801
9	0x3d09349e	0.033497445
10	0x3d96c58b	0.07361897
11	0x3d296e8b	0.041365188
12	0x3dc490c1	0.09597922
13	0xbc3a6295	-0.011376043
14	0x3ce1758e	0.027521875
15	0x3da18ae0	0.078878164
16	0x3dac034e	0.08399068
17	0x3d41c90e	0.04731088
18	0xbc13a924	-0.009012494
19	0xbdaf5076	-0.085602686
20	0x3d285c6a	0.041103758
21	0xbd8e3289	-0.069432326
22	0x3da50478	0.08057493
23	0x3d621343	0.05519415
24	0xbd526456	-0.05136522
25	0x3db4475c	0.08802673
26	0x3ceff70f	0.029292611
27	0x3d611448	0.054950982
28	0xbd70b276	-0.058763944
29	0xbbb8bdb8	-0.0056378506
30	0x3daeb54e	0.08530675
31	0xbcea87fe	-0.0286293
32	0xbd8e3ec2	-0.06945564
33	0x3dba3934	0.09092942
34	0x3cfc0357	0.030763311
35	0xbc80e2aa	-0.015733082
36	0x3db545a4	0.088511735
37	0x3dcc3835	0.09971658
38	0x3c6a7b89	0.01431168
39	0xbce8c4c8	-0.028414145
40	0x3dc12c8a	0.09432323
41	0x3d66b7f5	0.05632778
42	0xbd5e27ef	-0.054237302
43	0x3d61334f	0.054980572
44	0xbdc7fa13	-0.09764495
45	0x3d9809fa	0.07423778
46	0xbd817575	-0.06321231
47	0xbd1ea4c0	-0.038731337
48	0xbdaff6ca	-0.08591993
49	0xbd54476a	-0.05182592
50	0xbda2372e	-0.07920681
51	0x3cf85136	0.030312162
52	0xbd6a7c43	-0.05724741
53	0x3c344c68	0.011004545
54	0xbd0db244	-0.034593835
55	0xbd642fc4	-0.055709615
56	0xbcf64d8c	-0.030066274
57	0xbc861461	-0.01636714
58	0xbdc5b07d	-0.09652803
59	0x3da20c9f	0.079125635
60	0xbc988415	-0.01861767
61	0x3d49c43e	0.049259417
62	0x3d2ac8a5	0.041695256
63	0x3d38ebc7	0.04514673
64	0x3da17ec3	0.07885506
65	0x3d096dec	0.033552095
66	0x3d700c30	0.058605373
67	0x3d4a38fc	0.04937075
68	0x3d91d358	0.07120389
69	0xbcb17e4a	-0.021666665
70	0x3d1b16f7	0.037863698
71	0xbd802526	-0.062570855
72	0x3ccb66e6	0.02482934
73	0x3dcc1e33	0.099666975
74	0xbbb39462	-0.005480335
75	0xbcc21ec2	-0.023696307
76	0xbc8df253	-0.017327463
77	0x3d96dfee	0.0736693
78	0x3d4922b7	0.049105372
79	0xbd849800	-0.06474304
80	0xbda3d819	-0.08000202
81	0x3d985f32	0.07440032
82	0xbbb8def1	-0.005641811
83	0x3d059d7a	0.032620884
84	0xbd556085	-0.052094
85	0xbd924b94	-0.07143322
86	0xbd8d6b70	-0.06905258
87	0x3d9ebfa6	0.07751398
88	0xbcec5f74	-0.02885411
89	0xbbb45561	-0.005503342
90	0xbdac69ec	-0.084186405
91	0xbd84c526	-0.064829156
92	0xbd6541c8	-0.055970937
93	0xbbfcf6f8	-0.0077198707
94	0xbc834287	-0.016022934
95	0xbc95f6a9	-0.018306093
96	0x3c6a8cf1	0.01431583
97	0x3d7d34c8	0.061817914
98	0x3d2bed83	0.041974556
99	0xbdc3af91	-0.09554971
100	0xbd25c328	-0.04046932
101	0x3d4a2c3a	0.049358584
102	0x3d34b000	0.04411316
103	0x3d9a64b5	0.075387396
104	0xbd46128f	-0.048357543
105	0x3cd393da	0.025827337
106	0x3bd177bf	0.0063924487
107	0xbd011c6b	-0.031521242
108	0x3caad02f	0.020851223
109	0x3db59413	0.088661335
110	0x3c999ee2	0.018752519
111	0x3bb574a4	0.0055375863
112	0xbcdeab82	-0.02718139
113	0xbd31fdc6	-0.043454908
114	0xbca20aa3	-0.019780463
115	0x3d47389e	0.04863798
116	0xbd8b4be8	-0.06801587
117	0x3d96fca9	0.0737241
118	0xbcdf6f4b	-0.027274748
119	0xbc97a8bc	-0.018513076
120	0x3cc2886a	0.023746688
121	0x3c51dc07	0.012808806
122	0xbd3fe3e7	-0.046848204
123	0xbd54f8c5	-0.051995058
124	0x3d23d09c	0.039993867
125	0xbc536ad4	-0.012903888
126	0x3cb9ef05	0.022696981
127	0x3d2a067b	0.041510087
128	0x3d7c3d93	0.06158216
129	0xbd8df9ba	-0.06932397
130	0xbd13a4eb	-0.03604595
131	0xbb9808cc	-0.0046397205
132	0x3cf5ed10	0.030020267
133	0x3ca05ce8	0.019575551
134	0x3db0a329	0.0862487
135	0x3d9b94b3	0.075967215
136	0xbdcc8645	-0.099865474
137	0xbdcfb22d	-0.10141406
138	0x3cff54fa	0.03116845
139	0x3d67a6ca	0.056555547
140	0xbd0bf5b2	-0.03416986
141	0x3da373d8	0.0798108
142	0xbd9a7bd6	-0.07543151
143	0x3b007afe	0.001960456
144	0xbd5a0672	-0.053228803
145	0x3d3ebc29	0.046566162
146	0x3d8f4094	0.06994739
147	0xb9a356c1	-0.0003115442
148	0xbbf9f267	-0.0076277736
149	0x3d3ba1f5	0.04580875
150	0x3da56cf4	0.08077422
151	0xbd9c7c66	-0.076409146
152	0x3db1413e	0.08655022
153	0x3daecef0	0.08535564
154	0xbd9b8ac1	-0.075948246
155	0x3c85a097	0.016311927
156	0xbdc18973	-0.094500445
157	0x3bd59931	0.006518506
158	0xbd4befd9	-0.049789283
159	0x3dca0113	0.09863486
160	0xbd6977a6	-0.05699887
161	0x3c91e27b	0.01780819
162	0xbd0849bf	-0.033273455
163	0xbd9ab073	-0.07553186
164	0x3da596a7	0.08085375
165	0xbdac4e0e	-0.08413325
166	0x3d5dc152	0.054139443
167	0x3ac92d28	0.0015348541
168	0xbd407763	-0.046988856
169	0xbb425988	-0.0029655416
170	0xbc0493c1	-0.008091868
171	0x3ca20241	0.019776465
172	0xbdc9b95d	-0.09849808
173	0x3d23c892	0.0399862
174	0xbdb31ef1	-0.08746136
175	0x3d6b4316	0.057437025
176	0x3d9bd71b	0.076093875
177	0x3d96a707	0.07356077
178	0xbd22993b	-0.039696913
179	0xbdae26fb	-0.08503529
180	0xbc858fc0	-0.016303897
181	0x3ccf4733	0.025302505
182	0xbd940144	-0.07226804
183	0x3dae8da9	0.08523113
184	0x3a1d5aef	0.0006002625
185	0xbdb20096	-0.08691518
186	0xbdbc4c64	-0.09194258
187	0x3d86c9a1	0.065814264
188	0xbdb437c4	-0.08799699
189	0x3d4d1b5e	0.050074928
190	0x3d580b81	0.052745346
191	0xbb4a4d24	-0.0030868733
192	0xbd7bc60c	-0.06146817
193	0x3d9b9407	0.07596593
194	0x3cfdf6f5	0.031001547
195	0xb764456a	-1.3606021e-05
196	0x3bf47f6e	0.00746148
197	0x3cbd745d	0.023126775
198	0x3d5310ca	0.051529683
199	0xbd6017dd	-0.054710258

gnn_node.convs.0.mlp.1.weight f4 [200]
0	0x3f77cd5c	0.9679773
1	0x3f8bb892	1.0915701
2	0x3f798aad	0.9747723
3	0x3f7b41da	0.98147357
4	0x3f774e55	0.966039
5	0x3f852f71	1.0405103
6	0x3f80f9b0	1.0076199
7	0x3f7f88cd	0.99818116
8	0x3f80f5a7	1.0074967
9	0x3f7ef91c	0.9959886
10	0x3f7cc4c3	0.98737735
11	0x3f8b137a	1.0865319
12	0x3f7d56e9	0.9896074
13	0x3f807660	1.0036125
14	0x3f7c94d1	0.98664576
15	0x3f7bbc3d	0.98334104
16	0x3f7d6ebb	0.98997086
17	0x3f790d83	0.9728624
18	0x3f7d9ad1	0.99064356
19	0x3f760364	0.96098924
20	0x3f77133f	0.9651374
21	0x3f88d49d	1.0689884
22	0x3f745844	0.9544718
23	0x3f83a92e	1.0286005
24	0x3f83215f	1.0244559
25	0x3f828090	1.0195484
26	0x3f7fef91	0.99974924
27	0x3f736fbf	0.95092386
28	0x3f7ebb56	0.995046
29	0x3f740519	0.9532028
30	0x3f799bf3	0.97503585
31	0x3f86e432	1.053839
32	0x3f7b2061	0.9809628
33	0x3f8253ba	1.0181801
34	0x3f7d0989	0.98842674
35	0x3f717eb0	0.94333935
36	0x3f7fe7e9	0.9996324
37	0x3f86f3b8	1.0543127
38	0x3f779e5b	0.96726006
39	0x3f86a991	1.0520498
40	0x3f835851	1.0261327
41	0x3f73dcb3	0.95258635
42	0x3f7761d7	0.96633667
43	0x3f81265f	1.0089835
44	0x3f8547a0	1.0412483
45	0x3f7d1d5e	0.98872936
46	0x3f7acc33	0.97967833
47	0x3f7f6ea4	0.997782
48	0x3f8336ff	1.0251158
49	0x3f8285ac	1.0197043
50	0x3f79d582	0.9759141
51	0x3f859621	1.0436441
52	0x3f73cfd7	0.95239013
53	0x3f76da3d	0.96426755
54	0x3f799391	0.97490793
55	0x3f83a843	1.0285724
56	0x3f7b2d66	0.9811615
57	0x3f7dbb41	0.9911385
58	0x3f80c3e0	1.0059776
59	0x3f7f0f13	0.99632376
60	0x3f7fb84f	0.9989061
61	0x3f7aa150	0.97902393
62	0x3f7cfdda	0.98824847
63	0x3f743c67	0.95404667
64	0x3f777eb5	0.96677715
65	0x3f7d721b	0.99002236
66	0x3f7bf5e4	0.98422074
67	0x3f734052	0.9502002
68	0x3f789a60	0.9711056
69	0x3f7e9ba6	0.9945625
70	0x3f7aedc5	0.9801906
71	0x3f80b22f	1.0054377
72	0x3f852109	1.0400707
73	0x3f82f8e8	1.023221
74	0x3f803537	1.001624
75	0x3f8125ec	1.0089698
76	0x3f77742a	0.9666163
77	0x3f7a44aa	0.97761023
78	0x3f729d20	0.94771004
79	0x3f76d0fa	0.9641262
80	0x3f6ebb0e	0.9325417
81	0x3f7c80dc	0.98634124
82	0x3f7cf1a5	0.9880622
83	0x3f76b6a2	0.96372426
84	0x3f81e19d	1.0146977
85	0x3f7beb1b	0.9840562
86	0x3f83d575	1.0299517
87	0x3f76e9a6	0.9645027
88	0x3f7db3af	0.991023
89	0x3f7f0aea	0.9962603
90	0x3f7f947e	0.99835956
91	0x3f76d947	0.9642529
92	0x3f811dfa	1.0087273
93	0x3f841d74	1.0321488
94	0x3f7caa13	0.9869701
95	0x3f7c5992	0.98574173
96	0x3f7e3d20	0.9931202
97	0x3f7973f2	0.97442544
98	0x3f7e1bed	0.9926136
99	0x3f776029	0.96631104
100	0x3f75bb50	0.9598894
101	0x3f8439c7	1.0330132
102	0x3f800c82	1.0003817
103	0x3f839bac	1.0281882
104	0x3f7d7f0e	0.99021995
105	0x3f7a1021	0.9768086
106	0x3f872b97	1.0560178
107	0x3f7b1bc7	0.9808926
108	0x3f7cb6c9	0.9871641
109	0x3f7b88a9	0.982554
110	0x3f863147	1.0483788
111	0x3f75cda9	0.9601694
112	0x3f883576	1.0641315
113	0x3f800603	1.0001835
114	0x3f7eca7c	0.99527717
115	0x3f7ab22b	0.9792811
116	0x3f7be2d2	0.98392975
117	0x3f7bd1a0	0.9836674
118	0x3f812fc8	1.0092707
119	0x3f7cfe17	0.9882521
120	0x3f7ed419	0.99542385
121	0x3f752cb4	0.95771337
122	0x3f863732	1.0485594
123	0x3f7a5c29	0.97796875
124	0x3f7e0571	0.9922705
125	0x3f7ebc71	0.9950629
126	0x3f7a77ab	0.9783885
127	0x3f7d2f2c	0.98900104
128	0x3f7d8cc8	0.9904294
129	0x3f7eee09	0.9958196
130	0x3f8054c5	1.002587
131	0x3f7ad456	0.9798025
132	0x3f6f5d43	0.9350168
133	0x3f8566e9	1.0422031
134	0x3f772ba2	0.96550953
135	0x3f79c9eb	0.9757373
136	0x3f80406f	1.0019664
137	0x3f8656f3	1.0495285
138	0x3f830503	1.0235904
139	0x3f869abc	1.0515971
140	0x3f8dd41e	1.1080358
141	0x3f830346	1.0235374
142	0x3f780ee0	0.968977
143	0x3f7d9864	0.99060655
144	0x3f7ab7db	0.9793679
145	0x3f79d403	0.9758913
146	0x3f7dc9e8	0.9913621
147	0x3f7f1719	0.9964462
148	0x3f862a9b	1.0481752
149	0x3f829edb	1.0204729
150	0x3f7a0d20	0.9767628
151	0x3f784a45	0.96988326
152	0x3f81a43b	1.0128244
153	0x3f7a2523	0.97712916
154	0x3f830bcb	1.0237974
155	0x3f7e59d3	0.9935581
156	0x3f7fd9b1	0.99941546
157	0x3f835e6c	1.026319
158	0x3f81d655	1.0143534
159	0x3f8785ad	1.058767
160	0x3f7eb23a	0.994907
161	0x3f8184a3	1.0118603
162	0x3f77842f	0.9668607
163	0x3f831c56	1.0243022
164	0x3f85a1c2	1.043999
165	0x3f7c1c06	0.9848026
166	0x3f7c91af	0.98659796
167	0x3f7ad480	0.979805
168	0x3f7dfd1c	0.9921434
169	0x3f84e81c	1.0383334
170	0x3f7b4a60	0.9816036
171	0x3f78b144	0.97145486
172	0x3f7eb55a	0.9949547
173	0x3f6a7e1c	0.9159868
174	0x3f767c81	0.9628373
175	0x3f79d1c0	0.9758568
176	0x3f761123	0.961199
177	0x3f82e0cf	1.0224856
178	0x3f78e258	0.97220373
179	0x3f6f9b09	0.9359594
180	0x3f7e5f23	0.9936392
181	0x3f7bd47e	0.9837111
182	0x3f7c3821	0.98523146
183	0x3f7a7029	0.9782739
184	0x3f87f810	1.0622578
185	0x3f7ce8db	0.9879281
186	0x3f845b3f	1.0340346
187	0x3f814ebe	1.0102155
188	0x3f76f713	0.96470755
189	0x3f7c2c92	0.9850551
190	0x3f7f3be0	0.99700737
191	0x3f784124	0.96974397
192	0x3f89d7e4	1.076901
193	0x3f78fc8d	0.9726036
194	0x3f8c3c4d	1.0955902
195	0x3f7d0494	0.9883511
196	0x3f7e8877	0.9942698
197	0x3f7b00d5	0.98048145
198	0x3f7e5385	0.9934619
199	0x3f7c5bd2	0.98577607

gnn_node.convs.0.mlp.1.bias f4 [200]
0	0xbb6d3bc9	-0.0036198965
1	0x3df91b67	0.1216343
2	0x3c8376f1	0.016047927
3	0xbc32faa6	-0.010924017
4	0xbb94e85c	-0.004544301
5	0x3d4881c7	0.04895189
6	0x3c7a84ff	0.015290498
7	0x3ceb302a	0.02870949
8	0xbbad70c2	-0.005292983
9	0x3b051beb	0.002031083
10	0xbc4b0aba	-0.012392694
11	0x3d82e6f8	0.0639171
12	0xbc0294ac	-0.007970016
13	0x3ce88e0e	0.02838805
14	0x3cbfd681	0.023417713
15	0xbbc4e3cc	-0.006008601
16	0xbd04d54d	-0.032429982
17	0xbcc84da6	-0.024451088
18	0x3c2ebe02	0.010665419
19	0x3bd1f72a	0.006407638
20	0x3c8cfda3	0.017210787
21	0x3d668d41	0.056287054
22	0x3cc760da	0.024338175
23	0x3ca224d6	0.019792955
24	0x3d25bb40	0.04046178
25	0x3d20f608	0.039297134
26	0x3cda990a	0.026684303
27	0xbcc8786a	-0.02447148
28	0xbba99921	-0.005175725
29	0xbc16ed0b	-0.009211789
30	0x3ab50bd0	0.0013812725
31	0x3d49c2bf	0.04925799
32	0xbbcb8108	-0.00621045
33	0x3c95afa7	0.018272234
34	0x3cf7b61a	0.0302382
35	0x3cfddd54	0.030989327
36	0x3c6b0c58	0.014346205
37	0x3d2d2fcc	0.04228191
38	0xbc82650f	-0.01591733
39	0x3da7235c	0.08161041
40	0x3d68fddd	0.056882728
41	0xbc372238	-0.011177592
42	0x3c1eca96	0.009691855
43	0x3ccd1393	0.025033748
44	0x3d947107	0.07248121
45	0x3d161abd	0.036646593
46	0xbbd6d47a	-0.006556091
47	0x3cadfd4e	0.02123895
48	0x3c9fc23d	0.0195018
49	0x3c8263ab	0.015916666
50	0x3b9f0b2e	0.0048536276
51	0x3dc962d2	0.098333016
52	0xbc021b7c	-0.007941123
53	0xbd75c2c0	-0.06000018
54	0xbc8cf0f2	-0.017204735
55	0x3ceab30d	0.028649831
56	0x39314dc2	0.00016909002
57	0x3d585cb5	0.052822787
58	0xbbd2b298	-0.0064299814
59	0x3cd2513f	0.025673507
60	0x3ce29b1e	0.027661856
61	0x3b17d625	0.0023168412
62	0x3cbfdeab	0.023421606
63	0xbc3bf98f	-0.011473074
64	0x3ad27eec	0.0016059554
65	0x3b88deec	0.004176965
66	0x3cb6dc5e	0.022321876
67	0xbc8d5814	-0.017253913
68	0xbc14c87a	-0.009081
69	0x3c16a53f	0.009194671
70	0xbcd448a8	-0.025913551
71	0xbc1c818d	-0.009552372
72	0x3da49628	0.080364525
73	0x3cc63c3e	0.024198648
74	0x3c00ff47	0.007873363
75	0xba95d96f	-0.0011432598
76	0xbd1abfa6	-0.037780426
77	0x3c399359	0.011326634
78	0xbd00d808	-0.031456023
79	0xbcee6b16	-0.029103797
80	0x3c4d235c	0.012520637
81	0x3d479e2b	0.048734825
82	0xbc9aae22	-0.018881861
83	0xbca6e033	-0.020370578
84	0x3cf88413	0.030336415
85	0xbc682fca	-0.01417155
86	0x3d7a7ee4	0.06115617
87	0x3d62ba8d	0.05535369
88	0xbca74d01	-0.02042246
89	0xbca0896d	-0.01959678
90	0xbbf537d9	-0.007483464
91	0xbb8ad7ae	-0.004237137
92	0x3d0aee1a	0.033918478
93	0x3d9aab28	0.07552177
94	0x3cfa6ad1	0.030568512
95	0xbbe33e0c	-0.006934887
96	0xbc6172b6	-0.013760259
97	0xbc24c94b	-0.010057758
98	0xbcb53c2a	-0.022123415
99	0xbc0ec69b	-0.008714343
100	0xbc8bc39e	-0.017061051
101	0x3d67681f	0.056495782
102	0xbbe22ab8	-0.006902065
103	0x3c2c6d98	0.010524176
104	0x3d219c8a	0.039455928
105	0xbcc8a107	-0.024490846
106	0x3da73750	0.08164847
107	0x3bdfcb99	0.0068296907
108	0x3d59fee5	0.053221602
109	0xbb407b8d	-0.0029370517
110	0x3d1da3b4	0.038486198
111	0xbd450102	-0.048096664
112	0x3db108b5	0.08644239
113	0x3cbd5836	0.023113351
114	0xbcb3d713	-0.021953141
115	0xbc47f6de	-0.012204854
116	0x3ca32e20	0.019919455
117	0xbc9cf639	-0.019160377
118	0x3cdb95ed	0.026804889
119	0x3c289608	0.0102896765
120	0x3d041f27	0.03225627
121	0xbd07a870	-0.03311962
122	0x3d9ea55e	0.07746385
123	0x3c8b2335	0.016984561
124	0xbcf24455	-0.029573599
125	0x3cd8055a	0.02636974
126	0xbcfa1fff	-0.030532835
127	0xbc962210	-0.01832679
128	0x3c935512	0.0179849
129	0xbd4002d8	-0.046877712
130	0xbd00d493	-0.031452727
131	0xbcc817ae	-0.024425354
132	0xbbc9207e	-0.0061379066
133	0x3d9837fc	0.07432553
134	0xbce2e09c	-0.027694993
135	0xbc44ce4a	-0.012012074
136	0x3cfafea2	0.030638997
137	0x3d26f96e	0.04076522
138	0x3cab6838	0.020923719
139	0x3d6d218d	0.057893325
140	0x3ddb1725	0.10697774
141	0x3d02909f	0.031876203
142	0xbc4cdb6c	-0.012503486
143	0x3ca9cb8e	0.020726945
144	0x3cab934d	0.020944262
145	0x3b849859	0.0040464816
146	0x3d3fcc9e	0.046825998
147	0xbcbd1c8b	-0.0230849
148	0x3d38df75	0.04513498
149	0x3d276caa	0.040875115
150	0xbcebeabe	-0.028798457
151	0xbd14cdf7	-0.036329236
152	0x3d0d4084	0.034485355
153	0x3cc2bf14	0.023772754
154	0x3d15ee99	0.036604498
155	0x3c63a943	0.013895336
156	0xba9b0db5	-0.0011829647
157	0x3d998f6c	0.07498059
158	0x3d472151	0.048615757
159	0x3d178d51	0.037000004
160	0xbcfaedbe	-0.030630942
161	0x3d548f05	0.051894207
162	0x3bf45af7	0.007457133
163	0x3d1b02a1	0.037844304
164	0x3d25be70	0.04046482
165	0x3b5bb5cf	0.0033525114
166	0x3c32bc66	0.0109091755
167	0xbcb0f54a	-0.021601338
168	0xbc6c6a87	-0.014429695
169	0x3d5052eb	0.050860327
170	0x3c2be685	0.010491972
171	0x3c8cc546	0.017183911
172	0x3b92b7a4	0.004477458
173	0xbd22e824	-0.039772168
174	0xbc551708	-0.013005979
175	0xbc8200f3	-0.015869593
176	0xbc59b54b	-0.0132878525
177	0x3d1eca56	0.03876718
178	0xbd2bb099	-0.041916464
179	0xbd29a112	-0.041413374
180	0x3cd2f80d	0.025753045
181	0xbc9e1548	-0.019297257
182	0x3be2938f	0.006914563
183	0xbcdcf69a	-0.026973058
184	0x3e39475a	0.18093625
185	0xbc0c370d	-0.008558047
186	0x3cd6a6c9	0.026202576
187	0x3c308987	0.010774977
188	0xbc83f390	-0.01610735
189	0xba18943a	-0.00058204273
190	0xbd10d4ec	-0.035359308
191	0xbcdb26a3	-0.026751822
192	0x3db06bb2	0.08614291
193	0xbc6131c5	-0.013744776
194	0x3dac1f47	0.08404403
195	0xbba4408d	-0.005012578
196	0x3d659fdd	0.05606066
197	0x3c4f77ab	0.012662808
198	0x3c0d211e	0.008613853
199	0xbc546324	-0.01296309

gnn_node.convs.0.mlp.1.running_mean f4 [200]
0	0x41c87cfd	25.06103
1	0xc1161ba7	-9.381751
2	0x418f03f9	17.87694
3	0x41bb7751	23.43326
4	0x41d3b1d6	26.461834
5	0x415157bf	13.083922
6	0xc08ea04e	-4.4570684
7	0x418bc871	17.472872
8	0xc0b578fa	-5.6710176
9	0x41c84584	25.033943
10	0x418b1a98	17.387985
11	0x4012c38d	2.2931855
12	0xc14d6a22	-12.838411
13	0xc11a9cb8	-9.663261
14	0x419362e1	18.42328
15	0x41c667f4	24.800758
16	0xc16e2632	-14.884325
17	0x419476ea	18.558064
18	0xc0e9c97d	-7.3058457
19	0x41bff534	23.994728
20	0x411d997d	9.849973
21	0xc0decc4f	-6.96244
22	0x4176c8a2	15.423983
23	0x411b632d	9.711713
24	0xbfead941	-1.8347551
25	0x4178e79f	15.556548
26	0x400f7150	2.241291
27	0xc1c00fb5	-24.00767
28	0x41d1b2ed	26.212366
29	0x40ffb36f	7.9906535
30	0x415891c3	13.535586
31	0x418ea245	17.829233
32	0x4167b908	14.482674
33	0xc169f57b	-14.622432
34	0x41341775	11.255727
35	0x414ef8a8	12.935707
36	0x412883d7	10.532187
37	0xc16980ce	-14.593946
38	0x412c22a2	10.758455
39	0x413c2689	11.759408
40	0x411dab52	9.854326
41	0x4163ea4d	14.244702
42	0x418c9bad	17.576014
43	0x4029c086	2.6523757
44	0xc13e4686	-11.892218
45	0x41073cb7	8.452323
46	0xc1b0d803	-22.105474
47	0x41a6c091	20.844027
48	0xc122e65e	-10.181242
49	0xc0e158f7	-7.04211
50	0x418962b9	17.173204
51	0xc09126e6	-4.5359983
52	0x416ee7eb	14.931621
53	0xc0e63804	-7.194338
54	0x419d733f	19.681273
55	0xc10a9bbf	-8.663024
56	0x41ccdbd2	25.607334
57	0x415f7a7e	13.967405
58	0xc0dd0f77	-6.908138
59	0xc035e7ea	-2.84228
60	0x4195766a	18.68282
61	0x41c9932a	25.196857
62	0x40d4da67	6.6516604
63	0x419d3954	19.652992
64	0x41c1aacd	24.208399
65	0x41956793	18.675573
66	0x41001c14	8.006855
67	0x41845952	16.543613
68	0x41e1f98e	28.246853
69	0x4194f305	18.618662
70	0x41fad5ba	31.354359
71	0xc111cc80	-9.112427
72	0xc0c575ae	-6.170615
73	0xc180271c	-16.019096
74	0x41ad3cc5	21.654673
75	0xc19863c5	-19.048716
76	0x41981e7b	19.014883
77	0x41cd5a0f	25.668974
78	0x41fc025e	31.501156
79	0x4141f55e	12.122404
80	0x4203689c	32.852158
81	0x41301351	11.004716
82	0xc1a32676	-20.39378
83	0x419f41d9	19.907152
84	0x4165628e	14.336561
85	0xc19f80a7	-19.937819
86	0x41305a57	11.022056
87	0x4135934c	11.348461
88	0xc0b97392	-5.7953577
89	0xc1f3e701	-30.487795
90	0xc176d46a	-15.426859
91	0x4195c276	18.719952
92	0x411db8e8	9.857643
93	0x40bbb93f	5.866363
94	0x41a96734	21.175392
95	0x4192d643	18.35462
96	0x41184ac7	9.518256
97	0x4191523f	18.16516
98	0xc169bf4f	-14.609206
99	0x4180e603	16.11231
100	0x41260941	10.377259
101	0x4048d018	3.137701
102	0x41a07738	20.058212
103	0xc18b58f8	-17.418442
104	0x4190e299	18.110643
105	0xc17f1551	-15.942704
106	0x41836314	16.423378
107	0x418da43e	17.705196
108	0x40a3f744	5.123934
109	0x4139f500	11.622314
110	0x4191e01e	18.234432
111	0xc0b78176	-5.7345533
112	0xc0409f98	-3.0097408
113	0xc130f529	-11.059854
114	0xc04a308e	-3.1592135
115	0x4114cd04	9.300053
116	0x4141e6c2	12.118837
117	0xc10df6d4	-8.872761
118	0xc14f9ad4	-12.9753
119	0x40c00714	6.000864
120	0x41ce01da	25.750904
121	0x413bfd05	11.749272
122	0x4155bf95	13.359273
123	0x412d851f	10.845
124	0xc0e03c74	-7.0073795
125	0x4145d1b8	12.363701
126	0xc0c7014d	-6.218909
127	0xc12e6d1c	-10.901638
128	0x41ca4de8	25.28804
129	0xc126fbe4	-10.436497
130	0xc192fab1	-18.372408
131	0xc06e3019	-3.7216856
132	0x41f49465	30.572458
133	0x40b7b713	5.741098
134	0x40fa216f	7.8165812
135	0x41d9a098	27.203415
136	0xc146b680	-12.419556
137	0x412090dd	10.035367
138	0x41cbc07a	25.468983
139	0x415ab417	13.668967
140	0xc18f2132	-17.891209
141	0xc0d69524	-6.7057056
142	0x4133bc08	11.233406
143	0x4173e1ad	15.242597
144	0x41d5460c	26.659203
145	0x4190a5a6	18.080883
146	0x417a8404	15.65723
147	0xc14264ba	-12.149591
148	0xc1521914	-13.131123
149	0x4163246e	14.196394
150	0x41cdf310	25.743683
151	0xc19214ba	-18.26012
152	0xc0ddde47	-6.9333835
153	0x41d8b6f1	27.089327
154	0xc0b6e035	-5.714869
155	0x416c4dc2	14.768984
156	0x414bbe69	12.733987
157	0xc0df5321	-6.9788976
158	0xc1018a3f	-8.0962515
159	0xc127df6f	-10.492049
160	0x41a7c8cf	20.973051
161	0x415f7e4b	13.968333
162	0x41b38d42	22.443974
163	0xc1070d83	-8.440799
164	0x41888dd2	17.069248
165	0xc1b5951a	-22.697803
166	0x411f1df8	9.944817
167	0x4199c8b7	19.223005
168	0xc149d52a	-12.614542
169	0xc1242f31	-10.261521
170	0x420634a0	33.55139
171	0x41b13341	22.150026
172	0x411f0c48	9.940498
173	0x416107c9	14.064401
174	0x414503a0	12.313385
175	0x41516c70	13.088974
176	0x41a21094	20.258095
177	0xc0796eba	-3.8973832
178	0xc16d2b69	-14.823098
179	0xc1103e22	-9.015169
180	0x41588922	13.53348
181	0x4192ba5e	18.341
182	0x4063498a	3.5513635
183	0xc111e980	-9.119507
184	0xc11596f0	-9.34935
185	0x413969d7	11.58834
186	0xc10be47a	-8.74328
187	0x4185a2af	16.704435
188	0xc18e9ef2	-17.82761
189	0x415dcff6	13.863272
190	0xc145fb5d	-12.373868
191	0x414d6046	12.836004
192	0xc0e9b6d2	-7.303567
193	0x41be3f92	23.78104
194	0x40fd4f24	7.9159107
195	0xc1a1e29d	-20.235651
196	0xc1412395	-12.071187
197	0x4165334a	14.325022
198	0x411c738d	9.778211
199	0x41b732f5	22.899881

gnn_node.convs.0.mlp.1.running_var f4 [200]
0	0x443d98d1	758.38776
1	0x42b849ee	92.144394
2	0x43bc7ee5	376.99136
3	0x441e7c82	633.94543
4	0x44400d20	768.2051
5	0x433d5609	189.33607
6	0x42077ff3	33.87495
7	0x43c4a801	393.31253
8	0x4225cf9d	41.452747
9	0x4441e2fe	775.54675
10	0x4396e8a4	301.8175
11	0x420405a0	33.005493
12	0x434bb554	203.70831
13	0x42c1b9a0	96.86255
14	0x43cb79f1	406.95267
15	0x442aa503	682.5783
16	0x43800eb7	256.11496
17	0x43bc40a9	376.50516
18	0x42a6a094	83.31363
19	0x443010af	704.2607
20	0x42e61b15	115.052895
21	0x4263bd5f	56.934933
22	0x438955ec	274.67126
23	0x42dabda1	109.37037
24	0x41b421db	22.516531
25	0x436e30ec	238.1911
26	0x41054c79	8.33117
27	0x442849e8	673.1548
28	0x4446d14e	795.2704
29	0x42b10a9d	88.52073
30	0x435eb110	222.69165
31	0x43a19280	323.14453
32	0x4367cb26	231.79355
33	0x43841173	264.13632
34	0x430812c3	136.07329
35	0x4335f0a3	181.93999
36	0x430f6157	143.38023
37	0x4381d9a5	259.70035
38	0x42d7638d	107.694435
39	0x4341985b	193.59514
40	0x42f616fa	123.044876
41	0x43644e97	228.30699
42	0x43bb5424	374.65735
43	0x41e737f5	28.902323
44	0x43307162	176.4429
45	0x42a2b548	81.354065
46	0x440cb230	562.7842
47	0x440067a8	513.6196
48	0x430fa778	143.65417
49	0x4264851d	57.129993
50	0x43ad71d4	346.88928
51	0x4203ada5	32.919575
52	0x438c4b8e	280.59027
53	0x427dadf6	63.419884
54	0x43cc5b19	408.7117
55	0x42ae1f6f	87.06139
56	0x4438e6c0	739.60547
57	0x4353020c	211.008
58	0x425019d7	52.025234
59	0x418f8b30	17.942963
60	0x43d34dc3	422.6075
61	0x44349741	722.36334
62	0x42827760	65.233154
63	0x43cd59dc	410.70203
64	0x442b7b3b	685.9255
65	0x43d8c21e	433.51654
66	0x428ec858	71.3913
67	0x4396c946	301.57245
68	0x44680587	928.08636
69	0x43d3e873	423.816
70	0x44915d86	1162.9226
71	0x42ab2971	85.58094
72	0x42324cfc	44.57518
73	0x439484c3	297.0372
74	0x4408aec5	546.7308
75	0x43d0ce61	417.61234
76	0x43d4964a	425.17413
77	0x4434e5b4	723.5891
78	0x44849a18	1060.8154
79	0x432627da	166.15567
80	0x449d4210	1258.0645
81	0x43033df1	131.24196
82	0x43deb4e0	445.4131
83	0x43e9d3be	467.65424
84	0x435a3c9b	218.23674
85	0x43ed6e27	474.86057
86	0x430e825e	142.50925
87	0x43030c36	131.0477
88	0x42311c79	44.277805
89	0x44831617	1048.6903
90	0x4392751c	292.91492
91	0x43db2d8c	438.35583
92	0x4301d3d0	129.8274
93	0x428661bc	67.19089
94	0x440203c2	520.0587
95	0x43d499e7	425.20236
96	0x42eef9d8	119.487976
97	0x43b9602b	370.7513
98	0x437a4b77	250.29478
99	0x439314d5	294.16275
100	0x42ddfb50	110.990845
101	0x41a8fab2	21.12241
102	0x43ef62e6	478.77264
103	0x439e2b71	316.3394
104	0x43c63545	396.41617
105	0x43962e63	300.3624
106	0x43a018c6	320.19354
107	0x43b0f766	353.9328
108	0x421942d7	38.315273
109	0x431c4c58	156.29822
110	0x43c4dad0	393.70947
111	0x4228df63	42.21815
112	0x41813a20	16.153381
113	0x430508a8	133.03381
114	0x417421d5	15.25826
115	0x42d4ae55	106.34049
116	0x433680ed	182.50362
117	0x42bd2fc1	94.59327
118	0x434e8fbc	206.56146
119	0x424c53a8	51.081696
120	0x443ec784	763.11743
121	0x4325174b	165.09099
122	0x4378228e	248.13498
123	0x42de2d62	111.08864
124	0x42a0b462	80.35231
125	0x433e3fa8	190.24866
126	0x4240e10b	48.21977
127	0x4304cbee	132.7966
128	0x443df74b	759.86395
129	0x430d30fa	141.19131
130	0x43c08cad	385.09903
131	0x4192dd8c	18.358177
132	0x44868a22	1076.3167
133	0x425d5432	55.332222
134	0x428051fa	64.16011
135	0x4446703a	793.75354
136	0x432b7cfb	171.4882
137	0x430c3376	140.20102
138	0x44331155	716.2708
139	0x435849f5	216.2889
140	0x43bd5cd7	378.7253
141	0x423ee031	47.718937
142	0x430b5ade	139.35495
143	0x43829931	261.1968
144	0x4450ad00	834.7031
145	0x43c309f9	390.0779
146	0x439357cf	294.686
147	0x432c5223	172.32085
148	0x433d8cce	189.55002
149	0x43647c44	228.48541
150	0x44429f47	778.4887
151	0x43b00828	352.06372
152	0x4259afb3	54.42158
153	0x44538776	846.1166
154	0x42447cca	49.121864
155	0x435cb690	220.71313
156	0x43337a2f	179.47728
157	0x428be4f4	69.947174
158	0x42b225fa	89.07417
159	0x42ec3f8e	118.12413
160	0x44027c54	521.9426
161	0x4378cdd7	248.80406
162	0x440f4436	573.0658
163	0x42a9f4cc	84.97812
164	0x439f792e	318.94672
165	0x44163db6	600.96423
166	0x42c813a5	100.03837
167	0x43df2cba	446.34943
168	0x434846b5	200.2762
169	0x42fd2e07	126.5899
170	0x44a2f145	1303.5397
171	0x440bd685	559.35187
172	0x42e5a17b	114.81539
173	0x436bd4ee	235.83176
174	0x434cb892	204.72098
175	0x4347a4c1	199.64357
176	0x43e98051	467.00247
177	0x41a65796	20.792767
178	0x437cb829	252.71938
179	0x42c21cfc	97.05661
180	0x436c6d51	236.42702
181	0x43ad26fb	346.30453
182	0x41b7ad1c	22.959526
183	0x42afc23f	87.87939
184	0x42f07652	120.231094
185	0x430fc3d8	143.76501
186	0x42af6a2a	87.70735
187	0x43a5267e	330.30072
188	0x43bda83e	379.3144
189	0x43625c15	226.3597
190	0x432c7036	172.43832
191	0x433eba2c	190.72723
192	0x424cf75f	51.241573
193	0x441860d5	609.513
194	0x42c15e2f	96.68395
195	0x43f5242b	490.28256
196	0x4338874d	184.52852
197	0x435435eb	212.21062
198	0x42e2cf40	113.404785
199	0x44129140	586.26953

gnn_node.convs.0.mlp.3.weight f4 [100, 200]
0	0xbc192171	-0.009346352
1	0x3db28d69	0.08718378
2	0xbd46e3d4	-0.048557118
3	0xbc2287f3	-0.009920108
4	0xbbbd16c0	-0.0057705343
5	0xbda06c25	-0.07833127
6	0x3cb4ac1e	0.022054728
7	0xbd6a60b1	-0.05722112
8	0x3d438144	0.0477307
9	0xbd7dbbc6	-0.061946653
10	0xbc361108	-0.011112459
11	0xbd99c9b3	-0.07509174
12	0xbd1866b8	-0.037207335
13	0x3d99f80f	0.075180165
14	0xbc36c83d	-0.011156139
15	0x3c2ec058	0.0106659755
16	0xbca0c364	-0.01962442
17	0x3d341d1b	0.04397307
18	0xbdcf6a24	-0.101276666
19	0xbd4fd808	-0.050743133
20	0xbccad02a	-0.024757463
21	0x3cb7cbc1	0.022436025
22	0xbaf18671	-0.0018426907
23	0xbcbf3491	-0.023340495
24	0x3d0c907a	0.03431747
25	0xbadbecae	-0.001677891
26	0xbde17917	-0.11009424
27	0xbd08e431	-0.033420745
28	0x3cfdd555	0.030985514
29	0xbdbb2c4a	-0.09139307
30	0x3d059b9b	0.0326191
31	0xbd12f739	-0.0358803
32	0xbc57cb8a	-0.013171086
33	0xbd344fa4	-0.044021264
34	0x3c37c127	0.011215485
35	0xbd84636b	-0.06464275
36	0x3d34d3d0	0.044147313
37	0x3d75084f	0.059822377
38	0xba76aa50	-0.0009409534
39	0x3d412463	0.04715384
40	0xbdc3f1c2	-0.09567596
41	0xbcb8c352	-0.022554073
42	0xbc4fd359	-0.012684667
43	0x3b6836fd	0.0035433166
44	0xbca7c0b4	-0.02047763
45	0x3c28c41e	0.010300664
46	0xbd83862b	-0.06422075
47	0xbc8828f7	-0.016621096
48	0xbcea2fb2	-0.028587196
49	0x3d89300b	0.066986166
50	0xbc41a54f	-0.011819198
51	0x3b6dcda7	0.0036285908
52	0xbda4dc3c	-0.08049819
53	0x3d81fb8b	0.06346806
54	0xbd24f1b1	-0.040269557
55	0xbdb3c14f	-0.08777105
56	0x3d388277	0.045046296
57	0x3d32b3fc	0.043628678
58	0x3cdabdde	0.026701864
59	0xbcf549ac	-0.029942356
60	0xba539941	-0.0008071848
61	0x3c82bac9	0.015958207
62	0x3d59b4fe	0.053151123
63	0x3d3bfaab	0.045893352
64	0xbc0a763f	-0.008451044
65	0x3d822c48	0.06356102
66	0x3d140407	0.036136653
67	0xb9bafb28	-0.0003566381
68	0xbd0a926d	-0.03383105
69	0xbc9482bb	-0.018128743
70	0xbd9de918	-0.07710475
71	0x3cae0c18	0.021246001
72	0xbdec7bf6	-0.11547081
73	0x3bb03e0d	0.005378491
74	0xbd99a693	-0.07502475
75	0xbc8462ff	-0.016160486
76	0x3d2ac353	0.041690182
77	0x3d51aace	0.051188283
78	0xbc18eeb8	-0.009334259
79	0xbc8c8a6c	-0.017155848
80	0x3cb0dc50	0.021589428
81	0xbcab7985	-0.020931968
82	0xbd06f3c1	-0.032947306
83	0x3cd4cb08	0.02597572
84	0x3cb49eda	0.022048403
85	0xbd0ba289	-0.034090552
86	0xbc56e3fb	-0.013115878
87	0xbd5947c9	-0.053046975
88	0x3d2ba1f2	0.04190249
89	0xbd99f470	-0.07517326
90	0x3d0ec6d4	0.034857586
91	0x3d86bb1b	0.06578656
92	0xbdba91e4	-0.09109858
93	0x3d391c69	0.04519311
94	0x3d60ff63	0.054931056
95	0x3cf8e09e	0.030380543
96	0xbd810fc9	-0.06301839
97	0x3d141b29	0.036158714
98	0xbba3cef5	-0.0049990364
99	0x3bc24a2b	0.0059292517
100	0xbd87f7b8	-0.066390455
101	0x3d3e439a	0.04645119
102	0xbdb62f00	-0.08895683
103	0x3d15cc4f	0.036571797
104	0x3ae9f603	0.0017849806
105	0xbca708c1	-0.020389916
106	0xbdbf9fdd	-0.093566634
107	0x3c9776d7	0.018489284
108	0x3d21c56b	0.039494913
109	0xbc96807a	-0.01837181
110	0xbd73c0d7	-0.05951008
111	0x3d1e6839	0.038673613
112	0x3d6aa896	0.057289682
113	0xbc0911c8	-0.008366056
114	0xbd4e0dd1	-0.050306145
115	0x3d1c3fea	0.03814689
116	0x3d3a754b	0.045522016
117	0x3be47df0	0.0069730207
118	0x3b677536	0.0035317666
119	0x3c642117	0.013923905
120	0xbd92a29e	-0.07159923
121	0x3d258545	0.0404103
122	0x3d77edd8	0.06052956
123	0x3d48803d	0.048950423
124	0x3d0f9489	0.035053764
125	0xbda31a78	-0.07964033
126	0xbd15eeac	-0.03660457
127	0x3d0ab3b0	0.03386277
128	0x3cd673bd	0.026178235
129	0xbd4ae30e	-0.049532942
130	0xbcd7c287	-0.026337875
131	0xbd910102	-0.0708027
132	0x3c6eaa21	0.014566929
133	0xbcbc4de3	-0.022986358
134	0x3d102ce7	0.035199072
135	0x3d86ec6d	0.065880634
136	0x3d56a376	0.052401982
137	0x39d46fac	0.00040518993
138	0xbd809aeb	-0.06279548
139	0xbcb15aaa	-0.021649677
140	0xbe14c70d	-0.14529057
141	0x3dbc0e39	0.091824
142	0x3d74d933	0.05977745
143	0xbd189881	-0.037254814
144	0xbd26f4c3	-0.040760767
145	0x3c79520e	0.015217317
146	0xbd053fbd	-0.03253149
147	0x3d6f5d9a	0.058438875
148	0xbd7adc0b	-0.061245006
149	0xbd12d9a7	-0.0358521
150	0x3d399664	0.04530944
151	0xbcb024e0	-0.021501958
152	0x3cb5bbe3	0.022184318
153	0x3d4d8cca	0.050183095
154	0xbd8a7ea3	-0.06762435
155	0xbd2beffb	-0.04197691
156	0xbcced665	-0.025248716
157	0xbd9fef09	-0.07809264
158	0xbd24fd46	-0.040280603
159	0x3d7b5c7e	0.061367504
160	0xbd7c82bd	-0.06164812
161	0x3d4b35e5	0.049611945
162	0x3b4403a0	0.0029909387
163	0xbd35f828	-0.044426113
164	0xbbc53ff4	-0.0060195867
165	0x3c627afe	0.013823269
166	0x3c4117b8	0.01178544
167	0xbd0d5264	-0.034502402
168	0xbc017c05	-0.007903104
169	0xbdbec38f	-0.093146436
170	0xbd8a966c	-0.06766972
171	0x3d2ac5d2	0.041692562
172	0x3c1d740e	0.009610189
173	0xbd81ab76	-0.06331532
174	0x3bb08f42	0.0053881714
175	0x3d247b70	0.04015678
176	0xbd68504b	-0.0567172
177	0xbdb04d30	-0.08608472
178	0xbaf25e75	-0.0018491285
179	0xbd82a9f9	-0.06380076
180	0xbc630a82	-0.013857486
181	0xbdabd85b	-0.08390876
182	0xbd93b39c	-0.07211992
183	0xbdb56a40	-0.08858156
184	0xbe160262	-0.14649346
185	0xbd91664a	-0.07099588
186	0x3d4b6f3d	0.049666632
187	0x3cee142f	0.029062359
188	0xbd78fc55	-0.060787518
189	0xbcce9ba6	-0.025220703
190	0xbc977505	-0.018488416
191	0xbcd06e70	-0.025443286
192	0x3d7904b1	0.06079549
193	0xbd402d09	-0.04691795
194	0x3c945f48	0.01811184
195	0x3c862702	0.016376022
196	0x3c48a7a0	0.012246996
197	0xbcf93251	-0.0304195
198	0xbd53eb2a	-0.05173794
199	0xbcdbfc78	-0.026853785
200	0x3cfeb0f9	0.031090247
201	0x3ca853e0	0.020547807
202	0xbd780a1e	-0.060556524
203	0xba62e46d	-0.0008655254
204	0xbd04bcd0	-0.032406628
205	0x3d49f8cf	0.049309548
206	0xbc854230	-0.016266912
207	0x3cdfe6b3	0.027331686
208	0x3d8c9182	0.06863691
209	0xbcd239a6	-0.025662255
210	0xbd27e5fd	-0.04099082
211	0x3cf5ce9b	0.030005744
212	0xbd5e16d6	-0.054220997
213	0xbd81e6c9	-0.06342847
214	0xbe00c5a9	-0.12575401
215	0xbd1a3143	-0.037644636
216	0xbc70fcd3	-0.0147087155
217	0xbc609805	-0.013708119
218	0xbd4b9c6a	-0.049709715
219	0x39c6d3ab	0.00037923208
220	0xbc9011ad	-0.017586553
221	0xbcc90873	-0.024540162
222	0x3c91424f	0.017731814
223	0xbba09ce1	-0.004901514
224	0xbda184ee	-0.078866825
225	0xbca6323f	-0.020287631
226	0xbd36fc91	-0.04467446
227	0xbb8cfef6	-0.0043028546
228	0xbcfe3857	-0.031032724
229	0x3c91af6a	0.01778384
230	0x3d5f1967	0.054467585
231	0x3cad9241	0.021187903
232	0x3bf631c2	0.007513256
233	0xbd8137cd	-0.06309471
234	0x3d055302	0.032549866
235	0xbcb35189	-0.021889465
236	0x3da076c8	0.07835156
237	0x3c1f2742	0.00971395
238	0xbd1e3df4	-0.0386333
239	0x3c0d42fd	0.008621928
240	0x3c857e6d	0.016295636
241	0xbd3aa56d	-0.04556792
242	0xbd0eef14	-0.03489597
243	0xbc165442	-0.009175362
244	0xbcca3128	-0.024681643
245	0xbc63d47b	-0.01390564
246	0xbc50c56c	-0.012742382
247	0xbd2d5eb7	-0.042326655
248	0xbcdf17fd	-0.027233118
249	0x3c02a49a	0.007973814
250	0xbaf67bb5	-0.0018805178
251	0xbd690ef1	-0.056899015
252	0xbd8a32ce	-0.067479715
253	0xbc99e28a	-0.01878478
254	0x3d6c8d52	0.05775196
255	0xbd92b518	-0.07163447

gnn_node.convs.0.mlp.3.bias f4 [100]
0	0x3d7cbdd1	0.06170446
1	0x3d0f8a33	0.035043906
2	0x3cd7db43	0.02634967
3	0x3d193eaa	0.037413277
4	0xbcb87a1f	-0.02251917
5	0xbdb39794	-0.087691456
6	0x3d2e39ea	0.0425357
7	0x3b8b3634	0.004248405
8	0xbd473452	-0.04863388
9	0x3d5837ed	0.05278771
10	0x3d2c00a9	0.041992817
11	0x3cb6eccd	0.022329712
12	0x3d5f56e5	0.05452623
13	0x3d79e851	0.06101257
14	0xbd9029af	-0.070392005
15	0x3d502616	0.05081757
16	0x3ba16cfd	0.0049263225
17	0xbd4b5391	-0.049640242
18	0x3ca33e96	0.019927304
19	0x3c8c6ed1	0.017142685
20	0x3d2739ef	0.040826734
21	0xbd8ae938	-0.06782764
22	0x3d11fecd	0.035643388
23	0x3cce2e94	0.025168695
24	0x3d268692	0.04065568
25	0x3d2c68a1	0.04209197
26	0x3cbd5ef2	0.023116563
27	0x3ceb41f3	0.02871797
28	0xbd1a3130	-0.037644565
29	0x3d9084da	0.070565894
30	0x3c7df80f	0.015501036
31	0xbd8ef082	-0.06979467
32	0xbd3bb357	-0.04582533
33	0xbd3bfe28	-0.04589668
34	0x3c8c3e22	0.017119471
35	0x3b22139c	0.0024730926
36	0x3c14410f	0.009048714
37	0xbb2df532	-0.0026543853
38	0x3d59e6de	0.053198688
39	0x3c86a22e	0.016434755
40	0xbd45c915	-0.04828747
41	0x39fa24e5	0.00047711204
42	0x3d3f09a9	0.046640072
43	0x3c952983	0.01820827
44	0x3d0fdabb	0.035120707
45	0xbd4af0ad	-0.049545933
46	0xbc878877	-0.016544564
47	0x3d21b34c	0.03947763
48	0xbd672cb0	-0.0564391
49	0x3d543b69	0.05181447
50	0x3db7ab11	0.08968175
51	0x3d47f753	0.04881985
52	0xbc4b8fe8	-0.012424447
53	0x3d22edae	0.03977745
54	0x3b9a952b	0.0047174892
55	0xbd4d3aa6	-0.05010476
56	0x3d3b35fa	0.045705773
57	0x3d0adfd6	0.033904873
58	0xbbc82331	-0.006107711
59	0x3d013bec	0.031551287
60	0x3d20ff2a	0.039305843
61	0xbcb52459	-0.022112058
62	0x3c4b0e4d	0.012393546
63	0xbcb40347	-0.021974219
64	0x3d415f57	0.047210064
65	0x3cd52636	0.026019197
66	0xbd84e18c	-0.06488332
67	0x3c013880	0.007887006
68	0xbc4002b5	-0.011719395
69	0xbd9588b5	-0.073014654
70	0xbd6eb453	-0.05827744
71	0x3d84cdad	0.06484542
72	0x3b7ff4ae	0.0039055753
73	0x3d60e265	0.054903407
74	0x3cd726d2	0.026263628
75	0x3b08b838	0.0020861756
76	0xbd861115	-0.06546227
77	0xbca3237e	-0.019914385
78	0x3c8193c4	0.01581753
79	0xbd9095be	-0.07059811
80	0x3c25d0c1	0.010120572
81	0x3c1e6800	0.00966835
82	0xbd069620	-0.032858014
83	0xbb4dd369	-0.0031406528
84	0x3d295088	0.041336566
85	0xbd693f55	-0.056945164
86	0xbd422567	-0.04739895
87	0x3d48dc57	0.049038257
88	0xbd094a09	-0.03351787
89	0xbd39f7d1	-0.04540235
90	0xbcbf1a15	-0.023327867
91	0x3c19d28e	0.009388579
92	0x3cb10840	0.02161038
93	0xbd339ad5	-0.04384883
94	0xbd4788d2	-0.048714466
95	0x3bafc0d7	0.0053635645
96	0x3d2b4807	0.041816738
97	0x3d2c02ab	0.041994732
98	0x3c8ee3ee	0.01744267
99	0xbc5bf87c	-0.0134259425
