FC-hackaton/checkpoints/A/model_A_epoch_5.pth (torch, 878190 bytes, 73 tensors)

gnn_node.node_encoder.weight f4 [1, 100]
0	0x3e663105	0.22479637
1	0xbe2304e0	-0.15919828
2	0xbed4bbb2	-0.4154945
3	0xbf51baa9	-0.81925446
4	0x3fca094b	1.5784086
5	0xbfbeddf9	-1.4911491
6	0xbde29d4f	-0.110651605
7	0x3f92c1fd	1.146545
8	0xbecbce64	-0.398059
9	0x3f922f28	1.1420641
10	0x3f6a6b5b	0.9157006
11	0xbf0d8691	-0.5528346
12	0x3fa3cdd7	1.2797192
13	0xbfb64f73	-1.4242996
14	0xbfcce048	-1.6005945
15	0xbdbf011d	-0.09326384
16	0x4001af6f	2.0263326
17	0x3f39147e	0.72296894
18	0x3fc91a4b	1.5711149
19	0xbff4bb85	-1.9119726
20	0x3f9cbeaa	1.2245686
21	0xbe939b12	-0.28829247
22	0xbf3a26fa	-0.72715724
23	0xbf0a8096	-0.54102457
24	0xbf4e8fb5	-0.8068803
25	0xbeed5366	-0.4635269
26	0xbf957ee3	-1.1679348
27	0x3f56f298	0.8396392
28	0x3fde1820	1.7351112
29	0x3f1e094b	0.6173293
30	0x3f294446	0.661198
31	0xbef8bfc4	-0.48583806
32	0x3f8d8a4c	1.105783
33	0xc025ab83	-2.5885932
34	0xbe015343	-0.12629418
35	0x400318ee	2.0483966
36	0x3fef3d2b	1.8690542
37	0x3fb5f813	1.4216331
38	0xbf9aeb31	-1.2103025
39	0x3e6eac54	0.23307925
40	0x3f07c0e8	0.53028727
41	0x400da4a3	2.2131736
42	0xbf770842	-0.96496975
43	0xbfb014ff	-1.3756407
44	0x3c5ec4fc	0.013596769
45	0x3e3f5e4c	0.18688315
46	0x3ee0550d	0.4381489
47	0x3f666873	0.90003127
48	0x3f66299d	0.89907247
49	0xbf30a4d9	-0.6900154
50	0x406c76d5	3.694753
51	0xbf0b501b	-0.54419106
52	0xbe976914	-0.29572356
53	0x3fdda2fb	1.7315363
54	0xbf37b622	-0.7176229
55	0x3f68675d	0.9078272
56	0x3ec3c96e	0.38239616
57	0xbf7ee665	-0.99570304
58	0x3d283f40	0.041075945
59	0xbe1aaa57	-0.15104042
60	0xbf527b91	-0.822198
61	0x3f9d1be4	1.2274137
62	0x3fd0c483	1.6309971
63	0x3fdad870	1.7097301
64	0x3f49f595	0.78890353
65	0x401147da	2.2700105
66	0xbf6161e9	-0.88040024
67	0x3ec74500	0.3891983
68	0x3f4171aa	0.7556406
69	0x3c6143ac	0.013749044
70	0xbf78b3ec	-0.9714954
71	0xbd68624a	-0.05673436
72	0x3fb13b9c	1.3846316
73	0x3f26d564	0.6516936
74	0x3fa08f86	1.25438
75	0xbda40afa	-0.08009906
76	0x3f055ef4	0.5209801
77	0x3fa51a4a	1.2898648
78	0x3e9dd103	0.30823526
79	0x3f4534c3	0.77033633
80	0x3fa2f2f6	1.2730396
81	0x3eaff41a	0.34365922
82	0x3fb44e3a	1.4086373
83	0x3fd8795e	1.6912038
84	0x3f8024eb	1.0011266
85	0xbef70b4f	-0.48250815
86	0x3f4aea9c	0.79264235
87	0xbf592566	-0.8482269
88	0xbf0e503d	-0.55591184
89	0x3e9ebfe9	0.3100579
90	0x3ed930e3	0.4242011
91	0x3c0ab5c1	0.008466185
92	0x3f05bb5b	0.52239007
93	0xbeee7033	-0.46569976
94	0xbf2110c4	-0.6291621
95	0x3f26bbe3	0.6513044
96	0x3fc69963	1.551556
97	0xbfcc0e98	-1.5941954
98	0x3eab6262	0.33473498
99	0x3d9e79d1	0.077380784

gnn_node.convs.0.mlp.0.weight f4 [200, 100]
0	0x3e7337e4	0.2375179
1	0x3cb0119c	0.021492772
2	0xbe845aa0	-0.2585039
3	0xbdbb1025	-0.09133939
4	0xbd2a566e	-0.041586332
5	0x3d77bcd2	0.060482807
6	0x3ddf0619	0.10889835
7	0x3db62694	0.08894077
8	0x3db32bcc	0.08748588
9	0xbd956a30	-0.07295644
10	0xbd469254	-0.048479393
11	0x3dc1e4d8	0.094674766
12	0x3d8f8eec	0.07009682
13	0x3d93cff4	0.07217398
14	0xbd229b49	-0.039698873
15	0x3d2f3e3f	0.042783972
16	0xbdad70b9	-0.08468766
17	0xbd4bf1f8	-0.049791306
18	0x3c771dfb	0.0150828315
19	0x3d97599c	0.073901385
20	0xbd3f5e18	-0.046720594
21	0x3d50af96	0.0509487
22	0x3dc39e1f	0.095516436
23	0xbd90c930	-0.070696235
24	0x3cf4feef	0.029906718
25	0x3c77b0cb	0.015117834
26	0xbd20fb9f	-0.039302465
27	0x3d2e326e	0.042528562
28	0xbdb12521	-0.0864966
29	0xbdf35fa4	-0.118834764
30	0xbc308ecc	-0.010776233
31	0xbd4c898f	-0.049935874
32	0xbdbf0ba9	-0.09328396
33	0xbc9cc7d4	-0.019138254
34	0xbd1c8c54	-0.038219765
35	0xbc0a8f39	-0.0084569985
36	0x3db8666b	0.0900391
37	0xbcc09934	-0.023510553
38	0xbd64a6f6	-0.05582329
39	0x3d748722	0.059699185
40	0xbd861d73	-0.06548586
41	0xbd99c0b7	-0.075074606
42	0xbc6f6a9e	-0.014612822
43	0x3c80ee99	0.015738772
44	0xbc97a4d3	-0.018511211
45	0x3dc16090	0.09442246
46	0x3d4c4c9f	0.04987776
47	0xbcc99acf	-0.024609951
48	0x3d0bae00	0.034101486
49	0x3d54f4e4	0.05199136
50	0xbbf065a3	-0.007336335
51	0xbe0b44af	-0.1360042
52	0x3cf9d39c	0.030496411
53	0xbc94c573	-0.018160557
54	0x3da07a84	0.07835868
55	0x3d278d84	0.040906444
56	0x3b1e5d5a	0.0024164529
57	0x3da88759	0.082289405
58	0x3ce225a0	0.027605832
59	0x3d8fe166	0.07025413
60	0x3d0c5ac4	0.03426625
61	0x3d5db13c	0.054124102
62	0x3cf5aa23	0.029988354
63	0xbd5f9494	-0.054585055
64	0x3ce49b64	0.027906127
65	0xbd6a97fb	-0.057273846
66	0xbdacbaf1	-0.08434094
67	0xbd5b9cfc	-0.05361651
68	0x3d9c6f7b	0.07638451
69	0x3d91d5f0	0.071208835
70	0xbcfd40ef	-0.030914752
71	0x3d972d61	0.07381702
72	0x3dbfa50d	0.09357653
73	0x3e039b78	0.12852275
74	0xbd5c1d0b	-0.053738635
75	0xbcc955d7	-0.024577064
76	0x3d04925c	0.03236614
77	0x3d860eb4	0.06545773
78	0x3d9c98f3	0.0764636
79	0x3d917700	0.071027756
80	0xbdf936aa	-0.121686295
81	0x3daf9808	0.085739195
82	0xbd86fffb	-0.06591793
83	0x3cb8872e	0.022525396
84	0x3d0a74df	0.033802863
85	0x3d7d841b	0.061893564
86	0x3b1efd29	0.0024259782
87	0x3ca77d6f	0.020445554
88	0x3db3b7a3	0.0877526
89	0x3d8802ab	0.06641134
90	0xbe079912	-0.13241985
91	0xbdff656a	-0.12470515
92	0x3ce94b4e	0.02847829
93	0xbe83584e	-0.2565331
94	0xbd35caa9	-0.044382725
95	0x3df59d02	0.119928375
96	0xbdae93ef	-0.0852431
97	0x3ba440e7	0.00501262
98	0xbd766791	-0.060157362
99	0xbe864b70	-0.2622943
100	0xbd134db5	-0.03596278
101	0xbd0d8c41	-0.034557585
102	0x3ebcae3e	0.36851686
103	0x3cd7b623	0.026331967
104	0xbdaadea3	-0.08343246
105	0x3d92d878	0.071701944
106	0xbce23de5	-0.027617404
107	0x3d3123c7	0.04324701
108	0xbd8a4c45	-0.067528285
109	0x3d878bd0	0.06618464
110	0x3d852fcc	0.06503257
111	0x3c2c01ff	0.010498523
112	0xbc84c128	-0.016205385
113	0x3c30abcb	0.010783146
114	0xbdc4f42d	-0.09616885
115	0xbd1f75b2	-0.038930602
116	0xbdad739c	-0.08469316
117	0xbdcb25cb	-0.09919318
118	0xbdc315e7	-0.09525662
119	0x3dbc65d6	0.09199111
120	0x3c17861c	0.009248283
121	0xbd420a26	-0.04737296
122	0xbd97125c	-0.07376549
123	0xbcf273b6	-0.02959619
124	0xba3cd3cc	-0.0007203191
125	0x3e122d76	0.14275154
126	0x3ccbb4f8	0.024866566
127	0xbd26d943	-0.04073454
128	0xbd580c83	-0.052746307
129	0x3d8eaa89	0.06966121
130	0xbd369105	-0.044571895
131	0x3b7ac51c	0.003826446
132	0xbd01d91e	-0.0317012
133	0x3dc963a7	0.0983346
134	0xbd767423	-0.06016935
135	0xbd4f8627	-0.050665047
136	0x3d92eecb	0.071744524
137	0x3db14d4e	0.08657323
138	0x3c9fd6ea	0.019511659
139	0xbd82e903	-0.063921
140	0x3d60ab8f	0.05485111
141	0xbd996e34	-0.07491723
142	0xbce9151b	-0.028452447
143	0xbd8214a8	-0.06351596
144	0xbdbed278	-0.093174875
145	0x3d68916d	0.056779314
146	0xbdc0e5d3	-0.094188355
147	0x3d45421e	0.048158757
148	0x3d48df42	0.04904104
149	0x3c96d900	0.01841402
150	0xbdb4773a	-0.08811803
151	0x3e5a01fb	0.21289818
152	0xbdba1ef4	-0.09087935
153	0x3ced050c	0.02893307
154	0xbc5f2cda	-0.013621533
155	0x3d338ad2	0.04383356
156	0xbdfb63d7	-0.12274902
157	0xbc47d12b	-0.012195866
158	0xbdb279f2	-0.087146655
159	0x3bc0bee8	0.005882133
160	0x3d8794c6	0.06620173
161	0xbc4ee855	-0.012628634
162	0xbc188a97	-0.009310386
163	0x3dbfd9ae	0.09367691
164	0xbd26e3db	-0.040744644
165	0xbd58be60	-0.05291593
166	0x3cfcaaf9	0.030843245
167	0x3de5d233	0.11221733
168	0xbdb66e55	-0.08907763
169	0x3da531cb	0.08066138
170	0x3da73f7c	0.081664056
171	0xbe0f5efc	-0.14001077
172	0x3d2f5de6	0.042814158
173	0xbd5a5a8a	-0.053309
174	0xbc558824	-0.013032947
175	0x3db4d263	0.088291906
176	0xbe195914	-0.14975387
177	0x3d68ea0d	0.056863833
178	0x3d69ba0d	0.057062197
179	0x3d8c7be5	0.068595685
180	0xbd64ff76	-0.05590769
181	0xbe14bb7f	-0.14524649
182	0xbc291140	-0.010319054
183	0x3daaec84	0.08345893
184	0x3d93a588	0.07209307
185	0xbd14ccbb	-0.03632806
186	0xbd817cc3	-0.063226245
187	0x3cfbc830	0.030735105
188	0xbd8bed09	-0.0683232
189	0xbdabb230	-0.08383596
190	0x3d22aa61	0.039713267
191	0xbe6747ee	-0.22586033
192	0x3d271c2e	0.04079836
193	0x3e0ec6b2	0.13942984
194	0x3ac59901	0.0015075506
195	0xbd6dafb5	-0.058028895
196	0x3d5f923a	0.054582812
197	0x3db9a4c4	0.0906463
198	0xbe064bec	-0.131149
199	0x3ef82c25	0.4847118
200	0xbe617978	-0.22018993
201	0xbcb76cb0	-0.022390693
202	0x3f07a348	0.5298352
203	0x3db4bb02	0.088247314
204	0xbdda849d	-0.10669825
205	0xbd61b0d1	-0.055100266
206	0xbd31e6ca	-0.04343299
207	0x3dc6c2bf	0.097051136
208	0xbc8ffcd4	-0.017576613
209	0x3d97d5ed	0.0741385
210	0x3da4fc08	0.08055884
211	0xbcd4f9f7	-0.025998099
212	0x3dc3ccbd	0.09560535
213	0xbd8b26fd	-0.06794546
214	0x3d140927	0.03614154
215	0xbdc1d6d9	-0.09464807
216	0xbd981d98	-0.074275196
217	0xbd9d38f4	-0.076768786
218	0x3cbb8201	0.02288914
219	0x3cc25476	0.023721915
220	0x3d8bfdfd	0.06835554
221	0xbd9f32a1	-0.077733286
222	0xbd85576d	-0.06510816
223	0xbc3eed29	-0.011653223
224	0x3d8cb5e8	0.06870633
225	0x3da49b33	0.080374144
226	0xbe3ab1ef	-0.18231939
227	0x3d642e63	0.0557083
228	0x3d2aaeea	0.041670717
229	0x3de7295d	0.11287186
230	0x3dc4f2bf	0.09616613
231	0xbdc0bd4a	-0.09411104
232	0xbd90d331	-0.070715316
233	0xbd157f84	-0.03649856
234	0xbd54b0c8	-0.051926404
235	0xbd8be237	-0.068302564
236	0xbd42c86a	-0.04755441
237	0xbd8536b3	-0.06504574
238	0xbd5c6d75	-0.053815324
239	0xbdcda38a	-0.10040958
240	0x3e6569d7	0.22403656
241	0x3d8eda44	0.069752246
242	0x3d4b3e19	0.049619768
243	0x3dbb754d	0.09153233
244	0x3a2678cc	0.00063503976
245	0xbc53e3e0	-0.012932748
246	0x3c839965	0.016064355
247	0x3d305c73	0.043056916
248	0xbcdc8cff	-0.0269227
249	0x3dcb6de8	0.09933072
250	0x3da85309	0.08218963
251	0x3d06e229	0.032930527
252	0xbc90b3c3	-0.017663842
253	0x3d29f83f	0.04149651
254	0xbba1c551	-0.004936852
255	0x3d714a6e	0.058908872

gnn_node.convs.0.mlp.0.bias f4 [200]
0	0xbd9a521d	-0.07535193
1	0x3d864886	0.065568015
2	0xbb8c28d8	-0.00427733
3	0xbd9bbf6d	-0.07604871
4	0x3d813d74	0.063105494
5	0x3d678f15	0.056532938
6	0xbccb9d19	-0.024855183
7	0xbd073591	-0.03301007
8	0xbdad65f6	-0.08466713
9	0x3d098fc7	0.033584382
10	0x3d96ea32	0.07368888
11	0x3d3c6bd6	0.046001278
12	0x3dc25b73	0.09490099
13	0xbc86c59d	-0.016451651
14	0x3ce1a0f6	0.027542572
15	0x3da0bfe5	0.07849101
16	0x3dabf0ff	0.08395576
17	0x3d414d5c	0.047192916
18	0xbc0d6cef	-0.008631929
19	0xbdaf9ec4	-0.08575204
20	0x3d2afddf	0.041746017
21	0xbd876e91	-0.06612886
22	0x3da314c5	0.07962946
23	0x3d63caee	0.05561345
24	0xbd4e6bbf	-0.050395723
25	0x3db53108	0.088472426
26	0x3cc4d166	0.02402563
27	0x3d657d58	0.05602774
28	0xbd708a14	-0.05872543
29	0xbbbdde46	-0.0057943193
30	0x3dafa8ec	0.08577141
31	0xbd04c10f	-0.032410678
32	0xbd8d3acd	-0.06895981
33	0x3db08b48	0.08620316
34	0x3cfba63f	0.03071892
35	0xbc7fe793	-0.015619176
36	0x3db763bc	0.0895457
37	0x3dc82c79	0.097741075
38	0x3c686fdf	0.014186828
39	0xbcfcffa4	-0.030883618
40	0x3dc16e1e	0.09444831
41	0x3d692d7f	0.056928154
42	0xbd56e75d	-0.05246674
43	0x3d610908	0.054940253
44	0xbdcaa020	-0.09893823
45	0x3d95f056	0.07321231
46	0xbd81307f	-0.06308078
47	0xbd1f738f	-0.038928565
48	0xbdaf71db	-0.08566638
49	0xbd57d397	-0.052692022
50	0xbda27679	-0.07932753
51	0x3ccc3cff	0.024931429
52	0xbd6d1dff	-0.057889935
53	0x3c38efec	0.011287671
54	0xbd0e3788	-0.034720927
55	0xbd659ec2	-0.056059606
56	0xbcf50de9	-0.02991386
57	0xbc8f6c25	-0.017507622
58	0xbdc5ae1a	-0.09652348
59	0x3da2c3fd	0.07947538
60	0xbcbe8351	-0.023255976
61	0x3d4a8917	0.049447145
62	0x3d28545d	0.04109608
63	0x3d3a5d27	0.045498993
64	0x3da26609	0.07929618
65	0x3d05d2f0	0.03267187
66	0x3d732ae4	0.059367076
67	0x3d4a2cfb	0.049359303
68	0x3d911405	0.070838965
69	0xbcb38ff5	-0.02191923
70	0x3d1b1cb4	0.03786917
71	0xbd821d54	-0.0635325
72	0x3cdb002d	0.026733482
73	0x3dcbb2e0	0.09946227
74	0xbba13435	-0.0049195536
75	0xbcc35322	-0.023843352
76	0xbc905551	-0.017618807
77	0x3d94a7f2	0.072585955
78	0x3d489bf7	0.048976865
79	0xbd84f97f	-0.064929
80	0xbda482ee	-0.08032785
81	0x3d97f38b	0.07419499
82	0xbbbfd322	-0.0058540264
83	0x3d05473d	0.03253864
84	0xbd5a9cee	-0.053372316
85	0xbd931d48	-0.07183319
86	0xbd8ca2bf	-0.06866979
87	0x3d9d75c4	0.07688478
88	0xbcd3d641	-0.025859
89	0xbbb25f61	-0.005443499
90	0xbdacf12a	-0.08444436
91	0xbd848ea2	-0.064725175
92	0xbd693d6a	-0.056943335
93	0xbb7bb7ac	-0.0038409038
94	0xbc81ef72	-0.015861247
95	0xbc907ca7	-0.017637564
96	0x3c67fd34	0.014159489
97	0x3d7cd941	0.061730627
98	0x3d29bd7d	0.041440476
99	0xbdc55980	-0.096362114
100	0xbd29d9a0	-0.04146731
101	0x3d3ef554	0.046620682
102	0x3d33c30b	0.04388718
103	0x3d9b0521	0.07569338
104	0xbd4594c6	-0.048237585
105	0x3cd0e848	0.025501385
106	0x3c217c40	0.009856284
107	0xbcfe8bcb	-0.031072518
108	0x3ca36f00	0.01995039
109	0x3db577b4	0.08860722
110	0x3c97c5fe	0.018527027
111	0x3baa1eb0	0.0051916465
112	0xbcd08488	-0.02545382
113	0xbd3208f0	-0.043465555
114	0xbc8c780f	-0.017147092
115	0x3d47f311	0.04881579
116	0xbd8ae455	-0.06781832
117	0x3d961a88	0.07329279
118	0xbcd89a43	-0.026440745
119	0xbc979871	-0.018505307
120	0x3cc32789	0.023822563
121	0x3c30022a	0.010742703
122	0xbd2de994	-0.042459086
123	0xbd58b1a4	-0.052903786
124	0x3d1edfa1	0.038787488
125	0xbc555911	-0.013021723
126	0x3cc4db81	0.024030449
127	0x3d25cc93	0.0404783
128	0x3d7b7b7a	0.061397053
129	0xbd8fccae	-0.070214614
130	0xbd14322b	-0.036180656
131	0xbbb754f0	-0.005594842
132	0x3cf1b934	0.029507257
133	0x3cc4c7e5	0.024021098
134	0x3db1adcb	0.086757265
135	0x3d9ab5d2	0.07554211
136	0xbdc5a037	-0.09649699
137	0xbdca12b2	-0.09866847
138	0x3cfcef85	0.03087593
139	0x3d6957ff	0.056968685
140	0xbd3679ef	-0.04454988
141	0x3da528cf	0.08064424
142	0xbd9ccb78	-0.07655996
143	0x3b2ed2d5	0.0026675959
144	0xbd593856	-0.05303224
145	0x3d3d37d3	0.046195816
146	0x3d8fad23	0.07015445
147	0xba903142	-0.0011001008
148	0xbbb85b0f	-0.0056260894
149	0x3d36cc05	0.044628162
150	0x3da4d4d7	0.080484085
151	0xbd9b6bda	-0.075889304
152	0x3daedae4	0.08537844
153	0x3daf8c01	0.085716255
154	0xbd9c3d85	-0.076289214
155	0x3c8a6c04	0.016897209
156	0xbdc2fb89	-0.09520633
157	0x3bb7792f	0.005599163
158	0xbd43fe96	-0.047850214
159	0x3dc62a22	0.09676005
160	0xbd6aad94	-0.057294443
161	0x3cb4fb19	0.022092389
162	0xbd0809e7	-0.03321257
163	0xbd9a8fd6	-0.07546966
164	0x3da79d2d	0.08184276
165	0xbda9c465	-0.082894124
166	0x3d5b0a92	0.053476878
167	0x3ad1d726	0.0016009554
168	0xbd4148ac	-0.047188446
169	0x3aaf39ab	0.0013368627
170	0xbc06b137	-0.008220962
171	0x3ca033a5	0.019555876
172	0xbdccabfb	-0.0999374
173	0x3d2284bb	0.039677363
174	0xbdb30b9e	-0.0874245
175	0x3d6a2c9e	0.057171457
176	0x3d9ab40e	0.07553874
177	0x3d926828	0.071487725
178	0xbd244c8a	-0.040112056
179	0xbdad1792	-0.08451761
180	0xbc777fff	-0.0151062
181	0x3cca2db9	0.024680005
182	0xbd91333f	-0.070898525
183	0x3dad0ae6	0.08449344
184	0x3ba71d88	0.005099956
185	0xbdafc1b8	-0.08581871
186	0xbdbd3269	-0.092381306
187	0x3d86f8c5	0.06590418
188	0xbdb30e75	-0.08742992
189	0x3d512419	0.051059816
190	0x3d578a7c	0.052622303
191	0xbabcd110	-0.0014405567
192	0xbd6b3945	-0.057427663
193	0x3d9b318d	0.075778104
194	0x3d0ebcbd	0.034847964
195	0xb867959f	-5.5214037e-05
196	0x3c17724c	0.009243559
197	0x3cbf1f1c	0.023330264
198	0x3d5267ba	0.051368453
199	0xbd601792	-0.05470998

gnn_node.convs.0.mlp.1.weight f4 [200]
0	0x3f70d4cd	0.9407471
1	0x3f825075	1.0180804
2	0x3f78babd	0.9715994
3	0x3f80c9e4	1.0061612
4	0x3f74af4d	0.9557999
5	0x3f76df56	0.96434534
6	0x3f889418	1.0670195
7	0x3f810f52	1.00828
8	0x3f80989a	1.004657
9	0x3f7819df	0.96914476
10	0x3f7d3b68	0.9891877
11	0x3f7416a6	0.9534706
12	0x3f7b6666	0.9820312
13	0x3f8087fd	1.00415
14	0x3f819169	1.0122501
15	0x3f7674d0	0.9627199
16	0x3f73a335	0.9517091
17	0x3f73f04c	0.9528854
18	0x3f7bccbe	0.98359287
19	0x3f7696b5	0.9632371
20	0x3f818901	1.0119935
21	0x3f710094	0.9414151
22	0x3f7bc0e7	0.9834122
23	0x3f8309be	1.0237348
24	0x3f808591	1.0040761
25	0x3f86f5a4	1.0543714
26	0x3f7ba6c2	0.9830133
27	0x3f7b4820	0.9815693
28	0x3f74f8d6	0.95692194
29	0x3f7a9b80	0.97893524
30	0x3f7edcb1	0.995555
31	0x3f86040c	1.0469985
32	0x3f81655c	1.0109057
33	0x3f7fcbc8	0.9992032
34	0x3f7e980f	0.99450773
35	0x3f7b0fd4	0.98071027
36	0x3f7cf458	0.9881034
37	0x3f802580	1.0011444
38	0x3f7586da	0.9590889
39	0x3f963aa5	1.1736647
40	0x3f7270e6	0.9470352
41	0x3f6f5b50	0.93498707
42	0x3f80dcb2	1.0067351
43	0x3f776283	0.9663469
44	0x3f6b86dc	0.92002654
45	0x3f76bc8d	0.96381456
46	0x3f7906b1	0.97275835
47	0x3f81a4ba	1.0128396
48	0x3f762b8c	0.961602
49	0x3f752ca4	0.9577124
50	0x3f798d59	0.97481304
51	0x3f81af82	1.0131686
52	0x3f7a1444	0.9768717
53	0x3f83e30b	1.0303663
54	0x3f80c660	1.0060539
55	0x3f7bc3e2	0.9834577
56	0x3f7cd37a	0.9876019
57	0x3f79ddf3	0.9760429
58	0x3f78a41f	0.9712543
59	0x3f803950	1.001749
60	0x3f78fc45	0.9725993
61	0x3f7f48f9	0.9972072
62	0x3f7f4867	0.9971985
63	0x3f7fc781	0.99913794
64	0x3f7b76b5	0.9822801
65	0x3f76d4e8	0.9641862
66	0x3f7ba394	0.98296475
67	0x3f751a39	0.9574314
68	0x3f81ab40	1.0130386
69	0x3f7ee2d0	0.9956484
70	0x3f7bb4dd	0.9832285
71	0x3f7a0f77	0.9767985
72	0x3f7635fb	0.9617612
73	0x3f71e011	0.94482523
74	0x3f7ac2ec	0.9795368
75	0x3f7583c5	0.9590419
76	0x3f7aeb85	0.98015624
77	0x3f79c475	0.97565395
78	0x3f7a54fc	0.97785926
79	0x3f81f35d	1.0152394
80	0x3f7b86d5	0.9825261
81	0x3f82480e	1.0178239
82	0x3f805cf8	1.0028372
83	0x3f82e326	1.022557
84	0x3f80bda2	1.0057871
85	0x3f83d9a7	1.0300797
86	0x3f877353	1.0582069
87	0x3f8305d4	1.0236154
88	0x3f7dd670	0.9915533
89	0x3f74e2cf	0.9565858
90	0x3f74db69	0.95647293
91	0x3f7d4016	0.9892591
92	0x3f72a80d	0.94787675
93	0x3f7a968e	0.9788598
94	0x3f7d8f3b	0.9904668
95	0x3f7bfa69	0.9842897
96	0x3f79060d	0.9727486
97	0x3f793c16	0.9735731
98	0x3f8334ad	1.025045
99	0x3f7d6d33	0.9899475
100	0x3f769894	0.96326566
101	0x3f833704	1.0251164
102	0x3f76acc3	0.96357363
103	0x3f7e27c9	0.9927946
104	0x3f76c7ec	0.96398807
105	0x3f8bce3a	1.092231
106	0x3f72e783	0.9488451
107	0x3f6f9f0c	0.9360206
108	0x3f8b60fe	1.0888975
109	0x3f803e7d	1.001907
110	0x3f846d07	1.0345773
111	0x3f7cb6e7	0.98716587
112	0x3f774bd9	0.9660011
113	0x3f7b3b10	0.98137
114	0x3f7871ff	0.97048944
115	0x3f71f8f2	0.94520485
116	0x3f7c2e61	0.9850827
117	0x3f7b0e78	0.9806895
118	0x3f7d00b0	0.98829174
119	0x3f7c8f6d	0.9865635
120	0x3f7915ff	0.9729919
121	0x3f75b27a	0.9597546
122	0x3f78ef87	0.9724049
123	0x3f80f3ac	1.0074363
124	0x3f806d67	1.0033387
125	0x3f7a0b50	0.9767351
126	0x3f7f0462	0.9961606
127	0x3f7311a4	0.9494879
128	0x3f895e7e	1.0731962
129	0x3f793137	0.9734072
130	0x3f79d474	0.975898
131	0x3f6edf30	0.9330931
132	0x3f89911b	1.0747408
133	0x3f7bc13c	0.9834173
134	0x3f815ea6	1.010701
135	0x3f70f409	0.9412237
136	0x3f805ab0	1.0027676
137	0x3f74fc8f	0.95697874
138	0x3f82d415	1.0220972
139	0x3f6f6357	0.93510956
140	0x3f83f1c3	1.0308155
141	0x3f8ba3e4	1.090939
142	0x3f77cf13	0.96800345
143	0x3f743437	0.95392174
144	0x3f7be642	0.9839822
145	0x3f76856b	0.9629733
146	0x3f7a21b3	0.9770767
147	0x3f7b6181	0.98195654
148	0x3f8057a3	1.0026745
149	0x3f71dace	0.94474494
150	0x3f771eff	0.9653167
151	0x3f8521ca	1.0400937
152	0x3f7a261f	0.9771442
153	0x3f7c228e	0.98490226
154	0x3f7f0cc6	0.99628866
155	0x3f77ec9b	0.96845406
156	0x3f77b003	0.9675295
157	0x3f72b464	0.94806504
158	0x3f8d6e9a	1.1049378
159	0x3f839da4	1.0282483
160	0x3f825053	1.0180763
161	0x3f8233b4	1.0172029
162	0x3f7b1246	0.9807476
163	0x3f847633	1.0348572
164	0x3f82eca8	1.0228472
165	0x3f87076d	1.0549141
166	0x3f795971	0.974021
167	0x3f784261	0.96976286
168	0x3f77083f	0.9649696
169	0x3f80e252	1.0069067
170	0x3f75fc92	0.96088517
171	0x3f766e9f	0.96262544
172	0x3f7c0431	0.98443896
173	0x3f7a609d	0.9780367
174	0x3f80f351	1.0074254
175	0x3f7fa077	0.99854225
176	0x3f79f41e	0.9763812
177	0x3f7bb4fa	0.98323023
178	0x3f7795d4	0.96712995
179	0x3f78920a	0.9709784
180	0x3f8271d5	1.0190989
181	0x3f71513a	0.94264567
182	0x3f825821	1.0183145
183	0x3f7dc384	0.9912646
184	0x3f80e0ff	1.0068663
185	0x3f820d0c	1.0160232
186	0x3f732967	0.9498505
187	0x3f7cc4ad	0.98737603
188	0x3f7843ae	0.9697827
189	0x3f82baa3	1.0213207
190	0x3f80a96b	1.0051702
191	0x3f94a3c8	1.1612482
192	0x3f80b71d	1.0055882
193	0x3f7efd89	0.99605614
194	0x3f94bae0	1.161953
195	0x3f7bbb34	0.98332524
196	0x3f7e0678	0.9922862
197	0x3f7a42b4	0.9775803
198	0x3f709657	0.939794
199	0x3f78298b	0.9693839

gnn_node.convs.0.mlp.1.bias f4 [200]
0	0xbd6357df	-0.055503722
1	0x3db3bcfb	0.087762795
2	0x3d2ce4a9	0.042210255
3	0xbcf712f4	-0.030160405
4	0xbcbb76e4	-0.02288384
5	0xbc4bddc7	-0.012443013
6	0x3e1341ee	0.14380619
7	0xbc881a1b	-0.01661401
8	0x3d86c27b	0.06580063
9	0x3d5ba069	0.053619776
10	0xbca6519a	-0.020302583
11	0xbd4895dc	-0.048971042
12	0x3c82664e	0.015917923
13	0x3d694d05	0.056958217
14	0x3d0d2668	0.034460455
15	0xbcebf59d	-0.028803641
16	0x3c343159	0.0109980935
17	0x3cb89df0	0.022536248
18	0x3d09dc57	0.033657398
19	0xbc8cea53	-0.017201578
20	0x3da12111	0.07867635
21	0xbc133129	-0.008983889
22	0x3c8ff4e5	0.01757283
23	0x3d6cd948	0.057824403
24	0x3d63b8d8	0.055596203
25	0x3e2db96d	0.16965266
26	0x3c489734	0.012243081
27	0xbcc7b9f1	-0.024380656
28	0xbca94073	-0.020660615
29	0xbc946390	-0.018113881
30	0x3c47c049	0.01219184
31	0x3dd5f672	0.10447396
32	0x3d48819c	0.04895173
33	0xbcf0cf7c	-0.029395811
34	0xbd881138	-0.06643909
35	0x3d8a993f	0.067675106
36	0xbc6a0994	-0.01428451
37	0xbd1afce8	-0.037838846
38	0x3c6d6223	0.01448873
39	0x3dfe0f80	0.124053
40	0xbd066e7d	-0.032820214
41	0xbd464d01	-0.04841328
42	0x3d4acc8e	0.049511485
43	0xbdb9b941	-0.090685375
44	0xbbe4e408	-0.0069851913
45	0xbc2a9b60	-0.010413021
46	0x3c53b4d1	0.012921528
47	0x3d0a917b	0.033830147
48	0xbd7959c1	-0.06087661
49	0xbc92f9b9	-0.017941343
50	0x3cec111a	0.028816748
51	0x3d849ce7	0.06475239
52	0x3d33117e	0.043717854
53	0x3d5d90fc	0.054093346
54	0x3ca16e10	0.019705802
55	0x3c60fcf6	0.013732186
56	0x3b8566dd	0.0040711
57	0xbd1b0436	-0.037845813
58	0x3cc74183	0.02432323
59	0x3d46b63b	0.048513632
60	0x3d0471ad	0.032334972
61	0x3d1fcb1a	0.039012052
62	0x3d2c6eb6	0.04209777
63	0xbb47d3ee	-0.003049131
64	0x3ce245ce	0.027621176
65	0xbd5a9687	-0.05336621
66	0xbd003820	-0.031303525
67	0xbba44c9b	-0.005014015
68	0x3d0bdb97	0.034144964
69	0x3ae3e79e	0.0017387753
70	0x3bf1ddd1	0.007381179
71	0x3aef01aa	0.0018234749
72	0xbc0bf328	-0.00854186
73	0xbd0448eb	-0.032296102
74	0x3c403ff7	0.011734
75	0x3b8b8b06	0.0042585162
76	0xbc62c9de	-0.013842074
77	0x3ce9eab4	0.028554298
78	0xba54474a	-0.0008097781
79	0x3d853fa9	0.06506283
80	0x3d1a369d	0.03764974
81	0x3d4986dd	0.04920088
82	0x3d761861	0.060081843
83	0x3ca358ab	0.019939741
84	0x3d7cd028	0.06172195
85	0xbc7c0437	-0.015381864
86	0x3d9c3716	0.07627694
87	0x3dbe555f	0.09293627
88	0x3d5b8ed4	0.05360301
89	0x3b2d604a	0.0026455098
90	0xbbae4d75	-0.005319292
91	0x3c910ca8	0.01770623
92	0xbae3c1b5	-0.0017376455
93	0x3cb2893b	0.021793952
94	0x3ce9e93b	0.028553596
95	0x3cee07a2	0.029056374
96	0x3d24c7cb	0.0402296
97	0x3c1aec94	0.009455819
98	0x3d4bd5e0	0.049764514
99	0x3c93f405	0.018060694
100	0xbd4c98f2	-0.049950548
101	0x3d02f37e	0.031970493
102	0x3d12ed2c	0.035870716
103	0xbd66de35	-0.056364257
104	0x3cff8a01	0.031193735
105	0x3d9f5740	0.077803135
106	0xbd08e18e	-0.03341823
107	0xbbc949ef	-0.006142847
108	0x3de7f63f	0.113262646
109	0xbcb28ee6	-0.021796655
110	0x3da17841	0.07884265
111	0x3c0aadc5	0.008464281
112	0xbbe545ea	-0.00699686
113	0x3c6cbece	0.014449788
114	0x3c847a23	0.01617152
115	0xbd614743	-0.0549996
116	0x3d149ba6	0.03628125
117	0xbd8502cb	-0.06494673
118	0xbc886fea	-0.016654927
119	0x3c1cfa64	0.009581182
120	0x3d819795	0.0632774
121	0x3c06f1dc	0.008236375
122	0xbcf5d201	-0.030007364
123	0x3d52d8de	0.051476352
124	0x3c2075d4	0.009793717
125	0x3ca2492c	0.019810282
126	0xbce0d225	-0.027443955
127	0xbd1d1d01	-0.03835774
128	0x3dd7e430	0.1054157
129	0x3cfe833e	0.03106844
130	0x3d41a868	0.047279745
131	0xbceb65d8	-0.028735086
132	0x3debbaf9	0.115102716
133	0xbc591f8f	-0.013252153
134	0x3c507b69	0.012724736
135	0xbd332dc1	-0.043744806
136	0x3d805f24	0.06268147
137	0xbcabb922	-0.020962302
138	0xbbd28766	-0.006424832
139	0x3c2074a8	0.009793438
140	0x3b523b9d	0.003207899
141	0x3dee58ee	0.11638056
142	0xbc942f3c	-0.01808893
143	0xbc223719	-0.009900832
144	0x3c29609d	0.010337976
145	0x3d06b5dd	0.032888282
146	0x3d4d76fc	0.0501623
147	0x3d098c8d	0.033581305
148	0x3bb12d65	0.005407023
149	0xbb53ba41	-0.003230706
150	0xbc9f9782	-0.019481424
151	0x3d8226cf	0.063550584
152	0x39ccf716	0.00039094005
153	0x3cc9f258	0.024651691
154	0x3d38a060	0.04507482
155	0xbda0dfbe	-0.078551754
156	0xbd820efd	-0.06350515
157	0xbb97e317	-0.0046352255
158	0x3e732188	0.2374326
159	0xbcb4b0db	-0.022056988
160	0x3d8ca689	0.068677016
161	0x3da2ae4c	0.07943401
162	0xbb2ffef7	-0.0026854852
163	0x3da44f06	0.08022885
164	0x3bd19f84	0.0063971896
165	0x3dd61842	0.104538456
166	0x3d1a6066	0.03768959
167	0x3a00dbf4	0.0004915588
168	0x3c65bba4	0.014021788
169	0x3d51eef7	0.051253285
170	0x3cbb2bdc	0.022848062
171	0xbce6b80f	-0.028163938
172	0x3d15829d	0.036501516
173	0x3c2738e0	0.010206431
174	0x3d8d36e8	0.06895238
175	0xbd3fd615	-0.046835024
176	0xbd3c9a13	-0.046045374
177	0x3b3e2e4e	0.00290193
178	0x3d7fd972	0.06246323
179	0x3b772819	0.003771311
180	0x3a1513ad	0.0005686831
181	0x3cba92d9	0.0227751
182	0x3d250a44	0.040292993
183	0x3d577c69	0.05260888
184	0x3d9880b2	0.07446422
185	0x3ce4a3ec	0.027910195
186	0xbc7fd328	-0.015614308
187	0xbc704900	-0.014665842
188	0xbcbb1e15	-0.022841493
189	0x3c993d9a	0.018706132
190	0x3d13d213	0.036089014
191	0x3dd28b83	0.10280516
192	0x3d5b349f	0.05351698
193	0x3d624aa7	0.055246975
194	0x3e2b1cff	0.1671028
195	0x3cfe32c5	0.031030068
196	0x3ca3e29c	0.020005517
197	0x3d00545e	0.03133046
198	0x3ac1c913	0.0014784656
199	0x3d4f9192	0.050675936

gnn_node.convs.0.mlp.1.running_mean f4 [200]
0	0xc10b54de	-8.70822
1	0xc1206d38	-10.026665
2	0x418ea9d3	17.832922
3	0xc11c9b85	-9.787969
4	0x414f1785	12.943242
5	0x41318718	11.095482
6	0xc14b88b4	-12.720875
7	0xc1616a34	-14.0884285
8	0x411eff7d	9.937375
9	0x40e02ab7	7.005214
10	0xc188da86	-17.1067
11	0xc2004ae1	-32.073124
12	0x415428d5	13.259969
13	0x4085c116	4.17982
14	0x418682fd	16.81396
15	0x41efbef3	29.968237
16	0x41d9dd18	27.232956
17	0x4168c321	14.547639
18	0x41713309	15.07496
19	0x41a472a1	20.555971
20	0x4139706a	11.589945
21	0x41af1764	21.886421
22	0x41304c45	11.0186205
23	0x40670cef	3.6101644
24	0x41461e96	12.382467
25	0x413b1685	11.692998
26	0xc1bc79fa	-23.559559
27	0xc1a94cd0	-21.162506
28	0x41716fb3	15.08977
29	0x41a7ad86	20.959728
30	0x41263f38	10.390434
31	0x4146daa5	12.42838
32	0xc1090958	-8.564781
33	0xc18240c8	-16.281631
34	0xc13bc60a	-11.735849
35	0x4172c9ba	15.17425
36	0xc0cfdddf	-6.495834
37	0xc0ef80ec	-7.4844875
38	0x418081d7	16.063398
39	0xc1456221	-12.336457
40	0x41d12218	26.141647
41	0x41276f5b	10.464686
42	0xc1081cb9	-8.507012
43	0xc10c0235	-8.750539
44	0x41d88e54	27.069496
45	0x412978da	10.592005
46	0x411595f3	9.349109
47	0x41a318d4	20.387123
48	0xc1e214e7	-28.260206
49	0x41a06848	20.050919
50	0x4103d5e2	8.2397175
51	0xc18b82ea	-17.438923
52	0x419a9826	19.324291
53	0x4157ee50	13.495682
54	0xc0ffaa25	-7.9895196
55	0x4195fa9d	18.74737
56	0x415c221a	13.758326
57	0xc122adb8	-10.167412
58	0x41416005	12.085942
59	0x40ee39d1	7.4445577
60	0x41fb64fc	31.424309
61	0x41b875b9	23.057482
62	0x41a6c138	20.844345
63	0xc10c579d	-8.77139
64	0xc1000bcb	-8.002879
65	0x41dfe066	27.98457
66	0xc16602fd	-14.37573
67	0x41673abd	14.45184
68	0x4196e8e5	18.863718
69	0xc1a7704f	-20.929838
70	0x41c962e5	25.173288
71	0xc0b99036	-5.798854
72	0x4149d5d5	12.614705
73	0x41a224eb	20.268026
74	0x41ad91a9	21.696123
75	0x41ba4d51	23.287752
76	0x41702006	15.007818
77	0x41300d8a	11.003305
78	0x42078cac	33.887375
79	0x4168fbc6	14.561468
80	0x4194c716	18.59721
81	0x4186a74a	16.831684
82	0xc0f969d8	-7.7941704
83	0xc130b9d9	-11.045373
84	0xc15ae94b	-13.681956
85	0xc1ca551b	-25.291555
86	0xc1823d34	-16.279884
87	0x41774c26	15.456091
88	0x4162d354	14.176594
89	0x419c6c83	19.552984
90	0x4175d506	15.364508
91	0xc1692458	-14.571373
92	0x41743b77	15.264518
93	0x416a619e	14.648832
94	0x415120ff	13.070556
95	0x41f040bd	30.03161
96	0x418760b5	16.92222
97	0x413a4571	11.641953
98	0xc17247bd	-15.142514
99	0xc10cfa3a	-8.81109
100	0xc0f64f18	-7.697155
101	0x412a8226	10.6567745
102	0x4195026e	18.626186
103	0xc0f283b0	-7.578575
104	0x417aad96	15.667379
105	0xc195b67f	-18.71411
106	0x41ba67d6	23.300701
107	0x41756984	15.338261
108	0xc178e53e	-15.555967
109	0xc1593481	-13.575318
110	0x410d06db	8.814174
111	0xc02886ec	-2.633235
112	0xc19828dd	-19.019953
113	0x417e4f44	15.894352
114	0x415fd82e	13.990278
115	0xc0265f1a	-2.5995545
116	0x40bb0f02	5.845582
117	0xc129f8d9	-10.623254
118	0xc0dcbe0f	-6.8982005
119	0x40d85ca7	6.76131
120	0x418f6b10	17.927277
121	0x414ee191	12.93007
122	0x41a81e1f	21.014708
123	0x40e1404e	7.0390997
124	0xc1350f26	-11.316198
125	0x41a64c7a	20.787342
126	0xc19fbdfb	-19.967764
127	0x4199c813	19.222692
128	0x41cc6a0e	25.551785
129	0x4106f291	8.43422
130	0xc14afdc0	-12.686951
131	0x4164b21d	14.293485
132	0x41839950	16.44986
133	0x413c3d7f	11.765014
134	0xc110d781	-9.052613
135	0xc14f6abb	-12.963557
136	0x41578b73	13.471545
137	0xc18a0bf0	-17.255829
138	0xc1810280	-16.12622
139	0x42163748	37.553986
140	0xc0584996	-3.3794913
141	0xc117fc5a	-9.499109
142	0xc13030ad	-11.011884
143	0x4147f05b	12.496181
144	0x417d1af1	15.8190775
145	0x41984ce7	19.03755
146	0x419f3b12	19.903843
147	0x420077e0	32.117065
148	0x412b6f33	10.714648
149	0x41cefa47	25.872206
150	0x41c045ca	24.034077
151	0x4054ad58	3.32308
152	0x41c847a7	25.034986
153	0xc19b6ee4	-19.429146
154	0x41a2f49a	20.369434
155	0xc0bc47a3	-5.8837447
156	0xc10efe76	-8.937124
157	0x420f8f99	35.890232
158	0xc04b1a31	-3.1734736
159	0xc1529c17	-13.163108
160	0x41a3b057	20.461103
161	0x415953e9	13.582986
162	0xc195b4b6	-18.713238
163	0xc1bc4b81	-23.536867
164	0x412fdf37	10.991996
165	0xc1d13d16	-26.154827
166	0x412fa908	10.978767
167	0x4067f663	3.6244133
168	0x41bff535	23.99473
169	0xc118e7e3	-9.556613
170	0x41501fec	13.007793
171	0x41916b1b	18.177298
172	0x41318790	11.095596
173	0x40ff9d31	7.9879384
174	0xc15c33a8	-13.762611
175	0xc0e78325	-7.234759
176	0xc13a5585	-11.645879
177	0x41adbc60	21.71698
178	0x4114dee5	9.304418
179	0x41903428	18.025467
180	0xc18599e4	-16.700142
181	0x417d4967	15.8304205
182	0x41eecf68	29.851273
183	0xc15685fa	-13.407709
184	0xc0d61f2e	-6.691306
185	0xc19e2e40	-19.772583
186	0x41995098	19.164352
187	0xc1c0e465	-24.11152
188	0xc12ccdaa	-10.800211
189	0x41259eae	10.35124
190	0x416715b4	14.442799
191	0x40d229fe	6.567626
192	0x413e10b3	11.879077
193	0xc1de279f	-27.769346
194	0x4109051f	8.56375
195	0x41791e4e	15.569899
196	0x4138ec14	11.557636
197	0x416909f1	14.564927
198	0x418f0c09	17.880877
199	0x419a29ad	19.27035

gnn_node.convs.0.mlp.1.running_var f4 [200]
0	0x429bc118	77.87714
1	0x42bbf5b7	93.97991
2	0x43bedfa1	381.7471
3	0x42f2b958	121.362
4	0x431b81ce	155.50705
5	0x430a4dad	138.30342
6	0x433ff9e9	191.97621
7	0x434ffd5d	207.9897
8	0x42e72041	115.562996
9	0x42a76eca	83.716385
10	0x43c7751a	398.91486
11	0x4499a75b	1229.2299
12	0x43486aaa	200.41666
13	0x41f9cf53	31.226233
14	0x43a25ce1	324.72562
15	0x447af3bd	1003.8084
16	0x44565ba1	857.4317
17	0x43645867	228.34532
18	0x436b6346	235.38779
19	0x43ef1a60	478.20605
20	0x432af322	170.94974
21	0x440ab092	554.7589
22	0x430973c9	137.45229
23	0x419e7cab	19.810873
24	0x433e0089	190.00209
25	0x43139847	147.59483
26	0x441bd654	623.3489
27	0x4411e323	583.549
28	0x4377b870	247.72046
29	0x4403828f	526.04
30	0x430b0466	139.01718
31	0x43228326	162.5123
32	0x42c7c12d	99.8773
33	0x439fe3f6	319.78094
34	0x43296661	169.39992
35	0x43862b2f	268.33737
36	0x424700e0	49.750854
37	0x4277414c	61.813766
38	0x43797e59	249.49355
39	0x4319ba05	153.72664
40	0x4454bd40	850.95703
41	0x42e7a230	115.81677
42	0x42aaa791	85.32728
43	0x428e5fb0	71.18689
44	0x444bdd19	815.45465
45	0x42e74418	115.632996
46	0x42cbe360	101.94409
47	0x43f8b548	497.41626
48	0x447246bc	969.1052
49	0x43e7228e	462.26996
50	0x42ab6124	85.68973
51	0x43b0811f	353.00876
52	0x43de2c13	444.34433
53	0x43598191	217.50612
54	0x42b62147	91.064995
55	0x43d51bbd	426.2167
56	0x434234b4	194.20587
57	0x43157fb6	149.49887
58	0x4346ad89	198.67787
59	0x42729c65	60.65273
60	0x449028fa	1153.2805
61	0x4423aef2	654.7335
62	0x4402abb4	522.68286
63	0x42d6cd99	107.40156
64	0x428f1861	71.547615
65	0x446046cd	897.10626
66	0x438a8ed2	277.11578
67	0x4366ff83	230.9981
68	0x43c9aeec	403.36658
69	0x43f019f1	480.20267
70	0x4439640f	741.5634
71	0x421b1ee3	38.780163
72	0x434c2be9	204.17152
73	0x43e9c3b1	467.52884
74	0x440ab5ad	554.8387
75	0x4414ecc0	595.6992
76	0x438ba03f	279.25192
77	0x42f0a1be	120.3159
78	0x449c337d	1249.609
79	0x43656c90	229.42407
80	0x43d190df	419.1318
81	0x43920416	292.03192
82	0x4283f966	65.98711
83	0x430371ac	131.44403
84	0x43677193	231.44365
85	0x443dd3f8	759.312
86	0x43aaecfd	341.85147
87	0x43859f74	267.24573
88	0x435defcf	221.93675
89	0x43d15291	418.64505
90	0x43723f8a	242.2482
91	0x4379e0ec	249.8786
92	0x438eaf68	285.37036
93	0x4382ef77	261.87082
94	0x434d69fc	205.414
95	0x44864f59	1074.4796
96	0x43bcc2e0	377.52246
97	0x430fad25	143.67635
98	0x437ab311	250.69948
99	0x42cf736e	103.72545
100	0x4297c487	75.88384
101	0x430df7d2	141.96805
102	0x43d37baa	422.96613
103	0x42610e5e	56.26403
104	0x43905841	288.68948
105	0x43ce1e33	412.23593
106	0x441f0d52	636.2081
107	0x4383dabd	263.7089
108	0x43873277	270.39426
109	0x43533841	211.21974
110	0x42b8962a	92.29329
111	0x415d034d	13.813306
112	0x43d38638	423.04858
113	0x43a3cf7e	327.62103
114	0x4359f5c1	217.95998
115	0x411223a0	9.1336975
116	0x422f8812	43.88288
117	0x42ee590b	119.17391
118	0x4287e408	67.94537
119	0x426505d6	57.2557
120	0x43beabee	381.3432
121	0x433dccb4	189.79962
122	0x440357e7	525.3735
123	0x42283f58	42.06186
124	0x433d8713	189.52763
125	0x4405527b	533.28876
126	0x43e20f01	452.11722
127	0x43e5afff	459.37497
128	0x4440c4e0	771.0762
129	0x4295a1f3	74.81631
130	0x43390332	185.01248
131	0x437e3f27	254.24669
132	0x439861e0	304.76465
133	0x43190730	153.02808
134	0x42c645d9	99.13642
135	0x436fa2b2	239.63553
136	0x4369f1a8	233.94397
137	0x4398c98e	305.57465
138	0x43a74a9d	334.58292
139	0x44c9fd3c	1615.9136
140	0x41c0c8a1	24.097963
141	0x4312297f	146.1621
142	0x43203caf	160.23705
143	0x432a1b80	170.10742
144	0x439c412b	312.50912
145	0x43d0134c	416.15076
146	0x43e30ec4	454.11536
147	0x4491bdd3	1165.932
148	0x43201938	160.09851
149	0x44412852	772.63
150	0x442f43fc	701.06226
151	0x41d1e7ab	26.23812
152	0x444261e6	777.52966
153	0x43e66687	460.801
154	0x43d8d82b	433.6888
155	0x4255bb40	53.43286
156	0x42bb4f1e	93.654526
157	0x44b1f7c0	1423.7422
158	0x41a1d278	20.227768
159	0x4335837c	181.51361
160	0x43efaf9e	479.372
161	0x4375cc91	245.79909
162	0x43cfedb3	415.85703
163	0x44214f19	645.2359
164	0x43006f5e	128.43503
165	0x443ccf27	755.23676
166	0x42ff879f	127.764885
167	0x421efb94	39.74568
168	0x4421f8eb	647.88934
169	0x42fdd020	126.906494
170	0x43560c63	214.04839
171	0x43bc0fa2	376.12213
172	0x43302342	176.13773
173	0x429559d2	74.67543
174	0x432a9675	170.58772
175	0x4260bd9b	56.18516
176	0x4321f617	161.96129
177	0x440db76a	566.86584
178	0x42dbe764	109.951935
179	0x43c4749b	392.91098
180	0x439bb878	311.44116
181	0x43819b63	259.21396
182	0x447d0130	1012.01855
183	0x433c8ef1	188.55836
184	0x4286d2bc	67.41159
185	0x43e90558	466.04175
186	0x43e46147	456.75998
187	0x442cdc5e	691.44324
188	0x43142d92	148.17801
189	0x42ef4663	119.637474
190	0x43843574	264.4176
191	0x42390ba4	46.261368
192	0x435890d4	216.56573
193	0x446e809b	954.00946
194	0x42dabf50	109.37366
195	0x43809a93	257.2076
196	0x43175527	151.33263
197	0x43659e60	229.61865
198	0x43c82451	400.28372
199	0x43dd5c41	442.72073

gnn_node.convs.0.mlp.3.weight f4 [100, 200]
0	0xbd13979d	-0.03603326
1	0x3cc7548a	0.024332304
2	0xbd09d615	-0.03365143
3	0x3c57a4e3	0.013161871
4	0x3d0d81b1	0.03454751
5	0xbd2dc05d	-0.04241978
6	0x3ce501d2	0.02795497
7	0xbd737628	-0.059438854
8	0x3d5cdc2f	0.05392092
9	0xbc24830f	-0.010041012
10	0x3cbd2ebc	0.023093574
11	0xbd81d602	-0.06339647
12	0x3ce2b60a	0.027674694
13	0x3d717ef6	0.05895897
14	0xbd112cb6	-0.03544303
15	0x3cde1e6e	0.02711412
16	0x3c38fc15	0.01129057
17	0x3da17329	0.07883293
18	0xbcada33c	-0.021196
19	0xbc0c1d02	-0.008551838
20	0xbb5c56db	-0.0033621106
21	0xbb4dee2a	-0.0031422474
22	0xbcebca55	-0.028783003
23	0xbc3a95a8	-0.01138822
24	0x3ccf9714	0.025340594
25	0x3c70c424	0.014695201
26	0xbd4d1fe1	-0.05007923
27	0xbd6af359	-0.05736098
28	0x3dd199bc	0.10234401
29	0xbd4878c9	-0.048943315
30	0x3d825341	0.06363536
31	0xbcd17635	-0.02556906
32	0x3c80e3be	0.015733596
33	0xbd504856	-0.050850235
34	0xbc5182c3	-0.012787524
35	0xbd6c963c	-0.057760462
36	0x3cf9153d	0.030405635
37	0xbc52fba6	-0.0128773805
38	0x3d4f4465	0.050602335
39	0xbc19f17c	-0.009395953
40	0xbd69aa20	-0.05704701
41	0xbbd41da0	-0.006473258
42	0x3c39d317	0.011341832
43	0x3c572790	0.013131991
44	0x3cbfb502	0.023401741
45	0x3ccb4212	0.024811778
46	0xbd36c35b	-0.0446199
47	0xbc78c5b1	-0.015183852
48	0xbd059e1d	-0.03262149
49	0x3da547d6	0.08070342
50	0x3b1b33ff	0.0023682115
51	0x3d543c95	0.051815588
52	0xbd2b9797	-0.041892614
53	0x3d98ec49	0.07466943
54	0xbcc1e9e5	-0.0236711
55	0xbdbfeed4	-0.09371725
56	0x3dbcd9c7	0.09221225
57	0x3dbc986a	0.09208758
58	0x3d574184	0.052552715
59	0x3c0afa3d	0.008482513
60	0x3c953f59	0.018218683
61	0x3d3cad14	0.046063498
62	0x3d91adfe	0.071132645
63	0x3d14167e	0.036154263
64	0x3cd15536	0.025553327
65	0x3d97f31c	0.07419416
66	0x3d8a1950	0.06743109
67	0x3c293ece	0.010329915
68	0xbcb56822	-0.022144381
69	0xbcbd6287	-0.02311827
70	0xbd264190	-0.04058987
71	0x3ddc91d8	0.10770005
72	0x3bdbd636	0.0067088855
73	0x3bdfc437	0.0068288106
74	0xbd2d64a2	-0.0423323
75	0x3d02c292	0.031923838
76	0x3d849a70	0.06474769
77	0x3d9de504	0.07709697
78	0x3c98a820	0.018634856
79	0x3c30efb2	0.010799335
80	0x3d3fe510	0.04684931
81	0xbd0a44dc	-0.033757076
82	0xbd344575	-0.044011552
83	0x3d064438	0.032779902
84	0x3d632595	0.055455763
85	0xbd1bc22a	-0.038026966
86	0xbdabd94d	-0.08391056
87	0xbd12b7f8	-0.035819978
88	0x3d2529d5	0.040323097
89	0xbda25252	-0.079258576
90	0x3ddf7d45	0.10912565
91	0x3dbc2e0c	0.0918847
92	0xbccf1356	-0.025277775
93	0xbc1533c3	-0.009106579
94	0x3dc37891	0.095444806
95	0x3d871e99	0.06597633
96	0xbcd87260	-0.026421726
97	0x3dac39d9	0.08409471
98	0xbcbebcd0	-0.023283392
99	0x3d848066	0.064698026
100	0xbd9a531e	-0.075353846
101	0x3c807fca	0.015685935
102	0xbd394c91	-0.045239035
103	0x3cca5db7	0.02470289
104	0x3bbc773a	0.0057515176
105	0xbc71369e	-0.014722494
106	0xbd8a71bf	-0.067599766
107	0x3d117c8a	0.03551916
108	0x3b98dbb6	0.0046648635
109	0x3d30b7f3	0.043144178
110	0xbcb74adc	-0.022374563
111	0x3cefccf0	0.029272527
112	0x3cd3a953	0.025837576
113	0x3d2c29d2	0.04203207
114	0x3d14c421	0.036319856
115	0x3b8b03dd	0.004242404
116	0x3d819e4e	0.06329022
117	0xbb402b14	-0.0029322552
118	0x3ca950f6	0.020668488
119	0x3d225af4	0.03963752
120	0xbd0c9949	-0.03432587
121	0x3d63283e	0.0554583
122	0x3cad5e8a	0.021163244
123	0x3d8b4f52	0.068022385
124	0x3d765643	0.06014086
125	0xbd034caf	-0.032055553
126	0xbd06bff9	-0.032897923
127	0x3d52f4a0	0.051502824
128	0x3d0ae492	0.033909388
129	0x3cdc6cff	0.026907442
130	0xbc66df4f	-0.014091327
131	0xbd4507f7	-0.0481033
132	0x3c498a0d	0.01230098
133	0xbd038c47	-0.0321162
134	0x3d77a43f	0.06045937
135	0x3ceb1f3a	0.028701413
136	0x3d814137	0.06311267
137	0xbb29830c	-0.0025865464
138	0xbd5d5833	-0.05403919
139	0xbaa02d94	-0.0012220615
140	0xbdb00f71	-0.08596695
141	0x3d8de56e	0.06928526
142	0x3c799596	0.015233418
143	0xbd24b024	-0.040207043
144	0xbd1ad66b	-0.03780214
145	0x3d223dd5	0.03960975
146	0xbc55c36d	-0.013047081
147	0x3dad0b87	0.08449464
148	0xbda97eb0	-0.08276117
149	0xbcef4470	-0.029207438
150	0x3da0111b	0.078157626
151	0xbb8f635b	-0.0043758578
152	0x3da90443	0.08252766
153	0x3dd4c341	0.10388804
154	0xbd698ced	-0.057019163
155	0xbd30cdd0	-0.043165028
156	0x3ba010c4	0.004884811
157	0xbcfa5973	-0.03056023
158	0x3d241d2d	0.040066887
159	0xbd19ea34	-0.03757687
160	0xbc18899c	-0.009310152
161	0x3cb141da	0.021637846
162	0x3ce4a14c	0.027908944
163	0xbd7a5c73	-0.061123323
164	0xbd0aa3d2	-0.033847637
165	0x3d4602c2	0.048342474
166	0x3ce077ca	0.02740087
167	0x3c86ab61	0.016439142
168	0x3d14bac0	0.03631091
169	0xbcd72e26	-0.026267122
170	0xbcd0abd2	-0.025472555
171	0x3d50d27c	0.050981984
172	0x3b9a3233	0.0047056912
173	0xbc7e1bba	-0.01550954
174	0x3d3ff8f0	0.046868265
175	0x3d76a133	0.060212325
176	0xbcdafd8d	-0.02673223
177	0xbbfe4cfa	-0.007760641
178	0x3d6a687a	0.057228543
179	0xbd36151a	-0.044453718
180	0xbd2d3b26	-0.042292736
181	0xbce23b6f	-0.02761623
182	0xbd0a3473	-0.033741426
183	0xbd6a172d	-0.05715101
184	0xbcbb3a91	-0.022855075
185	0xbda09400	-0.07840729
186	0x3d73d734	0.059531406
187	0x3bead784	0.0071668047
188	0xbced296b	-0.028950414
189	0x3ce4486b	0.027866563
190	0x3cb00dc2	0.021490935
191	0xba43e81c	-0.00074732467
192	0x3c8205bf	0.01587188
193	0xbcc55302	-0.024087433
194	0xbd6641b1	-0.056214992
195	0x3d6ac9a3	0.057321202
196	0x3cd905f2	0.026492093
197	0x3aff3afe	0.0019472537
198	0xbc85a2bb	-0.016312947
199	0x3c8b39fa	0.016995419
200	0xbbb3d35f	-0.005487844
201	0x3ca97586	0.020685922
202	0xbd3c4002	-0.04595948
203	0xbc3e33fb	-0.011609073
204	0xbcde2d2d	-0.02712115
205	0x3d7fb66e	0.062429838
206	0xbd46080e	-0.048347525
207	0xbc03d7fd	-0.008047101
208	0x3d84ab38	0.0647797
209	0x3c9c9229	0.019112663
210	0xbcea3e33	-0.028594112
211	0x3ba63820	0.0050726086
212	0xbadc7cdb	-0.0016821878
213	0xbd8e9850	-0.06962645
214	0xbdc99052	-0.0984198
215	0xbcb2a422	-0.02180678
216	0x3d5ea647	0.054357793
217	0xbb7def93	-0.0038747534
218	0xbcc46198	-0.023972318
219	0x3c681b2a	0.014166633
220	0x3c103133	0.0088007925
221	0xbd0a69ca	-0.033792295
222	0x3c01da72	0.007925617
223	0xbd300c04	-0.04298021
224	0xbdc23a26	-0.09483747
225	0xbd08b254	-0.033373192
226	0xbcaf7c05	-0.021421442
227	0xbc7bb4cd	-0.0153629305
228	0xbcd396aa	-0.025828678
229	0x3d45537c	0.04817532
230	0x3db2d95c	0.08732864
231	0xbce3bab9	-0.027798997
232	0xbb18901b	-0.0023279253
233	0xbd78b7bf	-0.06072211
234	0x3c241113	0.010013836
235	0x3bb33d37	0.005469944
236	0x3d4c7f10	0.049925864
237	0xbc889983	-0.016674763
238	0xbcb3d2f1	-0.02195117
239	0x3d8f44a2	0.069955125
240	0xbc376c1e	-0.011195211
241	0xbd1853c5	-0.037189264
242	0xbd4d5b64	-0.050135985
243	0x3c24ccb6	0.0100585725
244	0x3c85103c	0.016243093
245	0xb9680d7a	-0.00022130265
246	0x3c0c6e6c	0.0085712485
247	0x3a7ae9d3	0.00095715857
248	0xbc3f798d	-0.011686695
249	0x3c97e3e8	0.018541291
250	0x3cb73b71	0.022367211
251	0xbd5eaa27	-0.05436149
252	0xbd9f204b	-0.07769831
253	0x3d5c96cf	0.05385476
254	0x3d24cf98	0.04023704
255	0xbd7ab9d5	-0.06121238

gnn_node.convs.0.mlp.3.bias f4 [100]
0	0x3d8cc099	0.068726726
1	0x3d012658	0.031530708
2	0x3cad5433	0.021158313
3	0x3d12a0b0	0.035797775
4	0xbce1642e	-0.02751359
5	0xbd65a56c	-0.05606596
6	0x3d26d286	0.040728115
7	0x3a47c884	0.0007621127
8	0xbd5b6c4b	-0.053570073
9	0x3d531ffa	0.051544167
10	0x3d0f3a99	0.034967992
11	0x3d113a4f	0.035455998
12	0x3d4b2476	0.04959532
13	0x3d830108	0.06396681
14	0xbd8aabb0	-0.06771028
15	0x3d88b825	0.06675748
16	0x3b8ef711	0.0043629487
17	0xbd1d3ab1	-0.03838605
18	0x3ca99c3c	0.020704381
19	0x3c860e30	0.016364187
20	0x3d399b60	0.045314193
21	0xbd57902f	-0.05262774
22	0x3d054e72	0.032545514
23	0x3c8b3a20	0.01699549
24	0x3d29407a	0.041321255
25	0x3d26e19b	0.040742498
26	0x3c9eb5c9	0.019373791
27	0x3d415e66	0.047209166
28	0xbd071bc6	-0.03298547
29	0x3d903819	0.0704195
30	0x3c31a43f	0.010842382
31	0xbd88f31e	-0.06686996
32	0xbd51f46b	-0.051258486
33	0xbd2ed270	-0.042681158
34	0x3c13ec02	0.009028437
35	0xbc52b7b4	-0.012861181
36	0x3c18599d	0.009298709
37	0xbc05f7d1	-0.00817676
38	0x3d80defb	0.0629253
39	0x3cdba770	0.026813239
40	0xbd1bbbe4	-0.038020983
41	0xbb493a86	-0.0030705049
42	0x3d4af4a0	0.0495497
43	0x3c60a809	0.013711938
44	0x3cd3832d	0.025819385
45	0xbd8c23d2	-0.0684277
46	0xbd07b63a	-0.03313277
47	0x3d23cc9a	0.039990045
48	0xbd412a87	-0.047159698
49	0x3d40d1fa	0.04707525
50	0x3d874a57	0.06605976
51	0x3d04be1d	0.03240787
52	0xbbd2388d	-0.006415433
53	0x3d3b027a	0.04565666
54	0x3c5100de	0.012756554
55	0xbd6d4182	-0.0579238
56	0x3d1f217f	0.038850304
57	0x3d087742	0.033316858
58	0xbaebc9f8	-0.0017989269
59	0x3d1cf556	0.038319908
60	0x3d0469c1	0.032327417
61	0xbc745027	-0.014911688
62	0x3ca78569	0.020449357
63	0xbcec049f	-0.028810797
64	0x3d2d5231	0.042314712
65	0x3d2ff496	0.042957865
66	0xbd532bb3	-0.051555347
67	0xbbb3711c	-0.00547613
68	0xbc6938ab	-0.014234702
69	0xbd95a69b	-0.07307168
70	0xbd3af00a	-0.045639075
71	0x3d84bc0c	0.064811796
72	0xbbcd0923	-0.0062571927
73	0x3d7ad766	0.061240576
74	0x3cbff43d	0.023431892
75	0xbb8df23d	-0.0043318556
76	0xbd8d26a6	-0.06892137
77	0xbc8c64fc	-0.017137997
78	0x3c5e48f2	0.013567196
79	0xbd8a9029	-0.067657776
80	0x3c11968e	0.008885993
81	0x3b3610d8	0.0027781036
82	0xbd0dc09b	-0.03460751
83	0xbc0206aa	-0.007936159
84	0x3d481387	0.048846748
85	0xbd83eb50	-0.06441367
86	0xbd275c35	-0.04085942
87	0x3d4b1671	0.04958195
88	0xbd01f967	-0.03173199
89	0xbcd70ce7	-0.02625127
90	0xbcca56f6	-0.02469967
91	0x3b735247	0.0037127899
92	0x3cb806bb	0.022464147
93	0xbd245aaa	-0.040125526
94	0xbd2d7851	-0.04235107
95	0x3c4ef203	0.012630942
96	0x3cd60e77	0.026129944
97	0x3cc49234	0.023995496
98	0x3c97f717	0.018550439
99	0xbc9acf65	-0.018897722
