FC-hackaton/checkpoints/A/model_A_epoch_10.pth (torch, 878282 bytes, 73 tensors)

gnn_node.node_encoder.weight f4 [1, 100]
000000 6e 50 5d 3e b2 53 40 be 38 d2 e6 be a9 cc 51 bf
       0.21612713 -0.18781927 -0.4508226 -0.8195291
000010 38 99 c6 3f 1a e0 be bf 1e f4 cd bd 9c b1 8d 3f
       1.5515509 -1.491214 -0.10056327 1.1069827
000020 6a 59 d4 be f8 ab 8e 3f 4a 02 63 3f 07 18 0d bf
       -0.41474468 1.1146231 0.8867537 -0.5511479
000030 66 1e 9f 3f 03 79 b6 bf 98 f4 cc bf 38 a8 c3 bd
       1.2431152 -1.425568 -1.6012144 -0.095535696
000040 71 a5 fb 3f 19 d1 2e 3f b8 04 c6 3f ad db f4 bf
       1.9659864 0.6828781 1.547019 -1.912954
000050 cc aa 95 3f d0 36 a0 be 9c 21 3a bf 3b 55 0a bf
       1.1692748 -0.3129182 -0.72707534 -0.540363
000060 94 22 4e bf df 68 f5 be f3 7c 97 bf 19 ed 4f 3f
       -0.8052151 -0.47931573 -1.1835006 0.8122116
000070 0b 2c d8 3f b1 ba 1c 3f 18 8b 1d 3f 99 ac f8 be
       1.6888441 0.6122237 0.61540365 -0.48569182
000080 75 41 87 3f a1 89 25 c0 f3 d5 01 be a6 23 01 40
       1.0566851 -2.5865252 -0.12679271 2.0178008
000090 4a 00 e1 3f f0 52 a9 3f 94 d0 9a bf b1 38 82 3e
       1.7578213 1.3228436 -1.2094903 0.25433877
0000a0 fd 3d 0d 3f 94 13 0a 40 a3 35 77 bf da 10 b0 bf
       0.5517271 2.157445 -0.9656622 -1.3755143
0000b0 01 4d 29 39 c3 9a 27 3e 4b 80 d2 3e 32 ed 69 3f
       0.00016145782 0.1636763 0.41113505 0.91377556
0000c0 8e 39 4f 3f a8 aa 30 bf 06 49 69 40 5d 64 08 bf
       0.80947196 -0.690104 3.645082 -0.5327814
0000d0 a1 b1 97 be 78 00 d9 3f 59 69 37 bf 69 d6 69 3f
       -0.29627708 1.6953268 -0.7164512 0.9134279
0000e0 3b 3e b3 3e fd ab 7e bf b9 76 0e 3d 93 a9 1a be
       0.35008416 -0.99481183 0.03478119 -0.1510375
0000f0 37 54 52 bf c0 f0 95 3f e8 65 c8 3f 1d a6 d3 3f
       -0.8215975 1.1714096 1.5656099 1.6535069
000100 60 30 3c 3f 3e 61 10 40 f9 ca 61 bf dd bb bf 3e
       0.73511314 2.2559352 -0.88200337 0.37448016
000110 86 49 2c 3f 8f 43 2a 3b 05 0b 78 bf f2 e7 ff bd
       0.6729969 0.002598021 -0.96891814 -0.12495412
000120 65 46 ae 3f 7c 29 1e 3f 2a 5f 9e 3f 34 74 a2 bd
       1.3615233 0.6178205 1.2372792 -0.0793232
000130 58 c0 ef 3e b9 69 9d 3f a2 58 96 3e f4 78 40 3f
       0.46826434 1.2297889 0.29364496 0.7518456
000140 c5 30 99 3f e3 52 a1 3e 66 f3 a8 3f 22 00 d5 3f
       1.1968008 0.3150855 1.3199279 1.6640666
000150 07 54 77 3f 20 cf f6 be c6 e3 49 3f 76 eb 58 bf
       0.9661259 -0.482049 0.7886318 -0.84734285
000160 6a 11 0e bf 9e c6 98 3e da 22 cb 3e 09 30 14 ba
       -0.5549532 0.29839033 0.39675027 -0.000565291
000170 fc cc f1 3e cd 7f f6 be 5d 6f 22 bf b7 9c 17 3f
       0.47226703 -0.4814438 -0.63451177 0.592235
000180 39 78 c2 3f 09 f7 cb bf 43 c0 a3 3e 3a b4 32 3d
       1.5192939 -1.5934764 0.31982622 0.04362891

gnn_node.convs.0.mlp.0.weight f4 [200, 100]
000000 fd 16 8e 3e 29 e7 44 3c e3 bc 02 bf b8 52 bb bd
       0.27751914 0.0120180035 -0.5106947 -0.09146637
000010 f0 19 6b bd 3d 69 78 3d 4c 80 b9 3d 91 e6 96 3d
       -0.057397783 0.060647238 0.09057674 0.07368196
000020 19 81 93 3d af 53 b7 bd 8d 20 84 bd 32 e2 c1 3d
       0.07202358 -0.08951508 -0.06451521 0.094669715
000030 4e 2b 52 3d 3c 8b 93 3d 8d 5f 22 bd cc a3 9a 3d
       0.05131083 0.07204291 -0.039641906 0.07550773
000040 8a 95 cf bd ff 3f 85 bd ff 86 7f 39 61 72 97 3d
       -0.10135944 -0.06506347 0.00024368985 0.07394863
000050 ac 99 78 bd 34 c1 2e 3d ae ad c3 3d fd ac 90 bd
       -0.060693428 0.04266472 0.09554611 -0.07064245
000060 da 2d f4 3c a7 33 4c bd e9 1b c9 bd d1 19 fd 3c
       0.02980702 -0.049853947 -0.098197766 0.0308961
000070 39 87 d0 bd fd 19 0a be 72 c1 e9 bc 23 48 4c bd
       -0.10182042 -0.13486476 -0.028534625 -0.049873482
000080 2a 11 e0 bd 30 3d a0 bc 6c 80 1c bd e3 ae bb bc
       -0.10940774 -0.019560426 -0.03820841 -0.02291054
000090 0d 63 9c 3d 77 8d 29 bd 62 c7 63 bd 31 f2 37 3d
       0.0763608 -0.041394677 -0.05561007 0.044908706
0000a0 73 25 c4 bd 6f f7 b7 bd 8b b2 70 bc 94 ef 80 3c
       -0.09577455 -0.08982741 -0.014691005 0.01573924
0000b0 6c 70 b6 bc 31 98 be 3d f6 21 19 3d 3f 98 29 bd
       -0.022270404 0.09306372 0.037385903 -0.04140496
0000c0 ef ac 94 3c 65 72 55 3d a5 78 b9 bc 2c a6 70 be
       0.018148867 0.05211105 -0.022640536 -0.2350089
0000d0 3a 9b f9 3c 86 76 05 bd 27 6b a0 3d 0c da da 3c
       0.030469526 -0.032583736 0.07832938 0.026715301
0000e0 f8 01 2b bc 68 87 a8 3d 47 27 fb bc 5b de 8f 3d
       -0.010437481 0.08228952 -0.030658377 0.07024833
0000f0 d4 ab 0c 3d 90 09 27 3d 89 f1 80 3c 1f bd 8e bd
       0.034343556 0.040780604 0.015740173 -0.06969666
000100 67 28 79 3c c2 fc 93 bd 5f f2 ac bd 4b 9d 92 bd
       0.015207387 -0.07225944 -0.08444666 -0.071589075
000110 1c 87 82 3d ed 8e 46 3d 1e 82 fd bc 6d 11 a1 3d
       0.06373426 0.04847615 -0.030945834 0.07864652
000120 5a a3 9f 3d 98 d5 f2 3d 6a 2a 8c bd ce 7b c9 bc
       0.07794829 0.11857146 -0.06844027 -0.024595167
000130 7a f4 73 3c d7 2b 4c 3d e8 bc 84 3d 9b a1 6d 3d
       0.014889831 0.049846496 0.064813435 0.058015447
000140 b0 86 0d be d0 fb 8b 3d bf c6 a5 bd fc 2a d3 3b
       -0.1382091 0.06835139 -0.080945484 0.006444333
000150 16 8b 98 3c 60 78 7d 3d 95 5a 49 bc c0 78 a7 3c
       0.018621009 0.061882377 -0.012289663 0.02044332
000160 25 74 b3 3d 8f ce 52 3d 61 89 16 be 6d f9 70 be
       0.08762387 0.05146652 -0.14700843 -0.23532648
000170 cc e3 77 3c 84 0c c3 be 02 71 3b bd 9a d1 d5 3d
       0.015129995 -0.38095486 -0.04576207 0.10440369
000180 bb ef cb bd 16 84 a4 3b 1b 63 97 bd c2 77 fa be
       -0.09957834 0.0050206287 -0.0739195 -0.48919493
000190 77 c4 9d bd f4 9e 0e bd a1 2b 20 3f 45 24 da 3c
       -0.07703488 -0.03481956 0.6256657 0.026628623
0001a0 c2 28 7c bd 98 5e 97 3d 0f 59 4a bc 92 42 83 3d
       -0.061562307 0.07391089 -0.012350335 0.06409182
0001b0 46 6c 7a bd 19 df 9f 3d 78 bf a9 3d 38 4e 37 3c
       -0.061138414 0.078062244 0.08288473 0.011188082
0001c0 2a d7 ce ba f7 6f 32 3c 92 a6 c1 bd 9a 1f 9e bd
       -0.0015780677 0.010890952 -0.09455599 -0.07720871
0001d0 26 c5 84 bd e0 b1 99 bd c3 4e 9f bd f6 73 c1 3d
       -0.064829156 -0.0750463 -0.077786945 0.09445946
0001e0 c5 e3 aa 3c a9 e2 73 bd de de 96 bd a9 4f f7 bc
       0.020860562 -0.05954233 -0.07366727 -0.030189352
0001f0 a8 60 54 ba c1 5b ae 3e 33 1d 12 3d a9 e6 1e bd
       -0.0008101561 0.34054378 0.035672378 -0.038794193
000200 7c 5d 0e bd e3 d9 ad 3d 22 37 0a bd 72 a2 95 3b
       -0.034757122 0.08488824 -0.033743985 0.004566484
000210 16 dc a6 bc 34 41 c5 3d c6 d3 76 bd be d4 eb bc
       -0.020368617 0.09631577 -0.060260557 -0.028787967
000220 f8 de b0 3d 81 d6 d2 3d 85 07 ab 3c 97 37 c3 bd
       0.08636278 0.102948196 0.020877609 -0.09532087
000230 0e cb d6 3d 3d 3e 6c bd 7e 81 ee bc 76 a3 80 bd
       0.10487948 -0.057676543 -0.029114481 -0.06281178
000240 aa d1 b3 bd a1 28 6e 3d 7d 8d 72 bd 58 0e 89 3d
       -0.087802246 0.058144215 -0.059216965 0.06692189
000250 ca f0 88 3d 51 c7 9a 3c f3 55 90 bd 2e 00 dc 3e
       0.06686552 0.01889387 -0.070476435 0.42968887
000260 0c f8 ba bd 1c 6e 4a 3d be 58 6d bc c1 6a 68 3d
       -0.091293424 0.049421415 -0.01448649 0.056742433
000270 99 9f de bd 44 86 48 bc 2f cc fb bd a1 b3 bf 3b
       -0.108702846 -0.012239043 -0.12294804 0.005850271
000280 27 03 88 3d 37 a1 08 3a 37 3a 16 3c e3 25 d7 3d
       0.06641226 0.0005212011 0.009169153 0.10505273
000290 9f 03 af bc 56 bd 0f bd 06 10 00 3d 16 5a f6 3d
       -0.021364031 -0.035092674 0.03126528 0.12028901
0002a0 e9 d0 98 bd ff bd a2 3d ee b0 a7 3d 76 6f 27 be
       -0.074617215 0.07946395 0.081880435 -0.16351113
0002b0 51 1b 65 3d f8 76 84 bc 7e c7 a8 3b 0b d6 b4 3d
       0.055934254 -0.01617001 0.0051507344 0.08829888
0002c0 12 5e 03 be c0 05 9c 3d bc bc 83 3d 1f 45 b3 3d
       -0.12828854 0.07618284 0.064324826 0.08753418
0002d0 7f 80 13 bd de 3f 0e be e3 68 6d 3c d3 cc cd 3d
       -0.036011215 -0.13891551 0.014490339 0.10048833
0002e0 73 eb cc 3d bc 4f 17 bd 18 2d 58 bd 1e 27 fe 3c
       0.10005846 -0.036941275 -0.05277738 0.031024512
0002f0 92 dc 8a bd 4f 9d 6d bd e1 23 19 3d de 46 9f be
       -0.06780352 -0.05801135 0.037387732 -0.31108755
000300 f3 c9 65 3d 16 1a 4c 3e 33 13 ad 3a fc b7 1a bd
       0.056100797 0.19931826 0.0013204574 -0.037773117
000310 a9 ed 8b 3d 3b d8 b9 3d 4d 8a c7 bd db 76 43 3f
       0.068324395 0.09074446 -0.09743176 0.76353234
000320 14 11 83 be 01 8f 41 3c 30 39 8b 3f ce 8a b4 3d
       -0.25598967 0.01181388 1.0876827 0.088155374
000330 4a cc b3 bd ea 75 64 bd a2 84 1d bd c1 30 cf 3d
       -0.087791994 -0.055776514 -0.038456567 0.10116721
000340 36 7b bb 3b 4c f3 65 3d 14 fd 7d 3d 65 81 d3 bc
       0.005721475 0.05614023 0.062008932 -0.025818536
000350 b9 76 9d 3d d0 59 89 bd e9 5f 10 3d 05 7a 1c be
       0.0768866 -0.067065835 0.035247717 -0.15280922
000360 34 40 9d bd 2e 4a bd bd 1f 8d 2c 3c c5 b4 c5 3c
       -0.076782614 -0.09242664 0.010531693 0.02413405
000370 2f dc 17 3d 18 08 a7 bd 97 67 83 bd 1b 06 3e bc
       0.037075218 -0.08155841 -0.064162426 -0.011598135
000380 54 79 8d 3d 69 52 b1 3e 8a 18 0b be c0 29 be 3c
       0.06907907 0.34633186 -0.1358358 0.023213267
000390 21 9c c9 3c 90 d8 c8 3d ee 54 8d 3d 23 bf c0 bd
       0.02461058 0.09806931 0.06900965 -0.094114564
0003a0 67 a9 a0 bd 22 4f 1c bd 76 6c 54 bd 6c b3 8a bd
       -0.07844811 -0.038161404 -0.05186125 -0.06772503
0003b0 4d 29 86 bd 7b 32 84 bd 3e f8 5e bd 23 1c 46 be
       -0.06550846 -0.06454941 -0.05443596 -0.19346671
0003c0 04 21 6a 3e ed f4 6c 3d 19 58 4c 3d 92 6a bb 3d
       0.22864157 0.057850767 0.049888704 0.09151186
0003d0 57 dd bd 3c 2e b1 5a bc 84 fd 1e 3d c3 9b 88 3d
       0.023176832 -0.013347907 0.03881599 0.06670334
0003e0 17 aa e1 bc 3c d1 cb 3d 8c f5 8e 3d d1 f6 3e 3e
       -0.027546925 0.09952018 0.06980428 0.1864884
0003f0 af 4e 8e bc bc 8e 2a 3d 3f f7 aa bb 70 f4 0d 3d
       -0.017371504 0.04164003 -0.0052174623 0.034656942

gnn_node.convs.0.mlp.0.bias f4 [200]
000000 09 43 9a bd 65 2b 86 3d be ea 94 bb a4 e5 9b bd
       -0.07532317 0.065512456 -0.004544585 -0.0761216
000010 e3 0b 81 3d 72 52 67 3d 32 e3 c8 bc 13 81 06 bd
       0.06301095 0.05647511 -0.024522398 -0.03283794
000020 c8 2d ad bd 6c be 09 3d 25 f9 96 3d 99 97 3c 3d
       -0.08455998 0.033628866 0.07371739 0.046043012
000030 54 54 c2 3d 92 18 8a bc 5e aa df 3c 3e be a0 3d
       0.094887406 -0.01685742 0.027302917 0.07848786
000040 5b a4 ab 3d 9c 20 41 3d e8 28 0e bc f0 b9 af bd
       0.08380958 0.04715024 -0.008676745 -0.08580387
000050 0d 74 2b 3d cf 67 87 bd bd 9a a2 3d e7 43 65 3d
       0.04185872 -0.06611597 0.0793967 0.05597296
000060 62 23 4d bd d6 34 b5 3d 7f 7f c4 3c 8e 53 65 3d
       -0.05008257 0.08847968 0.023986576 0.055987887
000070 16 9a 70 bd 16 d6 bc bb 6a b6 af 3d 09 ad 05 bd
       -0.058740698 -0.0057628257 0.085797146 -0.032635722
000080 3d 88 8d bd 2d 93 b0 3d 8f 06 fb 3c 65 13 7b bc
       -0.06910751 0.086218216 0.030642776 -0.015324448
000090 7f a5 b7 3d 5a 74 c8 3d 7a 30 66 3c 23 63 f9 bc
       0.08967113 0.09787817 0.014049644 -0.03044278
0000a0 cc b0 c1 3d 93 4c 69 3d 22 cf 56 bd 20 e0 60 3d
       0.094575495 0.056957792 -0.05244363 0.054901242
0000b0 13 b6 ca bd c0 19 96 3d 06 e3 80 bd 4c b6 1f bd
       -0.09898009 0.0732913 -0.06293301 -0.03899221
0000c0 3c 57 af bd aa c7 57 bd fb 80 a2 bd 67 10 cd 3c
       -0.085615605 -0.05268065 -0.07934757 0.025032235
0000d0 1a 67 6d bd 98 e5 31 3c b0 14 0e bd 45 fa 65 bd
       -0.057959653 0.010857962 -0.034687698 -0.05614688
0000e0 69 e8 f4 bc 29 89 8f bc 91 d4 c5 bd 07 77 a3 3d
       -0.029895978 -0.017521458 -0.096596844 0.07981687
0000f0 64 5c be bc 97 72 4a 3d 1e 5e 29 3d 1c 86 3a 3d
       -0.023237415 0.049425688 0.041349523 0.045538053
000100 60 79 a2 3d 7e 99 05 3d c3 0d 73 3d 3c 29 4a 3d
       0.07933307 0.032617085 0.059339296 0.04935573
000110 54 97 90 3d 9c e7 b3 bc 42 d8 1a 3d 5a 17 82 bd
       0.070601135 -0.021961026 0.037803896 -0.0635211
000120 3c 66 db 3c a5 92 cb 3d 52 ac a2 bb 0c b6 c3 bc
       0.026782148 0.099400796 -0.00496439 -0.023890518
000130 e8 56 90 bc 18 a4 94 3d 02 91 48 3d bb 9d 84 bd
       -0.017619565 0.07257861 0.048966415 -0.06475397
000140 f9 23 a4 bd 45 08 97 3d 31 5f a9 bb 8d 3a 05 3d
       -0.08014674 0.07374624 -0.0051688184 0.03252654
000150 8a b7 59 bd aa 16 93 bd 37 1e 8d bd d2 2c 9d 3d
       -0.053153552 -0.07182057 -0.06890529 0.076745644
000160 d4 59 d1 bc 59 53 b6 bb d4 f0 ac bd e2 a6 84 bd
       -0.025555529 -0.005564135 -0.08444372 -0.06477143
000170 5a 13 69 bd 85 5e 7d bb 7c 56 81 bc 1b fa 90 bc
       -0.05690322 -0.0038661074 -0.01578831 -0.017697385
000180 87 b2 68 3c fe d4 7c 3d 6a 87 2a 3d b3 04 c5 bd
       0.0142027205 0.061726563 0.041633047 -0.09620037
000190 5c ed 29 bd f3 62 3d 3d ce 11 35 3d 90 0d 9b 3d
       -0.04148613 0.046236943 0.044206433 0.07570946
0001a0 2e d0 45 bd 64 34 d0 3c a5 72 21 3c 7b 77 fe bc
       -0.04829424 0.025415607 0.009853994 -0.031062832
0001b0 c4 50 a7 3c 2c 79 b5 3d 9e 38 98 3c 77 50 b2 3b
       0.020424254 0.08861002 0.018581685 0.005441721
0001c0 c8 9c d0 bc 9b 4b 32 bd a5 ba 8c bc 81 51 48 3d
       -0.025465384 -0.043529134 -0.017178843 0.048905853
0001d0 75 07 8b bd 2d 45 96 3d 27 e1 d7 bc f8 79 98 bc
       -0.06788532 0.07337413 -0.026352478 -0.018612847
0001e0 d4 c4 c2 3c 78 da 30 3c c3 f0 2d bd 1d c8 59 bd
       0.023775496 0.0107942745 -0.042465936 -0.05316936
0001f0 5b 95 1e 3d 1e 04 56 bc 06 bc c4 3c 3d 82 26 3d
       0.038716655 -0.013062505 0.024015438 0.04065155
000200 fd 75 7b 3d 84 e2 8f bd 2f 8a 14 bd 43 15 b9 bb
       0.06139182 -0.07025626 -0.036264595 -0.0056482865
000210 1a c6 f3 3c 18 e7 c3 3c 1d b5 b1 3d 35 d8 9a 3d
       0.029757548 0.023913905 0.08677123 0.075607695
000220 53 62 c5 bd 4b 22 ca bd 55 f6 fb 3c 85 3f 69 3d
       -0.096378945 -0.09869822 0.030757109 0.056945343
000230 34 0f 38 bd db 9a a4 3d ff c8 9c bd 66 10 3a 3b
       -0.044936374 0.08037349 -0.076555245 0.0028391122
000240 30 48 59 bd ef 1e 3d 3d d2 c8 8f 3d 51 a5 94 ba
       -0.05304736 0.04617208 0.07020725 -0.0011340772
000250 9a 27 b2 bb 4d b9 38 3d ce d3 a4 3d fc 70 9b bd
       -0.00543685 0.04509859 0.08048211 -0.075899094
000260 47 ce ae 3d b0 6e af 3d 4e f8 9a bd 2f e6 8a 3c
       0.08535438 0.08566034 -0.075668916 0.016955463
000270 07 1b c3 bd 28 f6 b6 3b ac 65 3e bd eb e0 c5 3d
       -0.095266394 0.0055835433 -0.04648368 0.0966204
000280 58 fd 6a bd 06 4b b4 3c 73 0a 08 bd be 89 9a bd
       -0.057370514 0.02200843 -0.03321309 -0.075458035
000290 e5 93 a7 3d 7b f1 a9 bd be 8d 5c 3d 7d 8d d0 3a
       0.081825055 -0.08298012 0.053846113 0.0015911307
0002a0 e7 75 41 bd 5e 58 d0 3a c5 31 07 bc 3e e1 9f 3c
       -0.04723158 0.0015895476 -0.008251612 0.019516584
0002b0 0a 02 cc bd 5d ac 22 3d 16 1c b3 bd 4a 02 6b 3d
       -0.099613264 0.03971516 -0.08745591 0.05737523
0002c0 a3 de 9a 3d 42 44 92 3d d6 d2 25 bd e7 c9 ac bd
       0.07561996 0.071419254 -0.040484272 -0.08436947
0002d0 f1 08 77 bc c4 19 cc 3c 05 dd 90 bd 96 f4 ac 3d
       -0.015077815 0.02491463 -0.07073406 0.084450886
0002e0 ac 4f a2 3b 46 87 af bd 6a 2a bd bd cf fb 86 3d
       0.0049533453 -0.08570723 -0.092366055 0.065909974
0002f0 cf 00 b3 bd dd ed 50 3d 1e 88 57 3d d2 9f b9 ba
       -0.087403886 0.051008094 0.052620046 -0.001416201
000300 74 1b 6a bd 18 43 9b 3d b9 7a 0d 3d d1 ad f2 38
       -0.057155088 0.075811565 0.034540866 0.00011571835
000310 4e 42 17 3c 38 93 be 3c 6c 54 52 3d be 2f 60 bd
       0.009232117 0.023263559 0.051350042 -0.05473303

gnn_node.convs.0.mlp.1.weight f4 [200]
000000 d9 41 6c 3f b0 03 82 3f 84 e3 6f 3f 0d ee 83 3f
       0.92287976 1.0157375 0.93706536 1.0307022
000010 5c ca 67 3f 57 f5 73 3f ae 47 8d 3f f1 cc 7a 3f
       0.9054315 0.95296234 1.10375 0.97968966
000020 d1 c7 83 3f a8 c4 79 3f b2 26 7b 3f 95 14 70 3f
       1.0295354 0.975657 0.9810592 0.93781406
000030 9d 90 61 3f b8 81 84 3f 8f c6 8e 3f b1 3b 6e 3f
       0.8811129 1.0352087 1.1154345 0.9305983
000040 f5 c8 5e 3f de 35 63 3f fd f1 68 3f 99 d8 65 3f
       0.87025386 0.8875407 0.90994245 0.89783627
000050 6a d2 82 3f e4 80 66 3f 85 ed 7d 3f 31 fe 85 3f
       1.0220463 0.9004042 0.9919055 1.0468198
000060 36 d2 80 3f 02 52 8b 3f a2 9e 77 3f 4f 0f 5d 3f
       1.0064151 1.0884402 0.9672643 0.86351484
000070 df 5c 6c 3f 55 27 72 3f df bf 7b 3f 0a 39 8b 3f
       0.9232921 0.94591266 0.9833965 1.0876782
000080 5c 78 82 3f 30 f2 7f 3f 3d 83 81 3f ea fd 74 3f
       1.0192981 0.99978924 1.0118176 0.9569994
000090 63 5a 81 3f 38 5c 80 3f 48 43 70 3f a2 61 93 3f
       1.0105709 1.0028143 0.93852663 1.151417
0000a0 2d ef 67 3f 41 a3 65 3f 74 54 80 3f 0e 6b 70 3f
       0.9059933 0.8970223 1.0025773 0.9391335
0000b0 9e 07 5c 3f 11 fe 76 3f 5d c8 77 3f c9 30 82 3f
       0.8594912 0.96481425 0.96790105 1.0171138
0000c0 a8 7b 76 3f ab 1a 74 3f 4a fe 69 3f 12 7a 81 3f
       0.96282434 0.9535319 0.9140364 1.0115378
0000d0 c9 7d 73 3f b0 a2 8b 3f e0 a3 7d 3f 8f 1b 7b 3f
       0.9511381 1.0909023 0.9907818 0.98088926
0000e0 22 ba 7b 3f 74 6f 77 3f ce 6e 7e 3f 57 42 80 3f
       0.9833089 0.9665444 0.99387825 1.0020245
0000f0 06 64 5d 3f 49 68 7a 3f 6e c8 81 3f 89 aa 82 3f
       0.8648075 0.97815377 1.0139291 1.0208293
000100 4d cd 6c 3f 5a 6d 6f 3f 25 7e 76 3f 3f 94 71 3f
       0.92500764 0.9352623 0.9628623 0.9436683
000110 cf 0a 80 3f b3 ca 7a 3f f7 2c 6a 3f 96 16 7a 3f
       1.0003299 0.97965544 0.9147486 0.97690713
000120 9d c6 76 3f dd 93 5a 3f 65 37 6e 3f ef 01 68 3f
       0.9639681 0.8538187 0.93053275 0.9062795
000130 aa 6b 66 3f 5e 2f 7a 3f a7 a9 70 3f 11 d3 87 3f
       0.9000803 0.97728527 0.9400887 1.0611287
000140 c8 61 80 3f 08 8b 87 3f 97 7f 8d 3f 6b 2d 78 3f
       1.002984 1.0589304 1.1054562 0.969443
000150 be f2 81 3f 61 12 82 3f 13 2b 8b 3f 38 e7 83 3f
       1.0152204 1.0161859 1.087252 1.0304937
000160 65 e2 7a 3f d1 9b 75 3f a9 9c 80 3f 5c 98 79 3f
       0.980017 0.9594088 1.0047809 0.97498107
000170 bc 8e 6b 3f f0 f0 62 3f 07 90 7c 3f 81 d4 6b 3f
       0.9201467 0.8864889 0.9865727 0.9212113
000180 1d f5 76 3f 62 9f 76 3f 7f cb 7f 3f 75 0d 83 3f
       0.96467763 0.9633695 0.99919885 1.0238482
000190 6d 23 69 3f 32 8a 88 3f c4 56 6d 3f 1d b9 7e 3f
       0.9106968 1.0667174 0.9271052 0.9950121
0001a0 f7 89 67 3f e3 b9 8f 3f d6 5c 6b 3f d3 16 68 3f
       0.9044489 1.1228603 0.9193853 0.90659827
0001b0 73 5e 8c 3f 6c 97 7d 3f 5f b2 85 3f 09 a7 85 3f
       1.0966324 0.99059176 1.044506 1.04416
0001c0 23 85 7e 3f fa db 6d 3f 92 60 79 3f 05 d8 7f 3f
       0.994219 0.9291378 0.9741298 0.99938995
0001d0 90 66 80 3f cd 7d 83 3f 37 b4 7d 3f 60 84 71 3f
       1.00313 1.0272766 0.9910311 0.94342613
0001e0 84 d7 6b 3f 5b dc 73 3f a6 f4 6e 3f 9d 83 87 3f
       0.92125726 0.9525811 0.93342054 1.058704
0001f0 5f c4 7e 3f 8d cf 73 3f ff fb 79 3f f8 2a 78 3f
       0.9951839 0.9523857 0.9765014 0.96940565
000200 af 14 88 3f ca b6 72 3f 55 48 6d 3f 21 77 63 3f
       1.0631312 0.94810164 0.92688495 0.8885365
000210 41 71 89 3f 4f 97 73 3f be cb 79 3f e3 ed 68 3f
       1.0737687 0.95152754 0.9757651 0.90987986
000220 c9 c0 7e 3f 1f 2b 60 3f e9 a0 81 3f 79 c8 60 3f
       0.99512917 0.875658 1.0127231 0.87805897
000230 19 d1 88 3f 2d 72 88 3f 8b 31 74 3f ac dc 6a 3f
       1.0688812 1.0659844 0.95388097 0.9174297
000240 d9 4a 70 3f c3 24 65 3f 42 33 68 3f e6 27 74 3f
       0.9386421 0.8950922 0.90703213 0.9537338
000250 d0 4f 85 3f 2c 5c 75 3f a8 0e 6a 3f c2 7e 8a 3f
       1.0414982 0.9584377 0.91428614 1.0819933
000260 cc 57 70 3f 3a 46 77 3f 15 a2 88 3f e5 69 72 3f
       0.9388397 0.9659153 1.0674464 0.9469283
000270 dd 23 6c 3f 1e 76 59 3f 3b 6a 96 3f a9 9a 85 3f
       0.92242223 0.8494586 1.1751169 1.0437824
000280 8d cb 81 3f 03 fe 7f 3f bb b5 70 3f 6f 3f 86 3f
       1.0140244 0.99996966 0.940273 1.0488108
000290 88 69 88 3f 98 72 88 3f 14 89 7b 3f 3e 9e 71 3f
       1.0657206 1.0659971 0.9825604 0.94382083
0002a0 94 a2 60 3f 44 f6 84 3f c0 a8 72 3f d5 10 62 3f
       0.87748075 1.0387654 0.9478874 0.88306934
0002b0 22 88 82 3f 76 d1 75 3f e6 74 7f 3f 0e 90 81 3f
       1.0197794 0.9602274 0.9978775 1.0122087
0002c0 e6 cc 79 3f 40 c0 7c 3f 6a 5f 79 3f 03 07 7b 3f
       0.97578275 0.9873085 0.97411215 0.98057574
0002d0 75 1c 83 3f 19 2e 69 3f 31 05 7c 3f 21 3a 7f 3f
       1.0243059 0.91085964 0.9844542 0.9969807
0002e0 27 17 7d 3f 6f 7c 82 3f 20 73 73 3f fd c4 76 3f
       0.9886345 1.0194224 0.9509754 0.9639433
0002f0 8f 6e 74 3f d7 ff 88 3f fb 26 86 3f af f8 9b 3f
       0.954812 1.0703076 1.0480646 1.2185267
000300 ee 3c 84 3f ba 95 7d 3f a5 87 99 3f 56 ee 81 3f
       1.0331094 0.9905659 1.199452 1.0150859
000310 87 6e 7a 3f fb 58 6a 3f a1 a6 74 3f 5f fb 6e 3f
       0.978249 0.91542023 0.95566756 0.9335231

gnn_node.convs.0.mlp.1.bias f4 [200]
000000 1a c5 87 bd ee bb a9 3d 29 e4 ea 3d 69 c1 a6 3d
       -0.06629391 0.08287798 0.11469299 0.08142359
000010 99 fd 17 bd c6 71 8a 3c f9 2e 3c 3e e6 db 3d b6
       -0.037107084 0.016899955 0.18377294 -2.8291192e-06
000020 d8 2b 9c 3d 2a f8 da 3d 8c 71 2c bd bd b2 01 bd
       0.0762555 0.10691865 -0.042100474 -0.0316646
000030 8f a7 3e 3d 68 cb f1 3d 90 0b d0 3d 74 8c 17 bd
       0.046546515 0.11806375 0.10158455 -0.03699918
000040 35 d2 62 3d 7d 94 36 3c 39 97 14 3a 81 a3 c2 ba
       0.05537625 0.011143801 0.0005668286 -0.0014849753
000050 62 92 fa 3d ed f5 25 bc 70 0b eb 3b 68 a3 05 3e
       0.122349516 -0.010129434 0.0071729943 0.13050616
000060 1b d2 be 3d d1 3b 4d 3e 45 3b de 3c c5 99 7d bd
       0.09317418 0.2004235 0.027127871 -0.061914224
000070 83 d5 62 bd 25 5b 90 bc 2a 23 70 3d 36 9e 16 3e
       -0.055379402 -0.017621586 0.058627285 0.1470879
000080 4e 70 bb 3d 2d cc 70 bd 64 c7 a6 bd 05 99 bf 3d
       0.0915228 -0.058788467 -0.081434995 0.09355358
000090 98 80 04 3d c6 67 9e bc ab fe b2 bc ba aa 1f 3e
       0.0323492 -0.019336592 -0.02184995 0.15592471
0000a0 53 7d 88 3c 96 ea 8e bd 9c 21 b8 3d bb dd ef bd
       0.016661322 -0.069783375 0.089907855 -0.117122136
0000b0 f8 5f fe bc 8c d9 81 3c 31 f0 c2 3d b4 a3 85 3c
       -0.03105162 0.015850805 0.09518469 0.016313411
0000c0 95 46 c8 bd b9 5d 49 bc ce ef 2e 3d 98 0d ea 3d
       -0.097790875 -0.012290412 0.042709164 0.11428374
0000d0 17 07 61 3d 85 db ff 3d 63 27 88 3d b5 9f d5 3b
       0.054938402 0.12493042 0.066481374 0.0065192827
0000e0 cc 84 b4 3c ab 2f 52 bd 0a dc 38 bc 2d 79 ae 3d
       0.022035979 -0.05131499 -0.01128293 0.08519206
0000f0 dd af ab 3d 3e a2 02 3d 3b bd c0 3d 03 67 37 3d
       0.08383153 0.031893007 0.09411093 0.044775974
000100 7c 66 fb 3b 5b 52 66 bd 71 2a aa bd 39 35 48 bd
       0.007672129 -0.056230884 -0.08308876 -0.048878882
000110 6a 23 75 3c 29 e6 4e bd f5 a4 3e bc 13 78 a1 bc
       0.014962057 -0.050512467 -0.0116360085 -0.019710576
000120 65 93 e6 ba 73 4c 8b bd c7 e4 e2 3c fa 43 49 bc
       -0.0017591534 -0.06801691 0.02769698 -0.012284273
000130 df ee 7b bb 66 0f 16 3d f5 02 b4 bc be a3 22 3e
       -0.0038441939 0.03663578 -0.021974066 0.15882775
000140 ab dd 9c 3d 11 6b 73 3d d6 88 f7 3d cf f6 c8 ba
       0.07659467 0.05942828 0.12086646 -0.0015332344
000150 6b 00 b5 3d dc 29 0e bd f1 63 f8 3d 7b 36 07 3e
       0.0883797 -0.03470789 0.12128437 0.13204376
000160 20 f1 c1 3d 64 c3 07 b9 6d 74 16 3c 4e d1 01 3d
       0.09469819 -0.00012947392 0.0091830315 0.03169375
000170 2f ce bf bc b8 ee 3e bc 23 f0 81 3d 91 6e 17 3d
       -0.023413746 -0.011653595 0.063446306 0.03697068
000180 68 6e 27 3d d1 d1 f1 3b 10 a1 13 3d f1 c6 c6 3d
       0.040876776 0.0073797484 0.036042273 0.09705914
000190 9d 20 f5 bd 2d 6f 95 3d e2 53 cc 3d 06 d6 d1 bd
       -0.11969111 0.07296596 0.09976937 -0.102459
0001a0 31 2f 94 3d cd 0e 91 3d dd 4b d0 3b fe b0 cb 3c
       0.072355635 0.07082901 0.0063567 0.02486467
0001b0 6e 06 a4 3d af bf 99 bd ef a7 f1 3d 22 7a af 3d
       0.08009039 -0.07507264 0.11799609 0.08568217
0001c0 26 c3 02 3d 0a c0 b8 39 47 ad a6 3d ca a7 f8 bc
       0.03192439 0.00035238295 0.08138519 -0.030353446
0001d0 f4 42 b6 3d 28 43 07 bd e2 8a 15 3d dd 99 6f bc
       0.08899489 -0.03302303 0.036509402 -0.014624086
0001e0 55 c9 e4 3d b7 8d 38 3c 74 fb 7a bd 3c 93 bf 3d
       0.111712135 0.011264256 -0.06127496 0.093542546
0001f0 22 63 ce 3c 2f f9 f4 3a 8f c0 a3 bd ba b4 82 3c
       0.025193755 0.0018689985 -0.07995712 0.015955318
000200 ea 6b bb 3d 6f 50 11 3d f9 f8 88 3d a7 8d da bc
       0.09151442 0.035477098 0.06688113 -0.026678873
000210 32 68 e9 3d 41 14 cb bc b8 ed 45 bd 38 5d 6b bd
       0.11396827 -0.024789931 -0.04832241 -0.057461947
000220 6c cc e3 3d ce da 9d bd 92 ea 29 bd 3e 08 bd 3c
       0.11122975 -0.07707749 -0.04148347 0.02307522
000230 2f ee 9a 3d d7 c5 cf 3d 38 6d 1a bd 12 86 e6 bc
       0.07564961 0.10145157 -0.037701815 -0.028140102
000240 51 73 6f 3d 88 69 17 3d 9a 16 ab 3d b9 c7 84 3d
       0.058459584 0.036965877 0.0835392 0.064834066
000250 64 18 c0 3d ae 48 01 3d a1 27 30 bd 7f c0 99 3d
       0.09379652 0.031563453 -0.043006543 0.07507419
000260 35 c7 70 3d b1 ff 18 3c d0 a4 78 3d 67 c0 c6 bd
       0.05878373 0.009338305 0.060704052 -0.097046666
000270 56 9f b7 bd 42 81 96 bc 03 9e 9d 3e 40 cf fb bc
       -0.08965938 -0.018372182 0.30784616 -0.030738473
000280 22 d2 4f 3d 3e 2d dc 3d 7e ec f2 bc 76 ba 03 3e
       0.050737508 0.10750817 -0.029653784 0.12864098
000290 76 d0 8d 3c 56 ba 9b 3d 06 01 8f 3d 47 74 f6 bc
       0.017311316 0.076039 0.06982617 -0.030084742
0002a0 aa de 23 bc 0a 55 f0 3d 2e 08 be 3d 97 7a e1 bc
       -0.010001818 0.1173497 0.09278904 -0.027524276
0002b0 e5 85 32 3d 3c 18 e1 3c 45 df 6c 3d 52 7e 20 bd
       0.043584723 0.027477376 0.057830114 -0.03918297
0002c0 87 0e a3 bd 17 b3 e2 3b 6f 6a d3 3d 24 a8 a5 3d
       -0.07961755 0.006918322 0.10323035 0.08088711
0002d0 66 eb 03 bd 38 73 a2 3d 2b 2e 8d 3c 80 a1 73 3d
       -0.032206915 0.079321325 0.017233929 0.05948019
0002e0 4f d2 e4 3d f2 0f 82 3d e4 2d 66 3c 69 8b 3e bd
       0.11172926 0.063506976 0.014049027 -0.04651967
0002f0 73 b6 cc bc b8 3b 94 3c 9c a0 b8 3d fc 94 b3 3d
       -0.024989342 0.018094882 0.09015009 0.08768651
000300 68 44 1d 3d 72 95 99 3d 4b a4 4c 3e 50 9f 1a 3d
       0.038395315 0.074992076 0.19984548 0.03774959
000310 3a 93 83 3d 90 c0 77 3d 3a 8c 9a 3d 96 88 8e 3d
       0.064245656 0.060486376 0.07546277 0.069596455

gnn_node.convs.0.mlp.1.running_mean f4 [200]
000000 20 67 c6 c1 ca 10 09 41 02 de 0b 41 e5 77 6d c1
       -24.800354 8.566599 8.741701 -14.841771
000010 04 cc 49 41 f5 9f a0 c1 5c 9a 9a c1 e1 11 74 41
       12.6123085 -20.078104 -19.32537 15.254365
000020 5e 05 5f c1 48 4c 35 40 90 12 c7 c0 42 80 9c c1
       -13.93881 2.8327808 -6.221016 -19.562626
000030 83 d8 52 41 50 ce a9 41 71 bf c9 41 d8 35 03 c2
       13.177859 21.225739 25.218477 -32.80258
000040 a1 f5 7b 41 92 15 50 41 7a c8 93 c0 28 47 ef c1
       15.747468 13.005266 -4.618222 -29.909744
000050 51 f2 59 c1 0b dd 5e c1 55 03 ae 41 01 8e b7 41
       -13.621659 -13.928966 21.751627 22.944338
000060 15 e4 8c c0 ae 4b e5 40 0b 40 9d c1 6d ea 2d 42
       -4.402842 7.1654882 -19.656271 43.47893
000070 17 09 09 c2 ea e4 72 41 5f e8 13 c1 27 aa d4 c1
       -34.258877 15.180887 -9.244231 -26.583082
000080 ab 65 af 41 bd 37 30 c1 d2 b4 37 c1 f8 35 9b 41
       21.924643 -11.013608 -11.481646 19.401352
000090 f7 54 af 41 a6 f4 58 41 36 46 19 41 e9 7e 62 41
       21.916487 13.559729 9.579641 14.155984
0000a0 a2 22 06 41 6d 0f 01 c2 44 b9 11 c1 80 ff fe c0
       8.383455 -32.265064 -9.107731 -7.968689
0000b0 93 9e 12 c2 f5 cc 0a c1 05 d7 87 c1 38 d9 93 41
       -36.654858 -8.675038 -16.97999 18.481064
0000c0 25 b5 7e c1 e3 4f d2 c1 ce 4a d3 c1 e5 82 a7 41
       -15.919225 -26.289007 -26.411526 20.938913
0000d0 45 4d b5 c0 79 fc 9d c0 65 2f ed c1 ee 1c aa 41
       -5.6656823 -4.9370694 -29.648142 21.264126
0000e0 f9 47 d9 c0 bf 1c 35 41 64 b3 3d c1 83 89 13 c1
       -6.7900357 11.319518 -11.856297 -9.221072
0000f0 8b 0c b6 41 fa 8e 9a c1 74 df 09 c2 4f f7 e0 41
       22.756124 -19.319813 -34.468216 28.120756
000100 58 2e f7 3e 26 32 36 c1 73 52 42 c1 17 8c bf c0
       0.48277545 -11.387243 -12.145129 -5.985851
000110 12 07 55 41 d3 d5 0b 42 f0 1a 77 41 3d 06 8e 41
       13.314226 34.958813 15.444077 17.753046
000120 15 82 ac c1 f9 9b f9 41 35 de 3a 41 1c 81 db 41
       -21.563517 31.201159 11.67925 27.438042
000130 cd 18 c6 40 1a 07 86 c0 cc 9c 1b c2 1d 9d a3 c0
       6.1905274 -4.188367 -38.903122 -5.112929
000140 01 2a 80 c1 25 b7 1b 41 4d a4 82 40 3f b1 9d 41
       -16.02051 9.732213 4.0825562 19.711546
000150 d3 b8 c9 c1 8f 5a c0 41 e3 14 dc 41 10 56 d9 41
       -25.215246 24.044218 27.510199 27.167023
000160 3e 40 50 40 9b dd 09 c1 9b 04 b5 c1 2d 20 78 c1
       3.253921 -8.616603 -22.627249 -15.507855
000170 85 5a a5 c0 20 3d ae 41 d9 2c d3 c1 06 43 63 41
       -5.1672997 21.779846 -26.396898 14.203863
000180 c4 26 d8 41 5a 2c b0 c1 91 cc 9e 41 0e 8d 72 41
       27.018929 -22.021656 19.849886 15.159437
000190 ce 6b fd c0 4f f2 04 c2 49 cc f3 41 a0 9a 2d c1
       -7.9194098 -33.23663 30.474749 -10.85025
0001a0 e1 b1 ec 40 9d 90 b5 c1 bb 79 11 41 9d 4a 14 41
       7.3967137 -22.695612 9.092219 9.268216
0001b0 f9 5e 16 c1 91 d3 99 c0 ea 6f 36 c1 d1 4a 25 c1
       -9.398187 -4.807076 -11.402323 -10.330766
0001c0 93 ad 9f 41 be bc a7 c1 23 25 a9 c1 92 a7 16 c1
       19.959753 -20.96716 -21.143133 -9.415911
0001d0 dc a9 f1 c1 05 36 20 c1 5d 14 44 c0 1d 28 94 41
       -30.20794 -10.013188 -3.0637429 18.519587
0001e0 99 d6 5e 41 67 7c 57 41 cf e7 3a 41 3f 0e 8c c1
       13.927392 13.467872 11.681594 -17.506956
0001f0 56 87 e1 c0 90 45 ad c1 d8 9e 87 c1 14 00 a5 c1
       -7.0477705 -21.658966 -16.95256 -20.625038
000200 7e 31 92 41 b7 ee 03 c2 09 55 74 41 90 a7 1b 41
       18.274166 -32.98312 15.270761 9.728409
000210 78 20 8a c1 07 67 7f c1 d6 8a fb c0 f8 a9 31 c1
       -17.265854 -15.962653 -7.8606977 -11.103996
000220 e9 f4 ac 40 0f eb 15 42 75 d7 eb 41 ce 9a a4 c1
       5.4048963 37.47955 29.480204 -20.575588
000230 39 9a be 41 29 a4 02 42 51 9f 25 c1 3d 06 5e 41
       23.825304 32.660313 -10.351396 13.876523
000240 57 97 90 c1 6a c5 ac 41 ad 95 15 41 4d ac a5 41
       -18.073896 21.596394 9.349042 20.709131
000250 a9 eb c4 41 79 bd a5 c1 08 31 af 41 22 59 50 40
       24.615068 -20.717516 21.898941 3.2554402
000260 26 8f cd 41 9b 10 e7 41 af 8d 16 c1 66 af 2f 41
       25.694897 28.883108 -9.409591 10.980322
000270 ce b1 58 41 2b b5 d5 41 83 d0 7d 41 71 64 07 c2
       13.543409 26.71346 15.863406 -33.848087
000280 3e 91 61 41 16 ef 09 bf e9 7b 64 c1 49 2d 47 c1
       14.0979595 -0.5388044 -14.2802515 -12.448556
000290 bc 57 10 c1 fd d9 81 c1 4d 61 ba c1 2a 2e 50 c1
       -9.02142 -16.23144 -23.29751 -13.0112705
0002a0 51 74 9a 41 04 da 32 41 9a 9a be 41 15 c5 be 41
       19.306795 11.178226 23.825489 23.846231
0002b0 dc ed d1 c0 b7 59 90 c0 12 b4 5e 40 6f fc 06 41
       -6.5602856 -4.5109515 3.4797406 8.436629
0002c0 07 66 22 c1 d6 d7 02 c2 84 91 c3 c1 7f 66 57 c1
       -10.149909 -32.710777 -24.446053 -13.462523
0002d0 af 9c da 41 b9 d3 ac c1 38 de 2e 41 6e 71 b9 c0
       27.326506 -21.60338 10.929253 -5.7950964
0002e0 1a 9c 6f 41 6d 50 00 c1 27 0c ad c1 a2 38 be c1
       14.975611 -8.019635 -21.630934 -23.777653
0002f0 63 8e d8 c0 f8 5a 05 c2 a5 59 fd 41 8b b4 df 40
       -6.767381 -33.338837 31.668772 6.990789
000300 0e d9 fe c1 5c 3a 84 c1 51 e7 eb c0 ca f2 98 c1
       -31.855984 -16.528496 -7.371987 -19.11855
000310 61 3c d0 40 f6 35 7f 41 15 69 c9 40 f2 20 a6 c1
       6.5073705 15.950674 6.2940774 -20.766087

gnn_node.convs.0.mlp.1.running_var f4 [200]
000000 d1 11 2f 44 73 61 ee 42 2f 3e dd 42 66 87 8b 43
       700.2784 119.19033 110.62145 279.0578
000010 92 56 0c 43 72 ac ea 43 d1 5d db 43 5f 3f 99 43
       140.33817 469.34723 438.73294 306.4951
000020 99 10 57 43 ef b0 c1 41 47 4d 99 42 fd 05 f2 43
       215.06483 24.211393 76.65093 484.04678
000030 7d d4 3b 43 d2 dd 11 44 83 6f 34 44 96 59 a9 44
       187.83003 583.46594 721.7424 1354.7996
000040 50 1d 96 43 c4 0c 2e 43 a1 85 3e 42 48 02 82 44
       300.229 174.04987 47.630497 1040.0713
000050 61 0d 3b 43 4e f2 70 43 8b fe 02 44 9b 5b 16 44
       187.05226 240.9465 523.97723 601.43134
000060 ee 2c ee 41 64 35 46 42 ca 1e da 43 66 72 05 45
       29.771938 49.55214 436.24054 2135.15
000070 52 a2 b4 44 88 ef 86 43 75 51 9d 42 1b 9c 5b 44
       1445.0725 269.87134 78.659096 878.43915
000080 39 07 05 44 8d ee 0f 43 1f 8d 14 43 9b 98 ef 43
       532.11285 143.93184 148.55125 479.19223
000090 42 45 01 44 35 4d 81 43 64 f7 8f 42 a7 c7 92 43
       517.08215 258.60318 71.983185 293.55978
0000a0 60 b2 f3 42 34 75 9e 44 0d bb bd 42 ad 4d 84 42
       121.84839 1267.6626 94.86533 66.15171
0000b0 82 8c ce 44 8d 17 d1 42 5d e6 a3 43 c2 d4 bf 43
       1652.3909 104.546 327.7997 383.66217
0000c0 26 7d 93 43 12 b7 4f 44 a3 74 4e 44 ae a8 01 44
       294.97772 830.8605 825.82245 518.6356
0000d0 12 25 41 42 9c 9e a8 41 e8 a2 85 44 fd cc 03 44
       48.2862 21.077446 1069.0908 527.20294
0000e0 9d bf a3 42 12 7d e6 42 6b e7 fe 42 69 2f 00 43
       81.874245 115.24428 127.45199 128.1852
0000f0 58 c5 1f 44 50 59 c5 43 79 5f a3 44 20 e2 4e 44
       639.0835 394.69775 1306.9835 827.5332
000100 1a 45 26 41 94 83 40 43 2c 6c 51 43 01 60 57 42
       10.3918705 192.51398 209.42255 53.843754
000110 ca 41 41 43 ae 7f bc 44 c7 2e 87 43 e9 18 b8 43
       193.25699 1507.99 270.36545 368.1946
000120 17 f5 00 44 bf 7c 8a 44 ec 62 32 43 f9 c7 48 44
       515.8295 1107.8983 178.38641 803.1246
000130 7f 63 88 42 22 a8 20 42 cc df ed 44 38 47 0e 42
       68.19433 40.164192 1902.9937 35.56955
000140 2e 90 85 43 ae 82 a9 42 a2 e7 b4 41 e7 72 f8 43
       267.1264 84.75523 22.613102 496.89767
000150 90 8a 4b 44 8f 5c 35 44 a9 4b 53 44 a3 6b 56 44
       814.16504 725.4462 845.1822 857.6818
000160 c9 5e 8c 41 d8 17 de 42 85 81 2a 44 43 cc 90 43
       17.546282 111.04657 682.02374 289.5958
000170 4e ae ee 41 6e 8a 13 44 ae 1e 44 44 29 87 6b 43
       29.83511 590.16296 784.4794 235.52797
000180 08 96 6f 44 a9 08 14 44 97 5c fa 43 17 2f 80 43
       958.34424 592.1353 500.72336 256.3679
000190 15 02 9a 42 e0 fd 98 44 94 f5 91 44 7d c5 dc 42
       77.00407 1223.9336 1167.6743 110.38572
0001a0 02 f1 9f 42 dc 1b 12 44 17 3b e5 42 4d 25 c9 42
       79.97072 584.4353 114.61541 100.57285
0001b0 ae 70 ba 42 90 66 03 42 9d d3 28 43 ad 80 24 43
       93.22008 32.85016 168.82661 164.50264
0001c0 e4 3c e0 43 35 e7 d8 43 91 fd 04 44 95 35 dd 42
       448.4757 433.8063 531.962 110.60465
0001d0 e0 3b 83 44 22 50 b3 42 80 19 9b 41 6e 16 c3 43
       1049.8711 89.65651 19.387451 390.17523
0001e0 d7 7e 72 43 04 6b 44 43 9c ed 17 43 72 e4 d0 43
       242.49547 196.41803 151.92816 417.78473
0001f0 e6 3f b3 42 10 e0 fd 43 01 90 9c 43 fc 14 e0 43
       89.6248 507.7505 313.12503 448.16394
000200 49 48 c3 43 07 c1 a9 44 dc df 96 43 89 1a e5 42
       390.56473 1358.0321 301.7489 114.55183
000210 35 12 b7 43 1d 30 a5 43 31 6e 85 42 5b 87 31 43
       366.14224 330.3759 66.71522 177.52873
000220 46 36 5d 42 13 7d dd 44 eb 17 81 44 1e 38 ea 43
       55.303 1771.9086 1032.7474 468.43842
000230 83 47 23 44 01 98 a9 44 d7 89 19 43 56 bc 46 43
       653.1174 1356.7501 153.53844 198.73569
000240 5f d5 a8 43 b4 89 07 44 72 d7 dc 42 c4 02 e3 43
       337.66696 542.1516 110.42079 454.0216
000250 1d 19 45 44 7e a7 ee 43 9d 25 0d 44 88 e1 0e 42
       788.3924 477.30853 564.5877 35.720245
000260 29 e4 4e 44 38 99 68 44 9c 99 07 43 3f ee 01 43
       827.565 930.39404 135.60004 129.93065
000270 63 58 60 43 e6 94 3b 44 b1 4f 9f 43 fd 85 9a 44
       224.34526 750.32654 318.6226 1236.1871
000280 70 ec 50 43 2e 2d 99 41 3c 3f 80 43 08 25 41 43
       208.92358 19.14706 256.49402 193.14465
000290 9b ee db 42 67 5d 8c 43 ec 08 21 44 bf 65 54 43
       109.96603 280.7297 644.1394 212.39745
0002a0 47 0e d1 43 e9 50 09 43 2e 91 2d 44 74 2e 23 44
       418.11154 137.31606 694.26843 652.7258
0002b0 66 4c 66 42 17 ab d8 41 56 27 1e 42 f6 98 d6 42
       57.574608 27.08354 39.538414 107.29875
0002c0 06 c6 df 42 d6 a1 94 44 7d 24 22 44 6c 77 9e 43
       111.886765 1189.0574 648.5701 316.93298
0002d0 78 a9 6b 44 2c fd 07 44 b4 d4 f1 42 fa 54 57 42
       942.64795 543.9558 120.915436 53.832985
0002e0 43 8a 6a 43 f6 01 a6 42 63 22 fc 43 e3 9c 29 44
       234.54008 83.00383 504.26865 678.45135
0002f0 05 70 82 42 f5 f2 a7 44 43 90 9d 44 62 66 3c 42
       65.21879 1343.5924 1260.5082 47.099983
000300 ec 90 80 44 87 f9 b5 43 1e fc 2f 42 e8 15 f9 43
       1028.5288 363.94943 43.99621 498.17114
000310 de 44 5a 42 b2 93 8a 43 2a 4f 74 42 cd bc e6 43
       54.567253 277.15387 61.07731 461.475

gnn_node.convs.0.mlp.3.weight f4 [100, 200]
000000 7e 19 a9 bd 0a 63 fe bb 3a c1 03 3b e6 a1 06 bc
       -0.082568154 -0.007763271 0.0020104186 -0.0082173105
000010 1e 7c 13 3d 87 cb fc 38 0e 05 a6 ba 92 8f d9 bd
       0.03600704 0.00012054206 -0.0012666301 -0.10623087
000020 26 50 86 3d 2e 25 b2 3c 68 59 8c b9 40 90 ed bd
       0.06558256 0.021746244 -0.00026769494 -0.11599779
000030 88 43 34 3d 16 f0 93 3d c5 d1 df bd cb 5f 0c 3d
       0.044009715 0.07223527 -0.10928682 0.034271043
000040 b4 84 1d 3d 9f b0 92 3d 4e c9 93 bc 82 a9 48 bc
       0.038456634 0.07162594 -0.018040325 -0.012247445
000050 57 ee 14 3d c3 d7 bd 3c 27 5e 16 bd 0b 08 03 bd
       0.03636011 0.023174172 -0.036710884 -0.031990092
000060 8d 91 42 bd fc 32 71 3c 2d 84 aa bd 85 7f b0 bd
       -0.04750209 0.014721628 -0.08325992 -0.086180724
000070 fd 67 c5 3d 83 ef 8a bd 10 bd 86 3d a7 11 d4 bd
       0.09638975 -0.067839645 0.065790296 -0.103549294
000080 50 fc d9 bc 26 0f 98 bd f8 11 66 bd d8 e9 8f 3b
       -0.02660957 -0.07424764 -0.05616948 0.00439189
000090 28 61 bf bc 9f 36 f6 bd 81 2d 12 3d 05 e0 bd bd
       -0.023361757 -0.12022137 0.035687927 -0.09271244
0000a0 65 1f 6d bc 7c 6f 8d bd 9f 3c a7 bc ad 74 9b bb
       -0.014472817 -0.069060296 -0.020414649 -0.0047441334
0000b0 f1 c6 45 bc 3c f7 db 3a 3f ff 22 bd 22 0f 10 bd
       -0.012071357 0.0016782056 -0.039794203 -0.03517068
0000c0 42 3f a7 bd 7f 32 51 3d 67 78 1e 3c 4f 60 88 bb
       -0.08166362 0.051073547 0.009672261 -0.0041618715
0000d0 e0 fb 84 bd 2f cd c0 3d 85 bf 65 bd f9 4d e3 bd
       -0.06493354 0.09414136 -0.05609085 -0.110988565
0000e0 c1 4d 5a 3d ea a4 97 3d 51 ce 12 3d 15 9e 1e bb
       0.05329681 0.07404502 0.03584129 -0.002420311
0000f0 85 54 02 3d 71 81 75 3d da 36 07 3e 52 6d 63 3b
       0.031818885 0.059937898 0.13204518 0.003470261
000100 da fc 77 bc f3 2d a2 3d b5 0a 1e 3d 56 98 be 3c
       -0.015135968 0.0791892 0.03858443 0.023265999
000110 0a a6 28 bd 6e 55 8a bd 2d c8 37 bd 76 02 b2 3d
       -0.041173972 -0.06754576 -0.044868637 0.08691876
000120 2a df f8 3c a7 6b 9f 3b b7 2d fe bc cd e4 df bc
       0.03037985 0.004865128 -0.031027658 -0.02733078
000130 1a fd ac 3d 87 c7 6b 3d d7 29 55 3d a0 8e 1d bd
       0.08446713 0.05756333 0.052041855 -0.038466096
000140 7c 30 87 3d 56 02 3c bd 16 3f b9 bd e1 ff 58 bd
       0.066010445 -0.045900665 -0.09045236 -0.0529784
000150 01 56 28 3d 61 08 a8 bd 8b b4 25 be 69 2e 5a bb
       0.041097645 -0.08204723 -0.16182153 -0.0033291823
000160 9a 55 81 3d 42 b6 cb bd 18 82 a1 3d cc 15 70 3d
       0.06315155 -0.09946872 0.078861415 0.058614537
000170 83 97 e2 bc 58 d2 45 39 08 c9 0a 3e f3 2e 93 3d
       -0.027660137 0.00018865743 0.1355325 0.07186689
000180 95 b9 ed bd 16 df 12 3d a9 6a ab bd 0e 44 a5 3c
       -0.116076626 0.035857283 -0.08369953 0.020174053
000190 61 f9 e8 bd de f6 ff 3c a2 ae 58 bb 10 ff 25 3b
       -0.1137569 0.031245645 -0.0033063074 0.002532903
0001a0 88 af 23 3d 5a 49 7a bd a7 40 66 bd 50 85 66 3d
       0.03996232 -0.06110511 -0.056214 0.05627948
0001b0 a8 8a 07 bd f4 51 eb 3c 62 a8 94 bd 85 47 75 bd
       -0.033091217 0.028725602 -0.07258679 -0.05988266
0001c0 4a f6 8c bd 96 90 48 3d d9 2c 47 3d 17 5a e9 bc
       -0.068829134 0.048966013 0.048626754 -0.028485341
0001d0 ce ca bc 3d 52 67 30 bd 3c d6 23 bb e7 71 2f 3d
       0.092183694 -0.043067284 -0.002499952 0.042833235
0001e0 07 c8 bf ba 8a de a2 3d ed 59 f8 bc 2e 6f 66 3d
       -0.0014631756 0.07952602 -0.030316317 0.056258373
0001f0 6a 8d 13 3d f2 61 33 bd 42 1c 31 bd bb 29 4c 3d
       0.036023535 -0.04379458 -0.04323984 0.049844485
000200 b9 b4 0d 3d 3d f8 61 bb 40 8b ce 3a ae 28 0e bd
       0.03459618 -0.0034480237 0.0015758052 -0.034706764
000210 b7 5a b5 bc 9d a3 90 bb 84 77 15 3d 95 a3 a5 bc
       -0.022137983 -0.0044140355 0.036490932 -0.020219604
000220 f2 90 8c 3d 8a 59 c5 bd 82 85 14 be 61 fe 43 3c
       0.068635836 -0.09636219 -0.14504054 0.011962504
000230 02 2b fb bd 96 ab 22 3c 5c 5a 1c bd 08 7e 7e bd
       -0.122640625 0.009928605 -0.03817211 -0.06213191
000240 4a 13 08 bd 05 9f 47 3d 96 c8 6e 3c 09 71 ec 3d
       -0.03322152 0.048735637 0.014574191 0.11544997
000250 0a cf 9c bd fe 56 b5 bc f0 d5 aa 3d 08 73 01 bd
       -0.07656677 -0.022136208 0.083415866 -0.031603843
000260 f3 d1 ba 3d ff 65 07 3d 0c 03 ce bd e6 21 a6 bd
       0.09122076 0.033056255 -0.10059175 -0.08111934
000270 f8 e2 6d bd 15 da 6a bd df fb f2 bc e1 28 9a bd
       -0.058077782 -0.057336885 -0.029661117 -0.07527328
000280 8e 6a cd bc 7f 01 0b 3d fe 0d 8b bb 7a 84 e1 bd
       -0.025075223 0.033936974 -0.0042436114 -0.11011596
000290 63 7d ac bd a9 37 f7 bb d2 73 fd 3c cf 50 47 bc
       -0.08422353 -0.007544477 0.030939016 -0.012165262
0002a0 80 cd 27 3d f9 51 34 bd 3f 50 c9 bc 21 21 56 3d
       0.040967464 -0.044023488 -0.024574397 0.052277688
0002b0 e1 18 a8 bb e1 7f 40 bd 74 6b 2e bc a8 57 82 3c
       -0.005129919 -0.046996955 -0.010645736 0.015910938
0002c0 b3 ef 5c bd d3 4f 5a bc c4 1d 64 3d d6 cf c7 bb
       -0.053939532 -0.013324696 0.05569245 -0.006097774
0002d0 f9 59 9f bd b6 03 95 bc 1d cb 7b bd dc 62 0a be
       -0.07780833 -0.018190246 -0.061473 -0.13514274
0002e0 b9 88 94 bd 17 ad 05 be ff 6c 90 3d 9f 65 08 bd
       -0.0725264 -0.1305431 0.07052039 -0.03330004
0002f0 5d dd 66 bd e9 3d 6e 3c da f5 9a 3c 82 e0 3d bc
       -0.056363452 0.014541128 0.01891606 -0.011589171
000300 fb 7a 01 bb 42 73 96 bd c6 fe a9 bd d6 e8 f2 3c
       -0.001975714 -0.073462024 -0.08300547 0.02965204
000310 c6 c2 d6 3c 33 68 e0 3c d5 4f f5 3c 02 3a 38 3d
       0.026215922 0.027393436 0.029945293 0.044977196
000320 66 8b 7f 3b df 61 1f 3d 6f 73 3c bd 62 f1 38 bc
       0.0038993 0.038911697 -0.046008524 -0.011288019
000330 64 a8 38 bd 40 d8 50 3d 69 4c b1 bd 26 35 cc 3b
       -0.045082465 0.050987482 -0.08657152 0.0062319217
000340 40 30 8d 3d d6 df 07 3d 49 33 a6 bc 33 be 93 3c
       0.068939686 0.03317245 -0.020288127 0.01803503
000350 21 72 73 bc 46 d8 88 bd b3 19 0a be 86 f6 18 bd
       -0.014858753 -0.06681876 -0.13486366 -0.037344478
000360 62 91 20 3d 0c 28 96 bc 14 dd 28 bd 6d 0a 3b bb
       0.039201148 -0.018329643 -0.04122646 -0.002854015
000370 4a fa c1 3b 9d e5 4c bd db 04 42 bc 36 d9 51 bd
       0.0059197294 -0.050023664 -0.011841978 -0.05123254
000380 4a 09 d6 bd 8c b9 6c bd e8 f3 7c bc a3 1a 50 bc
       -0.104509905 -0.05779414 -0.015439011 -0.012701663
000390 1c bf 01 bd eb ef fb 3c c7 0e c6 3d d6 21 88 bd
       -0.031676397 0.03075405 0.09670787 -0.06647079
0003a0 8b 21 27 ba 92 e3 49 bd e2 3e e5 3c 47 85 52 3c
       -0.0006375543 -0.049289294 0.027984086 0.012849159
0003b0 ed 05 26 3d 00 1c 08 3d 2b f5 31 bd f6 47 cf 3d
       0.040532995 0.033229828 -0.0434467 0.10121147
0003c0 95 30 65 bc 3e 81 fb bc d5 4d 31 bd 7b 8a b1 3c
       -0.013988634 -0.030701276 -0.043287117 0.021672478
0003d0 d7 9e e5 bb da 3e 72 3b 70 c6 38 3b fc 51 9d bc
       -0.0070074606 0.0036963732 0.002819445 -0.019204132
0003e0 52 20 7e 3c 09 74 8b 3c 79 f2 50 3c a4 37 5b bd
       0.015510635 0.017023103 0.0127531225 -0.05351986
0003f0 e1 a5 cf bd 64 76 5a 3d d7 49 34 3d b5 38 aa bd
       -0.10139061 0.053335562 0.04401573 -0.08311597

gnn_node.convs.0.mlp.3.bias f4 [100]
000000 95 2f 8c 3d b0 63 06 3d 59 1c 9f 3c f9 0f 11 3d
       0.06845013 0.032809913 0.019422697 0.035415623
000010 23 1c e8 bc 68 e7 66 bd b1 29 1e 3d 12 71 cb bb
       -0.02833373 -0.05637303 0.03861398 -0.0062085474
000020 a8 7f 63 bd b3 f3 50 3d 24 3d 10 3d b9 19 11 3d
       -0.055541664 0.05101366 0.03521456 0.03542492
000030 65 7b 49 3d 81 a8 82 3d 6f 08 8c bd cf 37 8a 3d
       0.049189944 0.06379796 -0.06837546 0.06748926
000040 65 c5 12 3c 11 2c 20 bd 19 58 86 3c 59 52 82 3c
       0.008958195 -0.039104525 0.01639943 0.015908407
000050 ad 71 34 3d ac f1 59 bd 0f 36 04 3d 6c aa 89 3c
       0.044053722 -0.053208992 0.032278117 0.016804896
000060 95 6a 28 3d 22 9e 23 3d 57 66 9c 3c d5 30 40 3d
       0.04111727 0.03994573 0.019091768 0.04692157
000070 55 cb 08 bd f8 88 93 3d 71 3f 39 3c bd ec 87 bd
       -0.033397038 0.07203859 0.0113066295 -0.06636951
000080 99 54 5b bd 02 18 34 bd 7c 9d 0f 3c 62 4b 63 bc
       -0.053547475 -0.043968208 0.008765575 -0.013872953
000090 9e 3d 12 3c bc 0b 9d bc f9 91 7a 3d 1a cf fe 3c
       0.0089258235 -0.019170634 0.061174367 0.031104613
0000a0 cf 05 1d bd 92 03 4b bb 70 a1 4b 3d e1 da 58 3c
       -0.038335618 -0.003097747 0.049714506 0.013235779
0000b0 31 0c d8 3c 5c 32 8c bd 6a aa 11 bd fc 43 24 3d
       0.026373 -0.06845543 -0.03556291 0.040103897
0000c0 e7 3a 40 bd 27 c0 31 3d 05 94 86 3d 71 3e 02 3d
       -0.046931174 0.04339614 0.06571201 0.03179783
0000d0 ed d3 d8 bb 70 eb 39 3d 60 46 4d 3c 99 52 78 bd
       -0.0066170604 0.045390546 0.012528986 -0.060625646
0000e0 98 44 1f 3d 90 83 04 3d 4d 99 79 bb 2a 08 21 3d
       0.038883775 0.03235203 -0.003808576 0.039314426
0000f0 e1 c2 02 3d 37 39 77 bc aa e0 a6 3c 65 83 ef bc
       0.031924132 -0.015089325 0.0203708 -0.029237458
000100 9b 50 36 3d 90 ae 35 3d 7b 91 4e bd a2 69 b2 bb
       0.044510465 0.04435593 -0.05043171 -0.0054447213
000110 06 aa 8a bc e9 4d 95 bd 76 ca 3a bd dd 46 7e 3d
       -0.016926777 -0.07290251 -0.045603238 0.0620793
000120 eb 11 da bb cf 5d 78 3d fd 3b df 3c 51 33 8b bb
       -0.006654968 0.060636338 0.027250284 -0.0042480608
000130 c8 ad 8d bd 6e e4 86 bc 16 b4 5f 3c be 0a 89 bd
       -0.06917912 -0.016466346 0.013653776 -0.06691502
000140 0e 48 0d 3c 4b 12 0f bb 03 73 0c bd 03 bc 05 bc
       0.008623136 -0.0021830972 -0.03428937 -0.008162501
000150 71 fa 41 3d ff 7d 82 bd 19 10 23 bd 7d 55 58 3d
       0.04735798 -0.06371688 -0.039810274 0.052815903
000160 f7 50 01 bd 7d c5 d3 bc a5 18 c4 bc e2 1a 48 3b
       -0.031571355 -0.025851006 -0.023937533 0.0030533602
000170 a7 f5 b2 3c 76 3c 26 bd 4b 1a 29 bd 13 c4 50 3c
       0.021845652 -0.040585004 -0.04128484 0.01274206
000180 0b 14 d5 3c 70 8e bb 3c a9 ad 98 3c 44 b2 a1 bc
       0.026010534 0.022895068 0.018637495 -0.019738324
