FC-hackaton/checkpoints/A/model_A_epoch_15.pth (torch, 878282 bytes, 73 tensors)

gnn_node.node_encoder.weight f4 [1, 100]
0.21833652 -0.22561537 -0.4642152 -0.818398 1.4931467 -1.4889189 -0.08169864 1.0301083
-0.4152433 1.0011804 0.81506264 -0.5494519 1.1893573 -1.4241923 -1.5979369 -0.0811052
1.9385434 0.5520421 1.4503267 -1.910222 1.1136415 -0.33309093 -0.7267049 -0.54000616
-0.8057524 -0.4838337 -1.1940869 0.78514355 1.607578 0.57794535 0.5443084 -0.4855352
0.9761542 -2.5808458 -0.12712635 1.9378189 1.7392088 1.2750429 -1.2109283 0.25896803
0.57083327 2.0951338 -0.963449 -1.3762513 -0.048137102 0.164789 0.3045437 0.86569446
0.76035243 -0.69015056 3.5635118 -0.5438911 -0.29495457 1.6338545 -0.7187971 0.8037135
0.2682238 -0.99515814 0.055105947 -0.1522996 -0.8208583 1.1530045 1.49617 1.5864806
0.6804491 2.1753395 -0.8844119 0.39274028 0.63853043 0.0051449016 -0.96672326 -0.13203512
1.3153394 0.5919616 1.188261 -0.07941135 0.44439068 1.1687143 0.23088618 0.65014654
1.1243167 0.2894079 1.2609959 1.5990697 0.910076 -0.47924453 0.7213969 -0.8492588
-0.55331784 0.22414184 0.39715216 0.015942026 0.4046227 -0.4982813 -0.64759153 0.54972214
1.428509 -1.5932628 0.28109193 0.029812096
00000000: 9c93 5f3e b707 67be 9dad edbe 8882 51bf
00000010: 6e1f bf3f e594 bebf 9e51 a7bd 97da 833f
00000020: c59a d4be ae26 803f f2a7 503f e1a8 0cbf
00000030: dc3c 983f ef4b b6bf 3289 ccbf 7c1a a6bd
00000040: 3122 f83f a252 0d3f 4ea4 b93f 2882 f4bf
00000050: ce8b 8e3f e58a aabe 5509 3abf d83d 0abf
00000060: ca45 4ebf 0db9 f7be d7d7 98bf 2bff 483f
00000070: 1ec5 cd3f 3af4 133f cc57 0b3f 1298 f8be
00000080: 3ee5 793f 942c 25c0 692d 02be 730a f83f
00000090: 659e de3f 9b34 a33f b3ff 9abf 7597 843e
000000a0: 2122 123f ac16 0640 98a4 76bf 0129 b0bf
000000b0: 692b 45bd 73be 283e 27ed 9b3e 279e 5d3f
000000c0: 75a6 423f b5ad 30bf 9410 6440 723c 0bbf
000000d0: 4904 97be 2522 d13f 1603 38bf 2bc0 4d3f
000000e0: a154 893e afc2 7ebf c6b6 613d 6df4 1bbe
000000f0: c523 52bf a795 933f 8082 bf3f cc11 cb3f
00000100: ea31 2e3f c338 0b40 d168 62bf 4115 c93e
00000110: bb76 233f 9096 a83b 2d7b 77bf 3734 07be
00000120: 0b5d a83f cc8a 173f f018 983f 6ba2 a2bd
00000130: 2d87 e33e 6e98 953f 6d6d 6c3e 0170 263f
00000140: 9ce9 8f3f 462d 943e 5068 a13f 51ae cc3f
00000150: befa 683f 8a5f f5be 78ad 383f 0669 59bf
00000160: 3da6 0dbf 7085 653e 8757 cb3e da98 823c
00000170: b52a cf3e ba1e ffbe 8fc8 25bf 97ba 0c3f
00000180: 62d9 b63f 09f0 cbbf 48eb 8f3e 7f38 f43c

gnn_node.convs.0.mlp.0.weight f4 [200, 100]
0.3309007 0.018748285 -0.6639458 -0.09140235 -0.055764917 0.06041752 0.088164724 0.075408585
0.0728957 -0.08631965 -0.06221904 0.09461796 0.051506147 0.072018415 -0.039654627 0.4253243
-0.10060431 -0.06729061 0.0027967887 0.07406087 -0.056912996 0.05148341 0.09554448 -0.07058997
0.02987266 -0.12800011 -0.08862939 0.034975067 -0.09956486 -0.13696373 -0.028669132 -0.04990871
-0.1058849 -0.01992779 -0.03821201 -0.020738479 0.07884757 -0.041016378 -0.055622824 0.066568814
-0.11444745 -0.08692907 -0.014741776 0.015651708 -0.012927341 0.09309836 0.03161405 -0.04074733
0.019188285 0.052071042 -0.019885855 -0.3110311 0.030453337 -0.029484566 0.07831907 0.029767284
-0.0073559457 0.08226276 -0.05227726 0.07026307 0.03424298 0.04457396 0.018840674 -0.065830775
0.019109536 -0.06928285 -0.08458341 -0.07354665 0.06473634 0.048813224 -0.031120803 0.10602296
0.08217422 0.1163501 -0.06698014 -0.024586733 0.012822325 0.05033691 0.069090806 0.059929956
-0.13905698 0.06919915 -0.08357642 0.008529759 0.018354094 0.061956696 -0.0067431703 0.020312494
0.087552 0.051759392 -0.13954149 -0.2143269 0.017027296 -0.45520684 -0.045730248 0.10626617
-0.09571322 0.005112012 -0.07603246 -0.6298643 -0.16031909 -0.03568628 0.7929943 0.025180345
-0.06504794 0.07282413 0.004916604 0.05417728 -0.079748906 0.057238746 0.06725612 0.011021723
-0.0017003652 0.008806829 -0.09411554 -0.14397004 -0.0728752 -0.08484108 -0.09952251 0.093120426
-0.0027530976 -0.06442643 -0.07367009 -0.030420361 -0.0003146119 0.4980153 0.02620399 -0.07224774
-0.04936514 0.06582006 -0.05377715 0.0048171356 -0.04202058 0.09843059 -0.060188714 -0.044098377
0.06531897 0.1001439 0.02169854 -0.092347614 0.09671286 -0.07988026 -0.026696071 -0.063881494
-0.11526047 0.05826315 -0.062314834 0.07329407 0.06266019 0.018787164 -0.087182336 0.5080704
-0.09179393 0.030325921 -0.013855885 0.033242643 -0.11953446 -0.011194855 -0.13561434 0.005932184
0.065951206 -0.017097512 -0.012721574 0.08337142 -0.042672716 -0.052090112 0.030323137 0.13359718
-0.09679509 0.082043044 0.0818975 -0.17334342 0.034962002 -0.01849132 -0.00025213594 0.08826949
-0.12331022 0.06055617 0.04728299 0.07062101 -0.05249539 -0.12624247 0.0105777215 0.08137406
0.0996663 -0.037224982 -0.06509251 0.030082114 -0.06729632 -0.0709619 0.0034646294 -0.3626636
0.032353833 0.21337897 0.0019668145 -0.028560903 0.046307635 0.09166663 -0.09777568 0.9333562
-0.32609275 0.036541756 1.3912557 0.08801939 -0.10507393 -0.056863558 -0.031574648 0.079094835
0.009666262 0.008608234 0.03661678 -0.027524246 0.0321093 -0.06729334 0.036919262 -0.23130573
-0.10350748 -0.08306795 -0.00096933695 0.01996844 -0.005287975 -0.14741778 -0.064474106 -0.010742447
0.066457465 0.53428876 -0.17118813 -0.0129676405 -0.008361859 0.0787852 0.061954524 -0.093497664
-0.105172336 -0.041258287 -0.051645417 -0.08006573 -0.081391305 -0.09172582 -0.05490014 -0.28722352
0.26523674 0.036341436 0.04973078 0.08887807 0.0010621543 -0.0093296105 0.07307524 0.045554902
-0.051021043 0.098154835 0.037007608 0.29760784 -0.01864281 0.023950344 -0.0032130317 -0.013584946
00000000: d16b a93e 0196 993c 5af8 29bf 2831 bbbd
00000010: c169 64bd 5d78 773d b58f b43d d16f 9a3d
00000020: 574a 953d 5bc8 b0bd 64d9 7ebd 10c7 c13d
00000030: 1cf8 523d 647e 933d e46c 22bd 1bc4 d93e
00000040: a209 cebd a9cf 89bd 544a 373b 3aad 973d
00000050: 9a1d 69bd 45e0 523d d3ac c33d 7991 90bd
00000060: 82b7 f43c 7612 03be 5383 b5bd 0442 0f3d
00000070: a9e8 cbbd 3840 0cbe 87db eabc 136d 4cbd
00000080: 2fda d8bd 9b3f a3bc 3284 1cbd bee3 a9bc
00000090: d67a a13d ca00 28bd c2d4 63bd 3b55 883d
000000a0: 6d63 eabd de07 b2bd 7d87 71bc 0338 803c
000000b0: 33cd 53bc 5aaa be3d bc7d 013d ace6 26bd
000000c0: c030 9d3c 7248 553d a9e7 a2bc 783f 9fbe
000000d0: 4779 f93c 9e89 f1bc c065 a03d 85da f33c
000000e0: 250a f1bb 6179 a83d ae20 56bd 16e6 8f3d
000000f0: 5e42 0c3d 2f93 363d c257 9a3c 49d2 86bd
00000100: 9a8b 9c3c 2be4 8dbd 113a adbd a09f 96bd
00000110: 7c94 843d 60f0 473d 0ef1 febc 9122 d93d
00000120: f54a a83d f648 ee3d e22c 89bd 1e6a c9bc
00000130: bb14 523c 132e 4e3d 7b7f 8d3d 1d79 753d
00000140: f464 0ebe 49b8 8d3d 1d2a abbd 67c0 0b3c
00000150: 535b 963c 4ec6 7d3d d0f5 dcbb 6366 a63c
00000160: 774e b33d a801 543d f7e3 0ebe 8378 5bbe
00000170: d47c 8b3c df10 e9be a44f 3bbd 14a2 d93d
00000180: 4b05 c4bd aa82 a73b e8b6 9bbd c93e 21bf
00000190: b02a 24be c72b 12bd ad01 4b3f 0347 ce3c
000001a0: db37 85bd d124 953d 771b a13b ffe8 5d3d
000001b0: 6553 a3bd 2d73 6a3d 94bd 893d 7594 343c
000001c0: cade deba 854a 103c a6bf c0bd e26c 13be
000001d0: 983f 95bd 29c1 adbd 75d2 cbbd ecb5 be3d
000001e0: 506d 34bb 01f2 83bd 58e0 96bd 1f34 f9bc
000001f0: 7ff2 a4b9 ddfb fe3e c0a9 d63c a0f6 93bd
00000200: 1a33 4abd abcc 863d 6e45 5cbd 10d9 9d3b
00000210: c61d 2cbd fa95 c93d 7188 76bd 80a0 34bd
00000220: f4c5 853d 3f18 cd3d 23c1 b13c bf20 bdbd
00000230: 6411 c63d 4398 a3bd b8b1 dabc 4dd4 82bd
00000240: ae0d ecbd 57a5 6e3d d73d 7fbd 341b 963d
00000250: fc53 803d 8ae7 993c a78c b2bd e710 023f
00000260: 75fe bbbd 116e f83c cb03 63bc 7029 083d
00000270: 7cce f4bd a06a 37bc 7cde 0abe c462 c23b
00000280: 6d11 873d 1510 8cbc 266e 50bc a3be aa3d
00000290: 96c9 2ebd 715c 55bd 3a68 f83c b3cd 083e
000002a0: 813c c6bd 2f06 a83d e0b9 a73d f080 31be
000002b0: 5134 0f3d 1c7b 97bc 1d31 84b9 a2c6 b43d
000002c0: 128a fcbd bf09 783d cfab 413d c0a1 903d
000002d0: 6805 57bd b545 01be 2e4e 2d3c 71a7 a63d
000002e0: d81d cc3d 3979 18bd 394f 85bd c46e f63c
000002f0: a7d2 89bd 7954 91bd d60e 633b 0baf b9be
00000300: 7485 043d 0480 5a3e ace5 003b 8ef8 e9bc
00000310: 13ad 3d3d b7bb bb3d 9e3e c8bd 6ff0 6e3f
00000320: a1f5 a6be cfac 153d ab14 b23f 8343 b43d
00000330: 0031 d7bd c3e9 68bd 6b54 01bd 79fc a13d
00000340: 3e5f 1e3c 8d09 0d3c 7afb 153d 877a e1bc
00000350: 0b85 033d 17d1 89bd a738 173d 69db 6cbe
00000360: bbfb d3bd 881f aabd 1a1b 7eba db94 a33c
00000370: c046 adbb b0f4 16be 000b 84bd 1701 30bc
00000380: da1a 883d 26c7 083f f14b 2fbe 3a76 54bc
00000390: 2e00 09bc 235a a13d 07c4 7d3d b47b bfbd
000003a0: 9864 d7bd 73fe 28bd 258a 53bd 80f9 a3bd
000003b0: 7cb0 a6bd bfda bbbd f8de 60bd f60e 93be
000003c0: 1ccd 873e c2da 143d 81b2 4b3d b505 b63d
000003d0: fc37 8b3a 39db 18bc 79a8 953d c797 3a3d
000003e0: 71fb 50bd 6705 c93d 4a95 173d 0e60 983e
000003f0: ceb8 98bc 8333 c43c ba91 52bb 6593 5ebc

gnn_node.convs.0.mlp.0.bias f4 [200]
-0.07530925 0.065706454 -0.004378152 -0.076368295 0.06285455 0.05649827 -0.02455058 -0.03306939
-0.0847082 0.033715338 0.07374177 0.04602865 0.094763786 -0.016206643 0.026661789 0.078534365
0.08360171 0.047122624 -0.008724949 -0.08578299 0.041326802 -0.06616218 0.07927584 0.055320874
-0.050092526 0.08724954 0.024062797 0.055994198 -0.058735665 -0.005746537 0.08478072 -0.032972496
-0.06929595 0.08628972 0.030475019 -0.014997409 0.08893194 0.097780675 0.014080792 -0.03230027
0.09430545 0.056978885 -0.05270738 0.054908056 -0.09895876 0.072913855 -0.06309252 -0.038941097
-0.08566197 -0.052662812 -0.079370916 0.025263354 -0.058261093 0.010684204 -0.034653824 -0.05635096
-0.029939797 -0.017300352 -0.09630309 0.07968951 -0.02326392 0.049407583 0.04123732 0.045378074
0.079547964 0.032854896 0.059372596 0.049450755 0.07045584 -0.021975495 0.037755046 -0.06359112
0.026826603 0.09948262 -0.004994807 -0.023812104 -0.017486855 0.07249422 0.04899802 -0.064758636
-0.08004189 0.073937416 -0.005447619 0.032488067 -0.053217135 -0.07320014 -0.06905633 0.07713292
-0.02553952 -0.005237214 -0.08426175 -0.06475817 -0.05686197 -0.0038648192 -0.015738275 -0.017738972
0.014107938 0.061762225 0.04175836 -0.09645859 -0.041456677 0.046045125 0.044270687 0.07561201
-0.04863571 0.02555245 0.009837816 -0.03107355 0.019321375 0.08865963 0.017668605 0.005843944
-0.025384009 -0.043476533 -0.017141664 0.04861764 -0.067969956 0.07304069 -0.026579374 -0.01854737
0.023818107 0.010583041 -0.042492352 -0.053179547 0.038737934 -0.012964794 0.023833565 0.040566377
0.06105631 -0.07030035 -0.036161993 -0.00568828 0.029703133 0.024008274 0.086866505 0.07554058
-0.09669817 -0.09869499 0.030736728 0.057009883 -0.045149505 0.0803773 -0.07649612 0.002664761
-0.053016696 0.046154365 0.070360616 -0.0012182212 -0.0046668067 0.04488055 0.08045886 -0.07657301
0.08533337 0.08570828 -0.077310644 0.016896581 -0.09526516 0.0056529325 -0.048910744 0.09666263
-0.057666928 0.022431511 -0.033191286 -0.07553593 0.081894726 -0.083180964 0.053842764 0.001585526
-0.04722806 0.0013951411 -0.00807593 0.019495366 -0.09970815 0.03972551 -0.08777867 0.057801265
0.07563868 0.0714322 -0.040507752 -0.08416917 -0.015171273 0.024659459 -0.07068105 0.084596336
0.004740783 -0.085868284 -0.09246177 0.065945566 -0.08732411 0.051140483 0.053286042 -0.00230012
-0.057199903 0.07573468 0.036827587 0.00019003358 0.0088228 0.023210434 0.05142011 -0.05458167
00000000: bc3b 9abd 1b91 863d 9a76 8fbb fb66 9cbd
00000010: e3b9 803d bb6a 673d 4c1e c9bc c573 07bd
00000020: 7e7b adbd 1819 0a3d ed05 973d 8a88 3c3d
00000030: 8413 c23d cbc3 84bc d369 da3c a0d6 a03d
00000040: 6037 ab3d a703 413d 17f3 0ebc feae afbd
00000050: 4b46 293d 0980 87bd 5f5b a23d 2498 623d
00000060: d22d 4dbd e3af b23d 581f c53c 2c5a 653d
00000070: cf94 70bd 724d bcbb 84a1 ad3d 2b0e 07bd
00000080: 09eb 8dbd aab8 b03d bfa6 f93c b1b7 75bc
00000090: f321 b63d 3c41 c83d 1fb3 663c 4a4d 04bd
000000a0: 3723 c13d b162 693d b2e3 57bd 45e7 603d
000000b0: e4aa cabd dc53 953d a736 81bd b380 1fbd
000000c0: 8b6f afbd f6b4 57bd 388d a2bd 18f5 ce3c
000000d0: 2fa3 6ebd cd0c 2f3c 2bf1 0dbd 44d0 66bd
000000e0: 4e44 f5bc 78b9 8dbc 8e3a c5bd 4134 a33d
000000f0: fa93 bebc 9b5f 4a3d 77e8 283d 5cde 393d
00000100: 0bea a23d db92 063d ae30 733d e08c 4a3d
00000110: 274b 903d f405 b4bc 09a5 1a3d 103c 82bd
00000120: 77c3 db3c 8bbd cb3d 7aab a3bb 9a11 c3bc
00000130: 9840 8fbc da77 943d 26b2 483d 2da0 84bd
00000140: 01ed a3bd 806c 973d f181 b2bb 3512 053d
00000150: 36fa 59bd f4e9 95bd 686d 8dbd ddf7 9d3d
00000160: 4138 d1bc ef9c abbb 6d91 acbd ee9f 84bd
00000170: 19e8 68bd e848 7dbb 8eed 80bc 5251 91bc
00000180: fb24 673c 63fa 7c3d d00a 2b3d 158c c5bd
00000190: 7ace 29bd d099 3c3d 2e55 353d 78da 9a3d
000001a0: 3d36 47bd 5f53 d13c ca2e 213c f58d febc
000001b0: dc47 9e3c 2e93 b53d c0bd 903c 8e7e bf3b
000001c0: 20f2 cfbc 7314 32bd ad6c 8cbc 4a23 473d
000001d0: d533 8bbd 5b96 953d fdbc d9bc a7f0 97bc
000001e0: 311e c33c 7e64 2d3c 760c 2ebd ccd2 59bd
000001f0: abab 1e3d 4a6a 54bc 9c3e c33c ee28 263d
00000200: 2e16 7a3d a1f9 8fbd 991e 14bd c064 babb
00000210: fc53 f33c 00ad c43c 11e7 b13d 05b5 9a3d
00000220: b109 c6bd 9920 cabd 97cb fb3c 3283 693d
00000230: b0ee 38bd db9c a43d ffa9 9cbd 45a3 2e3b
00000240: 0928 59bd 5c0c 3d3d 3a19 903d b8ac 9fba
00000250: 03ec 98bb abd4 373d 9dc7 a43d 4fd2 9cbd
00000260: 43c3 ae3d d387 af3d 0b55 9ebd b36a 8a3c
00000270: 611a c3bd 3c3c b93b a256 48bd 0ff7 c53d
00000280: 2834 6cbd 4ac2 b73c 96f3 07bd 95b2 9abd
00000290: 6cb8 a73d c85a aabd 3b8a 5c3d 6dd1 cf3a
000002a0: 3672 41bd 2bdd b63a e850 04bc bfb4 9f3c
000002b0: c933 ccbd 37b7 223d 4ec5 b3bd 05c1 6c3d
000002c0: 74e8 9a3d 0c4b 923d 75eb 25bd e360 acbd
000002d0: ee90 78bc a202 ca3c 3ac1 90bd d840 ad3d
000002e0: 9258 9b3b b6db afbd 995c bdbd 780e 873d
000002f0: fcd6 b2bd af78 513d 7742 5a3d 9cbd 16bb
00000300: 724a 6abd c91a 9b3d 86d8 163d c043 4739
00000310: 818d 103c cf23 be3c e59d 523d 0791 5fbd

gnn_node.convs.0.mlp.1.weight f4 [200]
0.87983686 1.019723 0.966383 1.0206686 0.8982497 0.91207033 1.12608 1.0142736
1.0427631 0.9586141 0.9687103 0.8632782 0.77585787 1.065732 1.1447703 0.9208564
0.83099437 0.8847788 0.8639975 0.875586 1.016563 0.88707715 1.0028625 1.082023
1.0375046 1.0712445 0.9478776 0.78257453 0.8954011 0.8743933 1.0129454 1.0978936
1.0343428 0.950868 0.99119616 0.9359104 0.98319364 1.0303286 0.945813 1.1771221
0.8873208 0.8703696 1.0292296 0.90900785 0.85141814 0.9834987 0.97949314 1.0268855
0.9661223 0.9200493 0.8995569 1.0252963 0.9512768 1.1157693 0.98698336 0.9989434
0.93564737 0.9689376 0.9851803 0.99184257 0.8286557 0.95038944 1.0179515 0.971706
0.91755277 0.9578988 0.93335134 0.92913204 1.0237808 0.86688834 0.9180909 0.91954875
0.9586424 0.82858485 0.8504989 0.88441473 0.8784298 0.9258319 0.90227085 1.0739565
0.998934 1.0865916 1.1287827 0.9570098 1.0121948 1.0638599 1.0610417 1.0303843
0.97930783 0.98482454 1.0089617 0.9644951 0.8970382 0.79749995 0.9757882 0.9097086
0.9102262 0.9190462 1.0146769 1.0206516 0.91862464 1.0647076 0.8968996 0.987858
0.89918923 1.1249079 0.9143596 0.77403736 1.0882325 0.9445072 1.0449554 1.1147635
0.983767 0.9062427 0.96338177 1.0018717 0.9913631 1.0426692 0.9954399 0.9343366
0.8768806 0.9171387 0.86159027 1.0685883 0.98935145 0.9325687 0.958746 0.9777286
1.0977467 0.94079053 0.93845016 0.85346335 1.0661052 0.9584609 0.9625449 0.8527332
1.0457214 0.81111115 0.9967103 0.8449507 1.0430566 1.0625969 0.9335768 0.90043545
0.8898038 0.8141202 0.88381386 0.91232634 1.0475037 0.9656121 0.8984136 1.1440507
0.83157086 0.9355287 1.1222638 0.87709206 0.9337718 0.81408304 1.1976385 1.0417432
0.99232525 0.99944776 0.94095933 0.99795675 1.064278 1.0662835 0.97509885 0.85836095
0.7940687 1.003726 0.9226575 0.7771982 1.0751758 0.9401262 1.0158176 1.0304533
0.94331944 0.97734886 0.9692313 0.9844088 0.994821 0.9263357 0.97159374 0.997195
0.96258706 0.9876863 0.9365569 0.9079981 0.861352 1.0758026 1.0833238 1.2388623
1.0264797 0.9786741 1.2241768 1.0245935 1.0119482 0.8270694 0.9465959 0.9242588
00000000: fd3c 613f 4986 823f e064 773f 45a5 823f
00000010: b1f3 653f 717d 693f 6423 903f b8d3 813f
00000020: 4379 853f bc67 753f 66fd 773f cdff 5c3f
00000030: 9f9e 463f e869 883f d587 923f 3fbd 6b3f
00000040: 0cbc 543f dd80 623f f12e 5d3f 6726 603f
00000050: bd1e 823f 7d17 633f cc5d 803f bb7f 8a3f
00000060: f3cc 843f 8a1e 893f 1ba8 723f ce56 483f
00000070: 0239 653f 3dd8 5f3f 32a8 813f c787 8c3f
00000080: 5865 843f 166c 733f 08bf 7d3f d397 6f3f
00000090: 94b2 7b3f cfe1 833f cd20 723f f0ab 963f
000000a0: 7527 633f 8bd0 5e3f ccbd 833f bdb4 683f
000000b0: 8af6 593f 92c6 7b3f 10c0 7a3f fc70 833f
000000c0: cb53 773f 5a88 6b3f 5c49 663f e93c 833f
000000d0: e086 733f 87d1 8e3f f1aa 7c3f c1ba 7f3f
000000e0: 9686 6f3f 4b0c 783f c734 7c3f 65e9 7d3f
000000f0: c822 543f b94c 733f 3c4c 823f b9c1 783f
00000100: bde4 6a3f db38 753f 1df0 6e3f 99db 6d3f
00000110: 400b 833f 65ec 5d3f 0108 6b3f 8c67 6b3f
00000120: 9769 753f 231e 543f 4cba 593f 0169 623f
00000130: c6e0 603f 5203 6d3f 39fb 663f 6877 893f
00000140: 23ba 7f3f 6f15 8b3f f47b 903f 98fe 743f
00000150: 998f 813f 902c 883f 37d0 873f a2e3 833f
00000160: ebb3 7a3f 761d 7c3f a825 813f 27e9 763f
00000170: 4ca4 653f f528 4c3f 41cd 793f aae2 683f
00000180: 9604 693f 9d46 6b3f efe0 813f b6a4 823f
00000190: fc2a 6b3f 5748 883f 369b 653f 43e4 7c3f
000001a0: 4431 663f fbfc 8f3f 7913 6a3f 5027 463f
000001b0: 344b 8b3f 39cb 713f 19c1 853f 92b0 8e3f
000001c0: 27d8 7b3f 86ff 673f 30a0 763f 553d 803f
000001d0: f9c9 7d3f 2f76 853f 26d5 7e3f af30 6f3f
000001e0: 3f7b 603f 9ac9 6a3f 2e91 5c3f 80c7 883f
000001f0: 2346 7d3f d3bc 6e3f 6170 753f 6c4c 7a3f
00000200: f782 8c3f a6d7 703f 453e 703f 937c 5a3f
00000210: 2376 883f b25d 753f 5869 763f b94c 5a3f
00000220: 33da 853f fba4 4f3f 6828 7f3f b04e 583f
00000230: e182 853f 2d03 883f e4fe 6e3f f082 663f
00000240: 2fca 633f 2e6a 503f a041 623f 388e 693f
00000250: 9a14 863f 5b32 773f 6ffe 653f 4170 923f
00000260: d4e1 543f cf7e 6f3f 57a6 8f3f 1b89 603f
00000270: ab0b 6f3f bf67 503f 384c 993f d757 853f
00000280: 0709 7e3f cfdb 7f3f b6e2 703f 187a 7f3f
00000290: 433a 883f fa7b 883f 14a0 793f 8bbd 5b3f
000002a0: 1648 4b3f 187a 803f 4833 6c3f 76f6 463f
000002b0: 5c9f 893f 1cac 703f 5006 823f e5e5 833f
000002c0: 627d 713f 8933 7a3f 8b1f 783f 3702 7c3f
000002d0: 97ac 7e3f 5624 6d3f 5eba 783f 2c48 7f3f
000002e0: 1b6c 763f 02d9 7c3f 31c2 6f3f 9072 683f
000002f0: 9181 5c3f e6b3 893f 5baa 8a3f 0a93 9e3f
00000300: b063 833f 638a 7a3f d3b1 9c3f e125 833f
00000310: 8587 813f d2ba 533f 1c54 723f 3a9c 6c3f

gnn_node.convs.0.mlp.1.bias f4 [200]
-0.078520454 0.08233421 0.13554206 0.1483972 -0.037914325 -0.012370736 0.23577008 0.08452047
0.07887379 0.10731351 -0.02936269 -0.0004589927 0.036054082 0.15697323 0.14732204 -0.0004037413
0.08633126 0.0053850524 -0.003926059 -0.056051284 0.14224945 0.03380993 0.034483287 0.13907759
0.13261189 0.22496296 0.028424393 -0.07734753 -0.08157452 -0.027301153 0.106550016 0.17838998
0.101793736 -0.09110747 -0.10326668 0.12664515 0.0040879627 0.0092629865 -0.014520268 0.1726899
0.009994285 -0.08516628 0.105917536 -0.13787426 -0.019091617 0.057780687 0.10911438 0.035206493
-0.1081518 -0.023342894 0.015670814 0.13618118 0.07290961 0.15160765 0.09777716 0.047478694
0.035439864 -0.040211502 -0.0338216 0.09206912 0.1232365 -0.014725915 0.088798545 0.05414806
-0.00075175136 0.0190932 -0.103097364 -0.014521863 0.07159949 -0.06967846 -0.057196774 -0.028792106
0.005802552 -0.09083283 0.030997232 -0.027609695 0.03817524 0.040604126 -0.07006148 0.20753524
0.06453602 0.10185514 0.13858712 0.033120953 0.11955696 0.033959843 0.12983836 0.18842962
0.10780176 0.08221144 0.0650322 0.05178181 -0.06646101 0.0063027046 0.048079792 0.026090937
0.11920173 0.05672557 0.07818447 0.12560065 -0.13719167 0.069438845 0.12829043 -0.12811387
0.12934475 0.05277865 0.030525459 -0.012277986 0.06462842 -0.109696776 0.13426048 0.24983454
0.013208782 -0.048089847 0.05803283 0.03800164 0.0655551 -0.004793928 0.056868263 -0.019369358
0.112266004 0.010020552 -0.0972602 0.14266402 0.05505479 0.052339684 -0.11937722 0.008269898
0.1253877 0.04317416 0.11517621 -0.08041281 0.12528023 -0.008213548 -0.057302628 -0.08837955
0.17264661 -0.08571684 -0.0021691485 0.058113728 0.061091956 0.12039307 -0.038113236 -0.020392232
-0.012422008 0.05396578 0.12112153 0.006179277 0.12665634 0.018392123 -0.038987212 0.13583931
0.033400442 0.016334442 0.087011 -0.10415771 -0.039059997 -0.0075060898 0.34846973 -0.04303803
0.07622448 0.09056689 0.0060335444 0.13443814 0.030488761 0.04080196 0.051843695 -0.059780814
-0.02913874 0.12917092 0.111117356 -0.064845026 0.109639004 0.027850542 0.09705066 0.008390882
-0.058672376 -0.016176548 0.08549601 0.09093526 -0.003828824 0.08289657 -0.024705745 0.10872485
0.12492526 0.07256922 0.02066639 -0.10992239 -0.07018924 0.041780915 0.14452137 0.100487255
0.018364504 0.12711196 0.20562959 0.11807487 0.1533751 0.050845265 0.10737434 0.043087594
00000000: 55cf a0bd d79e a83d 8acb 0a3e 70f5 173e
00000010: 0d4c 1bbd a1ae 4abc b66d 713e 1119 ad3d
00000020: 9588 a13d 2fc7 db3d 068a f0bc f5a4 f0b9
00000030: 72ad 133d 97bd 203e 97db 163e 3dad d3b9
00000040: 72ce b03d 1875 b03b 2ca6 80bb 0896 65bd
00000050: d7a9 113e 487c 0a3d 593e 0d3d 5b6a 0e3e
00000060: 69cb 073e b15c 663e 46da e83c 6268 9ebd
00000070: 8b10 a7bd aba6 dfbc e536 da3d ddab 363e
00000080: 3c79 d03d 8e96 babd 7b7d d3bd 44af 013e
00000090: 51f4 853b c8c3 173c 6be6 6dbc 9fd5 303e
000000a0: 12bf 233c a96b aebd 4beb d83d e92e 0dbe
000000b0: 0666 9cbc 71ab 6c3d 5c77 df3d af34 103d
000000c0: b17e ddbd 9939 bfbc 1460 803c 1473 0b3e
000000d0: a251 953d 093f 1b3e 643f c83d 0579 423d
000000e0: 6429 113d d1b4 24bd 8588 0abd bc8e bc3d
000000f0: 6b63 fc3d f744 71bc 03dc b53d 5bca 5d3d
00000100: 2e11 45ba 5869 9c3c b624 d3bd 1ced 6dbc
00000110: c1a2 923d 95b3 8ebd 2a47 6abd 6cdd ebbc
00000120: 5623 be3b 9006 babd e8ed fd3c ba2d e2bc
00000130: a45d 1c3d 8350 263d 657c 8fbd 1e84 543e
00000140: 762b 843d 6d99 d03d c8e9 0d3e d6a9 073d
00000150: 48da f43d 7a19 0b3d 59f4 043e b2f3 403e
00000160: 2bc7 dc3d 795e a83d 9a2f 853d 2a19 543d
00000170: b61c 88bd eb86 ce3b 51ef 443d a9bc d53c
00000180: 0920 f43d 1259 683d 2e1f a03d 759d 003e
00000190: f97b 0cbe f435 8e3d 915e 033e 4830 03be
000001a0: f372 043e 6d2e 583d 8710 fa3c 9b29 49bc
000001b0: e85b 843d b4a8 e0bd 947b 093e a0d4 7f3e
000001c0: a669 583c dcf9 44bd d5b3 6d3d 9ca7 1b3d
000001d0: c141 863d 6216 9dbb b2ee 683d 7dac 9ebc
000001e0: b8eb e53d 3e2d 243c 5b30 c7bd 8416 123e
000001f0: 2281 613d 2362 563d 0b7c f4bd 777e 073c
00000200: a265 003e 63d7 303d 81e1 eb3d 79af a4bd
00000210: 7649 003e 1e92 06bc 29b6 6abd 5600 b5bd
00000220: 46ca 303e 508c afbd 4628 0ebb a908 6e3d
00000230: 8f3b 7a3d a490 f63d a01c 1cbd 9c0d a7bc
00000240: ae85 4bbc 390b 5d3d 910e f83d 887b ca3b
00000250: 33b2 013e 14ab 963c 0eb1 1fbd 7619 0b3e
00000260: e7ce 083d cfcf 853c d332 b23d a350 d5bd
00000270: 60fd 1fbd a5f5 f5bb a06a b23e a548 30bd
00000280: 951b 9c3d 227b b93d 0ab5 c53b 27aa 093e
00000290: 91c3 f93c f51f 273d 0e5a 543d badc 74bd
000002a0: 5eb4 eebc 6245 043e 7f91 e33d 78cd 84bd
000002b0: 6a8a e03d d226 e43c 7fc2 c63d e979 093c
000002c0: 7252 70bd ae84 84bc 8818 af3d 443c ba3d
000002d0: 02ed 7abb adc5 a93d b463 cabc 22ab de3d
000002e0: d1d8 ff3d 2c9f 943d 904c a93c fd1e e1bd
000002f0: 60bf 8fbd 7722 2b3d 69fd 133e 43cc cd3d
00000300: 2871 963c a329 023e 9090 523e 3dd1 f13d
00000310: 5d0e 1d3e 2043 503d 14e7 db3d 9e7c 303d

gnn_node.convs.0.mlp.1.running_mean f4 [200]
-19.568916 -7.91915 -17.587284 21.52901 -10.076737 -18.31325 -11.086225 -17.76166
-5.5611095 -24.428871 -12.950946 25.775578 16.737127 -11.401394 6.5483227 -15.92045
8.4583235 -6.546155 18.410803 -22.748394 10.804489 -20.702417 -11.498133 13.036824
19.648066 10.358462 -10.782255 40.126255 -30.031496 11.53 -18.614588 -18.197847
20.09409 20.845383 36.48522 19.913824 -15.117847 -23.906103 -11.203049 -6.294094
21.295256 -26.552565 -22.482403 -8.6862 -27.49993 18.584227 -19.1297 -11.868987
-25.217163 -19.441957 -22.120285 -22.72946 12.762572 7.0149293 -11.359988 18.440893
26.215815 -10.625965 5.4065332 -7.250152 11.15552 9.789906 -26.213161 18.606358
18.627178 -11.053917 -7.470581 14.155575 18.946949 30.60012 28.119572 23.061481
-19.90985 -14.194419 10.713416 -14.695972 -9.205523 17.029316 -32.914318 11.75225
-20.88076 -2.51899 18.055119 -17.726274 -22.055174 8.643299 15.580693 9.163191
25.518017 -5.394626 -11.249362 -12.397342 -22.036665 18.440178 -6.9531503 -31.119051
12.740963 35.914375 4.8317714 -11.483586 20.602865 -27.420345 12.861342 -8.220345
24.870043 15.481323 -19.368677 22.218548 12.333956 -12.253806 -18.731443 28.374485
13.956613 -13.562983 -7.512531 -5.0488 -24.758802 13.230562 20.368292 -14.763796
20.29612 13.532446 16.034218 -6.7226996 -12.246102 11.424652 32.600384 -15.990985
13.7693405 -23.809633 -27.222147 -30.06828 18.93996 -9.646636 19.384373 17.001122
-12.347667 23.73522 14.109352 17.602053 10.371303 22.631416 -8.860701 20.059875
-18.26327 25.55675 -5.5195985 -22.545637 22.527481 16.538454 -12.327824 -9.137838
29.038454 -25.80069 -9.113325 14.649101 9.311637 13.477973 9.060377 -26.049768
6.883451 -6.514225 -10.528461 20.81155 -23.0889 14.976908 -16.024645 16.195778
21.928144 7.840711 7.912695 15.500597 6.397835 11.234166 -22.214306 -14.277181
20.594025 -14.388668 18.570276 -4.2754188 13.343168 -12.208306 -24.10085 25.984932
14.748222 16.858093 -11.092782 -22.331385 20.098515 -27.208832 -27.57568 -7.8024364
-23.720743 23.420689 5.3023987 17.066626 10.391942 26.811518 9.116758 -15.148186
00000000: 248d 9cc1 ad69 fdc0 c2b2 8cc1 6a3b ac41
00000010: 513a 21c1 8981 92c1 2d61 31c1 e117 8ec1
00000020: 9cf4 b1c0 546e c3c1 1337 4fc1 6234 ce41
00000030: a3e5 8541 1c6c 36c1 dc8b d140 2aba 7ec1
00000040: 4b55 0741 1a7a d1c0 5349 9341 b6fc b5c1
00000050: 30df 2c41 8d9e a5c1 5af8 37c1 d596 5041
00000060: 3d2f 9d41 43bc 2541 1e84 2cc1 4981 2042
00000070: 8140 f0c1 e17a 3841 adea 94c1 3195 91c1
00000080: b2c0 a041 58c3 a641 def0 1142 834f 9f41
00000090: b4e2 71c1 b33f bfc1 b03f 33c1 3869 c9c0
000000a0: af5c aa41 a76b d4c1 f6db b3c1 adfa 0ac1
000000b0: dbff dbc1 7fac 9441 a009 99c1 5fe7 3dc1
000000c0: c0bc c9c1 2189 9bc1 58f6 b0c1 efd5 b5c1
000000d0: 7f33 4c41 4d7a e040 83c2 35c1 f386 9341
000000e0: fdb9 d141 f403 2ac1 5202 ad40 3f01 e8c0
000000f0: 037d 3241 74a3 1c41 8eb4 d1c1 d2d9 9441
00000100: 7604 9541 d8dc 30c1 000f efc0 3c7d 6241
00000110: 5a93 9741 0ccd f441 e2f4 e041 ea7d b841
00000120: 5f47 9fc1 571c 63c1 276a 2b41 b422 6bc1
00000130: d249 13c1 0a3c 8841 43a8 03c2 3709 3c41
00000140: cc0b a7c1 2237 21c0 e270 9041 69cf 8dc1
00000150: ff70 b0c1 f44a 0a41 854a 7941 6e9c 1241
00000160: e624 cc41 c7a0 acc0 63fd 33c1 835b 46c1
00000170: 174b b0c1 7c85 9341 3580 dec0 d1f3 f8c1
00000180: fcda 4b41 52a8 0f42 df9d 9a40 c5bc 37c1
00000190: abd2 a441 de5c dbc1 0fc8 4d41 8886 03c1
000001a0: d9f5 c641 80b3 7741 0df3 9ac1 96bf b141
000001b0: e257 4541 970f 44c1 ffd9 95c1 f2fe e241
000001c0: 494e 5f41 fa01 59c1 a766 f0c0 c58f a1c0
000001d0: 0712 c6c1 62b0 5341 43f2 a241 8238 6cc1
000001e0: 745e a241 e684 5841 1446 8041 5b20 d7c0
000001f0: 09f0 43c1 60cb 3641 cb66 0242 13db 7fc1
00000200: 384f 5c41 217a bec1 f5c6 d9c1 d68b f0c1
00000210: 0a85 9741 9f58 1ac1 3213 9b41 4c02 8841
00000220: 0b90 45c1 bbe1 bd41 e8bf 6141 01d1 8c41
00000230: dbf0 2541 240d b541 6ec5 0dc1 a07a a041
00000240: 2d1b 92c1 3974 cc41 8da0 b0c0 775d b4c1
00000250: 4838 b441 c14e 8441 c43e 45c1 9634 12c1
00000260: c14e e841 d067 cec1 2ed0 11c1 b862 6a41
00000270: 77fc 1441 c7a5 5741 4ef7 1041 ed65 d0c1
00000280: 3b45 dc40 8874 d0c0 9474 28c1 0e7e a641
00000290: 11b6 b8c1 6aa1 6f41 7932 80c1 f490 8141
000002a0: d76c af41 1be7 fa40 cc34 fd40 7202 7841
000002b0: 10bb cc40 25bf 3341 e6b6 b1c1 556f 64c1
000002c0: 90c0 a441 fc37 66c1 ed8f 9441 3bd0 88c0
000002d0: 9e7d 5541 3955 43c1 8ace c0c1 24e1 cf41
000002e0: b8f8 6b41 60dd 8641 097c 31c1 ada6 b2c1
000002f0: c2c9 a041 b0ab d9c1 fe9a dcc1 8fad f9c0
00000300: 15c4 bdc1 925d bb41 40ad a940 7388 8841
00000310: 6545 2641 fd7d d641 3ede 1141 f85e 72c1

gnn_node.convs.0.mlp.1.running_var f4 [200]
432.77985 50.595707 323.0923 477.60678 169.2132 386.4133 148.1247 315.28613
29.082129 603.208 256.8121 719.86584 304.0611 116.41487 44.07972 352.31546
97.68712 73.319984 322.03476 594.593 167.22379 531.37335 169.31561 174.34113
450.98203 99.34278 129.44086 1812.835 1099.9766 151.46642 339.69556 419.862
432.30133 525.3453 1581.577 496.15717 295.63727 594.19794 214.529 32.09947
621.96515 860.4921 583.96234 75.12944 935.20966 352.3125 400.2455 175.98141
712.2495 456.23215 538.1307 591.3693 163.8503 74.23422 175.56862 405.96225
697.63214 178.53865 66.23356 81.56209 172.08083 175.55592 731.4787 330.44394
460.3698 174.53592 88.74956 205.86427 378.19473 1154.3694 857.78625 605.80725
439.003 248.82855 159.30751 282.74625 70.541534 276.6649 1374.8052 148.46992
458.42178 19.632582 375.8308 331.14395 603.5291 108.262184 261.87585 106.67781
799.08405 69.15842 195.1782 189.03926 556.5192 435.74564 50.73905 1138.5015
260.76453 1443.8191 73.32131 165.81577 501.1745 812.31506 235.51047 53.409615
779.99976 297.34866 403.343 582.7969 200.77733 182.1926 431.9084 821.61597
203.05843 160.65288 69.78714 42.90841 692.7439 265.44522 423.27237 266.2721
510.50482 190.29147 284.548 79.319305 222.58646 181.85968 1308.2024 251.56274
214.58618 734.99713 801.2903 1035.5612 395.7723 136.97229 467.52798 282.4375
169.5701 756.28625 251.22098 388.5153 116.90653 672.60474 114.6597 426.83286
338.50565 752.0555 24.167053 668.8586 646.9482 344.93655 164.52676 60.651127
1064.7631 815.43164 128.15208 227.55362 118.50289 174.36806 100.21546 706.49274
43.54768 32.74397 143.63004 465.51477 652.3451 297.06372 301.1187 279.2508
559.09686 58.261242 94.55669 279.9112 34.57548 136.95778 449.05493 193.4046
542.53534 210.00134 443.47894 25.477146 243.78685 170.45184 718.89764 864.8583
225.45456 310.4179 129.52577 587.2998 436.915 898.32446 790.38043 89.00323
531.8708 556.2561 55.447113 296.53516 135.22055 783.0032 128.34529 227.05937
00000000: d263 d843 0162 4a42 d08b a143 abcd ee43
00000010: 9436 2943 e734 c143 ec1f 1443 a0a4 9d43
00000020: 33a8 e841 50cd 1644 f367 8043 6af7 3344
00000030: d207 9843 6ad4 e842 a251 3042 6128 b043
00000040: ce5f c342 d5a3 9242 7304 a143 f4a5 1444
00000050: 4a39 2743 e5d7 0444 cc50 2943 5457 2e43
00000060: b37d e143 81af c642 dc70 0143 b89a e244
00000070: 407f 8944 6777 1743 08d9 a943 56ee d143
00000080: 9226 d843 1956 0344 77b2 c544 1e14 f843
00000090: 92d1 9343 ab8c 1444 6d87 5643 db65 0042
000000a0: c57d 1b44 7f1f 5744 97fd 1144 4642 9642
000000b0: 6bcd 6944 0028 b043 6d1f c843 3efb 2f43
000000c0: f80f 3244 b71d e443 5d88 0644 a3d7 1344
000000d0: add9 2343 ec77 9442 9191 2f43 2bfb ca43
000000e0: 7568 2e44 e589 3243 9577 8442 ca1f a342
000000f0: b114 2c43 518e 2f43 a3de 3644 d338 a543
00000100: 562f e643 3289 2e43 c67f b142 41dd 4d43
00000110: ed18 bd43 d24b 9044 5272 5644 aa73 1744
00000120: 6280 db43 1cd4 7843 b94e 1f43 855f 8d43
00000130: 4415 8d42 1b55 8a43 c4d9 ab44 4d78 1443
00000140: fd35 e543 870f 9d41 58ea bb43 6d92 a543
00000150: dde1 1644 3d86 d842 1cf0 8243 0a5b d542
00000160: 61c5 4744 1c51 8a42 9f2d 4343 0d0a 3d43
00000170: 3b21 0b44 71df d943 caf4 4a42 0c50 8e44
00000180: dc61 8243 367a b444 83a4 9242 d6d0 2543
00000190: 5696 fa43 2a14 4b44 ae82 6b43 72a3 5542
000001a0: fcff 4244 a1ac 9443 e7ab c943 00b3 1144
000001b0: ffc6 4843 4e31 3643 46f4 d743 6c67 4d44
000001c0: f50e 4b43 23a7 2043 0493 8b42 36a2 2b42
000001d0: 9c2f 2d44 fdb8 8443 dda2 d343 d422 8543
000001e0: 9e40 ff43 9e4a 3e43 2546 8e43 7ca3 9e42
000001f0: 2296 5e43 14dc 3543 7a86 a344 1090 7b43
00000200: 1096 5643 d1bf 3744 9452 4844 f571 8144
00000210: dbe2 c543 e8f8 0843 95c3 e943 0038 8d43
00000220: f291 2943 5212 3d44 9238 7b43 f541 c243
00000230: 25d0 e942 b426 2844 c451 e542 9b6a d543
00000240: b940 a943 8d03 3c44 2056 c141 f336 2744
00000250: afbc 2144 e177 ac43 da86 2443 c19a 7242
00000260: 6b18 8544 a0db 4b44 ef26 0043 ba8d 6343
00000270: 7b01 ed42 395e 2e43 516e c842 899f 3044
00000280: d330 2e42 d3f9 0242 4aa1 0f43 e4c1 e843
00000290: 1616 2344 2888 9443 328f 9643 1aa0 8b43
000002a0: 33c6 0b44 830b 6942 061d bd42 a2f4 8b43
000002b0: 4b4d 0a42 31f5 0843 0887 e043 9467 4143
000002c0: 43a2 0744 5800 5243 4ebd dd43 32d1 cb41
000002d0: 6fc9 7343 ac73 2a43 73b9 3344 ee36 5844
000002e0: 5e74 6143 7e35 9b43 9986 0143 30d3 1244
000002f0: 1f75 da43 c494 6044 5998 4544 a701 b242
00000300: bbf7 0444 6410 0b44 d8c9 5d42 8044 9443
00000310: 7638 0743 34c0 4344 6558 0043 330f 6343

gnn_node.convs.0.mlp.3.weight f4 [100, 200]
-0.079952225 -0.01570156 -0.0066512697 -0.004199587 0.04410671 0.002313094 0.001833084 -0.11281946
0.05903638 0.022694733 0.016904928 -0.1383588 0.04519659 0.062072475 -0.10951481 0.041662738
0.03608202 0.08090301 -0.014941516 -0.009839473 0.036521398 0.031880245 -0.035640683 -0.005275674
-0.042323742 0.011841878 -0.07770799 -0.085591465 0.10108813 -0.066904835 0.056226134 -0.09850012
-0.018874401 -0.073962905 -0.07114509 -0.005010696 -0.021164471 -0.12524967 0.05259927 -0.092503935
-0.01876536 -0.057646394 -0.0018265949 -0.0028878977 -0.00756954 0.022995079 -0.047311533 -0.025581023
-0.08651453 0.06630887 0.011065547 0.001144861 -0.060890008 0.09147755 -0.04674268 -0.103421874
0.061240584 0.09618104 0.019645464 0.012056287 0.02823292 0.0554785 0.13075905 0.003054072
-0.023075597 0.09726902 0.053914506 0.029964788 -0.036202647 -0.07369886 -0.04349677 0.093780555
0.036101855 0.004516444 -0.03520382 -0.025300507 0.079576425 0.06878065 0.057238974 -0.043848183
0.06321719 -0.034602337 -0.08773706 -0.04883602 0.04833344 -0.09076224 -0.16826077 -0.006463697
0.05622906 -0.082928926 0.089934 0.06626615 -0.021074053 -0.0021901554 0.13348308 0.07415027
-0.13064408 0.04862426 -0.08286648 0.02167346 -0.12161539 0.030843988 -0.009146953 -0.0036406268
0.034402113 -0.06914286 -0.053544156 0.055373535 -0.04148792 0.04485689 -0.07568313 -0.01896641
-0.07204515 0.045655992 0.049992163 -0.018413685 0.09547315 -0.06851572 -0.0014618946 0.04579384
-0.002702523 0.08295979 -0.029864633 0.06460955 0.056649603 -0.042534176 -0.043929838 0.043706384
0.037180077 0.004971367 -0.011217182 -0.033122543 -0.019655928 0.015639354 0.0263789 -0.035023704
0.053229377 -0.09872226 -0.14225593 0.003219995 -0.12613504 0.0023780114 -0.028202621 -0.06338378
-0.033886746 0.047847737 0.009532231 0.13044374 -0.08628531 -0.030037176 0.08515619 -0.051692974
0.08885454 0.055721924 -0.09223418 -0.07610302 -0.054882415 -0.05500502 -0.037280742 -0.07708133
-0.023375042 0.030920144 0.006594991 -0.11915379 -0.078503415 -0.020672902 0.03098985 -0.0032280332
0.040189117 -0.050322164 -0.028998869 0.05086982 -0.0017152026 -0.036242392 -0.010561714 0.004170676
-0.063251436 -0.014421771 0.04993856 -0.010615221 -0.08407816 -0.022737693 -0.05562007 -0.14215796
-0.074183084 -0.13085839 0.072965525 -0.029828524 -0.047177956 0.02127259 0.005117707 -0.006892581
-0.002566891 -0.06697919 -0.08625114 0.04400305 0.010214422 0.027567122 0.022119526 0.03974833
-0.019025702 0.035098597 -0.0053562536 0.001548301 -0.05046568 0.04304484 -0.12963335 0.07500857
0.06724523 0.05852391 -0.043826632 0.07067591 0.010526095 -0.053489428 -0.11592979 -0.04552655
0.07534498 -0.027222458 -0.020119412 -0.008897265 0.04228585 -0.062408786 -0.023845872 -0.023003003
-0.1147364 -0.025447216 -0.0315653 0.027083388 -0.039213922 0.05723917 0.0909286 -0.09359513
0.01683957 -0.030248733 0.051927615 0.057923853 0.07962907 0.05893834 -0.049512893 0.11158023
0.024985226 -0.041878708 -0.057748754 0.0008924225 -0.018335132 0.011718088 -0.000608558 -0.020035658
0.004835202 0.0054378593 0.004952766 -0.046634875 -0.10617239 0.108545 0.022897001 -0.0498713
00000000: febd a3bd 8fa0 80bc e5f2 d9bb b09c 89bb
00000010: 3da9 343d 4797 173b 1844 f03a e40d e7bd
00000020: 22d0 713d 4eea b93c 347c 8a3c eead 0dbe
00000030: 0f20 393d b53f 7e3d 4d49 e0bd 8ca6 2a3d
00000040: bdca 133d 7ab0 a53d 43cd 74bc be35 21bc
00000050: 7697 153d dc94 023d f7fb 11bd 90df acbb
00000060: a95b 2dbd 7004 423c 5e25 9fbd 944a afbd
00000070: 4b07 cf3d 6705 89bd 604d 663d 6eba c9bd
00000080: 7d9e 9abc dd79 97bd 84b4 91bd c430 a4bb
00000090: 1d61 adbc 7341 00be 5572 573d b472 bdbd
000000a0: d0b9 99bc a01e 6cbd 5b6a efba e242 3dbb
000000b0: e709 f8bb 2d60 bc3c bdc9 41bd 4b8f d1bc
000000c0: 882e b1bd f2cc 873d 454c 353c 290f 963a
000000d0: cd67 79bd 9558 bb3d 4175 3fbd d9ce d3bd
000000e0: 68d7 7a3d 91fa c43d 86ef a03c bc87 453c
000000f0: ba48 e73c 6c3d 633d b3e5 053e d326 483b
00000100: 0909 bdbc fb34 c73d 75d5 5c3d b778 f53c
00000110: 3a49 14bd 6eef 96bd ab29 32bd 0510 c03d
00000120: 8adf 133d aefe 933b e131 10bd 0243 cfbc
00000130: f7f8 a23d dfdc 8c3d 6a73 6a3d 279a 33bd
00000140: 0478 813d 2ebb 0dbd 7daf b3bd 4708 48bd
00000150: 49f9 453d 8ee1 b9bd 8d4c 2cbe 6ccd d3bb
00000160: 7150 663d a4d6 a9bd 512f b83d 8cb6 873d
00000170: 7ea3 acbc b688 0fbb caaf 083e 19dc 973d
00000180: 90c7 05be 3b2a 473d e7b5 a9bd 8a8c b13c
00000190: 7d11 f9bd 88ac fc3c 1add 15bc 9597 6ebb
000001a0: 3be9 0c3d c69a 8dbd 1e51 5bbd 5ccf 623d
000001b0: 3def 29bd dcbb 373d c2ff 9abd 725f 9bbc
000001c0: 688c 93bd c701 3b3d 95c4 4c3d 4cd8 96bc
000001d0: 6d87 c33d f851 8cbd 0b9d bfba 5292 3b3d
000001e0: d01c 31bb d3e6 a93d ada6 f4bc 0352 843d
000001f0: 6a09 683d 5138 2ebd c6ef 33bd 7705 333d
00000200: 234a 183d d9e6 a23b 45c8 37bc 81ab 07bd
00000210: 7805 a1bc 1a1e 803c 9018 d83c 0475 0fbd
00000220: 0c07 5a3d e52e cabd 8aab 11be 8d06 533b
00000230: 8b29 01be 69d8 1b3b 2f09 e7bc 5bcf 81bd
00000240: d4cc 0abd fdfb 433d 132d 1c3c 0b93 053e
00000250: 5ab6 b0bd 8610 f6bc 5e66 ae3d 03bc 53bd
00000260: 5ef9 b53d ac3c 643d 46e5 bcbd e6db 9bbd
00000270: 62cc 60bd f24c 61bd b1b3 18bd d1dc 9dbd
00000280: 047d bfbc 3e4c fd3c cb1a d83b e706 f4bd
00000290: 66c6 a0bd 385a a9bc 6dde fd3c 698d 53bb
000002a0: 589d 243d 9d1e 4ebd 098f edbc df5c 503d
000002b0: a6d0 e0ba e772 14bd 0a0b 2dbc 2baa 883b
000002c0: f889 81bd 4b49 6cbc 608c 4c3d 77eb 2dbc
000002d0: 2c31 acbd 6644 babc dfd1 63bd db91 11be
000002e0: 4ded 97bd beff 05be f36e 953d f35a f4bc
000002f0: ac3d 41bd db43 ae3c 70b2 a73b 29db e1bb
00000300: 4939 28bb 632c 89bd 70a4 b0bd 8b3c 343d
00000310: 645a 273c 72d4 e13c 0234 b53c 25cf 223d
00000320: cadb 9bbc 8cc3 0f3d 8383 afbb 5cf0 ca3a
00000330: 1ab5 4ebd c94f 303d 9bbe 04be 189e 993d
00000340: deb7 893d c4b6 6f3d 8e83 33bd 88be 903d
00000350: a475 2c3c bb17 5bbd 996c edbd 0c7a 3abd
00000360: 784e 9a3d a201 dfbc 77d1 a4bc d6c5 11bc
00000370: ed33 2d3d 5ba0 7fbd 6b58 c3bc cb70 bcbc
00000380: ebfa eabd ae76 d0bc 9e4a 01bd fbdd dd3c
00000390: c79e 20bd 9f73 6a3d c638 ba3d ceae bfbd
000003a0: 23f3 893c 31cc f7bc 0db2 543d 9041 6d3d
000003b0: 9114 a33d 5469 713d 08ce 4abd 2d84 e43d
000003c0: d1ad cc3c 0289 2bbd f589 6cbd 76f1 693a
000003d0: 8f33 96bc 39fd 3f3c a387 1fba d221 a4bc
000003e0: 9d70 9e3b 1230 b23b d04a a23b 3604 3fbd
000003f0: e970 d9bd d74c de3d 7e92 bb3c d945 4cbd

gnn_node.convs.0.mlp.3.bias f4 [100]
0.06822807 0.032727722 0.01876043 0.03519421 -0.027997682 -0.058249936 0.039280124 -0.0071335784
-0.05885721 0.05429486 0.034402166 0.035183024 0.04541714 0.06355326 -0.068137646 0.06794241
0.0062458795 -0.038677737 0.01728563 0.016054265 0.04384831 -0.053564843 0.033036448 0.016504914
0.04088432 0.039445154 0.019060839 0.04701567 -0.037116747 0.06961029 0.011341759 -0.06706384
-0.050137397 -0.044092562 0.008645085 -0.009630406 0.007934791 -0.027337931 0.062462732 0.028055055
-0.038606886 -0.0031991082 0.050425407 0.013156844 0.02591576 -0.06843179 -0.031401075 0.040164568
-0.0467882 0.043505598 0.06550726 0.029672692 -0.0065264665 0.04572591 0.011504157 -0.06400661
0.038057666 0.03182697 -0.0035622679 0.03985769 0.031567514 -0.015721476 0.01980296 -0.031679668
0.0340917 0.042046547 -0.05119912 -0.008807949 -0.022172531 -0.07305124 -0.04570985 0.05845044
-0.0063205436 0.06127511 0.030916387 -0.002387617 -0.06982971 -0.015909042 0.013791537 -0.066580564
0.00747339 -0.0033027024 -0.033235926 -0.008148217 0.04711689 -0.064824946 -0.04122691 0.05423596
-0.032773554 -0.026659902 -0.02368851 0.00915502 0.022768965 -0.040636968 -0.0415423 0.012799135
0.025179848 0.023140218 0.017968405 -0.019468557
00000000: 29bb 8b3d 810d 063d 79af 993c ce27 103d
00000010: 655b e5bc 7c97 6ebd 32e4 203d cbc0 e9bb
00000020: 4214 71bd 4a64 5e3d 49e9 0c3d 131c 103d
00000030: 5307 3a3d 3628 823d c08b 8bbd 6425 8b3d
00000040: 3caa cc3b 8c6c 1ebd 989a 8d3c 3c84 833c
00000050: 499a 333d cf66 5bbd 3a51 073d 5035 873c
00000060: 5176 273d 3e91 213d 7a25 9c3c 8193 403d
00000070: bb07 18bd d78f 8e3d c9d2 393c c458 89bd
00000080: df5c 4dbd 679a 34bd 1da4 0d3c dac8 1dbc
00000090: ed00 023c ccf3 dfbc ecd8 7f3d b7d3 e53c
000000a0: 4122 1ebd 21a8 51bb df8a 4e3d ce8f 573c
000000b0: 4a4d d43c f725 8cbd 6a9e 00bd 9a83 243d
000000c0: fca4 3fbd ed32 323d ac28 863d 2514 f33c
000000d0: f8db d5bb 184b 3b3d ef7b 3c3c e615 83bd
000000e0: 5be2 1b3d ff5c 023d f074 69bb d141 233d
000000f0: f04c 013d 53ca 80bc d139 a23c 8ac2 01bd
00000100: bda3 0b3d 0039 2c3d 2bb6 51bd 374f 10bc
00000110: 2ba3 b5bc e39b 95bd 403a 3bbd bb69 6f3d
00000120: 901c cfbb 9cfb 7a3d 5d44 fd3c 9179 1cbb
00000130: e102 8fbd ae53 82bc e6f5 613c 645b 88bd
00000140: 57e3 f43b 2772 58bb 6522 08bd 1980 05bc
00000150: a4fd 403d f1c2 84bd 8cdd 28bd 8726 5e3d
00000160: 903d 06bd de65 dabc 680e c2bc f0fe 153c
00000170: fb85 ba3c f372 26bd 4228 2abd 77b3 513c
00000180: f845 ce3c 8e90 bd3c 7a32 933c 867c 9fbc

gnn_node.convs.0.edge_encoder.weight f4 [100, 7]
-0.75112706 0.49260274 0.103270136 0.13401455 0.018682713 0.1548122 -0.06297416 0.006233849
-0.2586692 0.13094294 -0.37665138 0.28593838 0.18389778 0.26402804 0.012578466 0.023354374
0.00062046904 0.010432518 0.0020640837 0.00075046584 0.6810612 0.03545159 0.32893094 -0.030094445
-0.36036557 0.24561682 -0.157908 0.0041107237 -0.38266203 -0.088072844 0.26364142 0.27678332
0.03892284 -0.13370131 -0.053746216 -0.06866509 -0.17029995 0.37584797 0.3058525 0.08594319
0.35632518 0.23591736 0.017690526 -0.050330754 -0.44938266 0.22169657 0.00456886 -0.21228714
-0.2403599 -0.41679627 0.10010766 -0.21367909 -0.14210135 0.14717023 -0.09945088 -0.17642085
-0.25071302 -0.04126978 0.029374601 0.12827191 0.21535654 0.31789175 0.18046775 0.35008565
-0.5448169 0.31006545 -0.044084296 -0.087800875 0.09104513 0.24013995 0.07457033 -0.5192568
-0.20384766 -0.2599162 0.23859218 -0.049946226 -0.15949756 -0.019120187 -0.07721239 0.27116033
0.015195221 0.022068143 0.25639275 -0.274486 0.27921677 -0.37146312 -0.17390202 -0.22160691
-0.0021851563 -0.27287707 -0.066507556 0.0815953 -0.10350257 0.29752746 0.16086599 0.20369288
-0.18324938 0.114157826 -0.30856368 -0.36877936 0.23293552 0.042955697 -0.3389858 -0.24653064
0.34819713 -0.2728802 0.16583693 0.3060329 -0.101255015 -0.07818852 -0.027777059 0.29812208
0.38961777 -0.52210903 -0.16508724 0.22947647 0.008030012 -0.31223047 -0.38154152 -0.22229291
-0.5556015 0.04561103 -0.2918275 -0.05761256 -0.17044309 -0.3714433 0.3007953 0.02021186
-0.040448394 -0.07661997 0.24396017 0.10401916 -0.29906806 -0.338443 0.009380341 -0.14635965
-0.14216089 0.33673123 -0.15598452 -0.29396755 -0.077897884 -0.11874555 -0.008285567 0.014696813
-0.22988653 0.15938644 0.21586916 -0.33953765 0.08367855 -0.19935942 0.25110304 -0.51109964
-0.040463433 0.3133195 0.31812584 -0.21631782 0.37164372 0.057150286 0.28588215 -0.09542221
0.09965616 -0.01022169 -0.3660313 0.116330355 -0.33742696 -0.12532526 -0.1339645 0.33266625
0.07116318 0.05195895 -0.20200908 -0.09909588 0.10737404 0.16881236 0.017419577 0.45186338
0.55893445 -0.065133624 0.2267983 -0.255119 0.1129784 0.19814034 0.33044994 0.045711983
0.33134264 0.35593793 0.20831662 0.018376717 -0.23252569 0.34023166 0.09008558 -0.2956669
0.3235875 -0.3033874 0.23859617 0.09488889 -0.287936 0.36627775 0.26837435 -0.11275487
-0.27313116 -0.045772478 -0.022367744 0.38220906 -0.42383355 0.14121626 0.26931056 -0.22934148
-0.014892278 -0.2683804 0.36474037 -0.05763084 0.0975448 -0.19184163 0.046986736 -0.011459839
-0.2050673 -0.36654133 -0.18414974 0.07335827 -0.31340677 -0.18943551 -0.31660733 -0.18941519
0.37568343 -0.0810066 0.25670445 0.03171462 0.277754 0.18856594 0.026174538 0.33651873
-0.1905322 -0.22425659 -0.27132705 -0.19133191 0.2810277 -0.119476855 -0.06364828 -0.2880494
-0.17271698 0.27720597 -0.10920411 -0.11850381 -0.038244396 -0.22305177 0.54690397 -0.20097816
0.10082368 0.22820885 -0.003122121 -0.34176126 0.050901666 -0.21103612 0.041740272 -0.11066726
00000000: dd49 40bf 6d36 fc3e 4b7f d33d 1c3b 093e
00000010: 7d0c 993c 1787 1e3e 99f8 80bd 5145 cc3b
00000020: 4a70 84be e815 063e 73d8 c0be 8466 923e
00000030: b34f 3c3e af2e 873e e915 4e3c ac51 bf3c
00000040: f9a6 223a 27ed 2a3c 9445 073b e9ba 443a
00000050: 075a 2e3f b035 113d a369 a83e a088 f6bc
00000060: d681 b8be fa82 7b3e a2b2 21be 40b3 863b
00000070: 47ec c3be 895f b4bd 02fc 863e 8bb6 8d3e
00000080: 8e6d 1f3d ffe8 08be fe24 5cbd 48a0 8cbd
00000090: 1c63 2ebe 256f c03e b398 9c3e fc02 b03d
000000a0: 4170 b63e 5294 713e b9eb 903c 9f27 4ebd
000000b0: 7c15 e6be 6d04 633e 60b6 953b cd61 59be
000000c0: e820 76be 5266 d5be 3f05 cd3d b1ce 5abe
000000d0: 0483 11be cbb3 163e e7ac cbbd aba7 34be
000000e0: 755d 80be 800a 29bd 01a3 f03c b659 033e
000000f0: 6d86 5c3e b5c2 a23e 8acc 383e 6d3e b33e
00000100: 1f79 0bbf e6c0 9e3e bc91 34bd f2d0 b3bd
00000110: de75 ba3d 3fe7 753e 54b8 983d 03ee 04bf
00000120: 71bd 50be bc13 85be 8251 743e 6a94 4cbd
00000130: 5453 23be f0a1 9cbc 8821 9ebd 87d5 8a3e
00000140: 60f5 783c 40c8 b43c e945 833e 6e89 8cbe
00000150: 80f5 8e3e 6a30 bebe 5f13 32be ecec 62be
00000160: d734 0fbb 8bb6 8bbe 1d35 88bd 701b a73d
00000170: 28f9 d3bd 8555 983e 0eba 243e de94 503e
00000180: baa5 3bbe 94cb e93d 0ffc 9dbe a6d0 bcbe
00000190: a686 6e3e 50f2 2f3d 8c8f adbe 8772 7cbe
000001a0: e546 b23e f4b6 8bbe 28d1 293e 58b0 9c3e
000001b0: ca5e cfbd 4e21 a0bd b78c e3bc 75a3 983e
000001c0: fb7b c73e f0a8 05bf a10c 29be e1fb 6a3e
000001d0: 5090 033c acdc 9fbe 6959 c3be c1a0 63be
000001e0: e63b 0ebf a2d2 3a3d 6a6a 95be 26fb 6bbd
000001f0: a288 2ebe d12d bebe d701 9a3e 5893 a53c
00000200: 37ad 25bd eeea 9cbd b2d0 793e ff07 d53d
00000210: 731f 99be 6748 adbe 00b0 193c 4edf 15be
00000220: a092 11be 0968 ac3e 68ba 1fbe ea82 96be
00000230: ed88 9fbd de30 f3bd 30c0 07bc e7ca 703c
00000240: 6067 6bbe 3336 233e ce0c 5d3e e1d7 adbe
00000250: a95f ab3d e024 4cbe 9490 803e 6dd7 02bf
00000260: fcbc 25bd 6a6b a03e 64e1 a23e 6b82 5dbe
00000270: 1648 be3e 6b16 6a3d 255f 923e b86c c3bd
00000280: 8718 cc3d e078 27bc 7468 bbbe 9c3e ee3d
00000290: 3ac3 acbe 4455 00be fd2d 09be 3b53 aa3e
000002a0: 00be 913d e8d2 543d 78db 4ebe c8f2 cabd
000002b0: ece6 db3d 26dd 2c3e 80b3 8e3c a35a e73e
000002c0: 5416 0f3f c764 85bd d03d 683e f59e 82be
000002d0: 3861 e73d 4de5 4a3e bc30 a93e 7d3c 3b3d
000002e0: bea5 a93e 7f3d b63e f450 553e c58a 963c
000002f0: 371b 6ebe d832 ae3e ca7e b83d a761 97be
00000300: 43ad a53e 9855 9bbe 8e52 743e 1b55 c23d
00000310: 596c 93be c288 bb3e 5d68 893e 06ec e6bd
00000320: d9d7 8bbe ec7b 3bbd 8f3c b7bc e8b0 c33e
00000330: b600 d9be ff9a 103e 13e3 893e 7ed8 6abe
00000340: befe 73bc 2869 89be 40bf ba3e 510e 6cbd
00000350: 91c5 c73d 2272 44be 2a75 403d 0cc2 3bbc
00000360: 2afd 51be 4eab bbbe c091 3cbe dc3c 963d
00000370: da76 a0be 62fb 41be 5b1a a2be 0ef6 41be
00000380: 9459 c03e cae6 a5bd c46e 833e 30e7 013d
00000390: c635 8e3e 6e17 413e fc6b d63c 2f4c ac3e
000003a0: df1a 43be 85a3 65be 61eb 8abe 83ec 43be
000003b0: dde2 8f3e 48b0 f4bd 085a 82bd 367b 93be
000003c0: b8dc 30be f1ed 8d3e 68a6 dfbd 20b2 f2bd
000003d0: 28a6 1cbd af67 64be e601 0c3f 38cd 4dbe
000003e0: a57c ce3d 95af 693e 809c 4cbb 55fb aebe
000003f0: 447e 503d da19 58be d9f7 2a3d 84a5 e2bd

gnn_node.convs.0.edge_encoder.bias f4 [100]
-0.25274286 -0.036475487 0.064960934 0.16366759 -0.39964584 -0.07030535 0.23238833 -0.035391442
0.115020946 0.2146166 0.071423694 0.07507643 -0.4786352 -0.015125155 -0.32959962 -0.10215187
-0.3170169 -0.015201399 -0.49378097 0.11058265 0.19684696 0.32487577 -0.29900816 -0.13540654
-0.103789 0.06778919 0.38307866 -0.27631107 -0.03837172 -0.30706295 -0.2333168 -0.15491568
-0.32300177 0.28999463 -0.28433108 -0.1320766 -0.37409022 -0.28818473 0.017401993 -0.016614847
-0.22576281 0.0050704847 0.19757059 -0.22099708 0.13527794 -0.4255808 -0.012636811 -0.11812361
0.16755068 0.1684278 -0.2951429 0.28451097 -0.15618461 0.08152365 -0.18288414 0.06569939
-0.13894877 0.32563964 -0.23406722 -0.3725623 -0.17449762 -0.30209982 0.01804593 -0.13133079
-0.09907158 -0.42328492 -0.3024425 -0.2939821 0.030029776 0.13235033 0.15957615 0.08266076
0.1914412 -0.36736754 -0.33003998 -0.20037283 -0.23136799 -0.057590805 0.2725544 -0.019761764
-0.40391818 -0.20052934 -0.4205592 0.07230103 0.10467978 -0.30139196 -0.11781309 -0.23102656
0.06534597 0.22144423 -0.26270136 -0.17035267 0.057806566 0.061189704 -0.0776825 -0.07596315
-0.107808694 0.3156962 -0.06965803 -0.37475312
00000000: 8367 81be 5267 15bd 3d0a 853d 7a98 273e
00000010: 619e ccbe 40fc 8fbd 35f7 6d3e 9ef6 10bd
00000020: 1a90 eb3d 74c4 5b3e 9646 923d acc1 993d
00000030: ac0f f5be 80cf 77bc 48c1 a8be 0035 d1bd
00000040: 0a50 a2be 4a0f 79bc dcd0 fcbe 2879 e23d
00000050: 4092 493e 1e56 a63e 9917 99be 03a8 0abe
00000060: 548f d4bd 0fd5 8a3d e322 c43e a578 8dbe
00000070: aa2b 1dbd 5b37 9dbe 99ea 6ebe 37a2 1ebe
00000080: 7d60 a5be 2d7a 943e d893 91be 173f 07be
00000090: c188 bfbe f38c 93be a08e 8e3c dc1b 88bc
000000a0: 5e2e 67be 4f26 a63b f24f 4a3e 0f4d 62be
000000b0: 4d86 0a3e bae5 d9be a00a 4fbc cbea f1bd
000000c0: 6892 2b3e 5678 2c3e f81c 97be 6cab 913e
000000d0: dcee 1fbe dff5 a63d fb45 3bbe 678d 863d
000000e0: 9648 0ebe 3dba a63e 51af 6fbe 7cc0 bebe
000000f0: 81af 32be d4ac 9abe 0fd5 933c 947b 06be
00000100: 0ae6 cabd cdb8 d8be bed9 9abe d284 96be
00000110: 0101 f63c d886 073e ee67 233e 0b4a a93d
00000120: 2909 443e 9917 bcbe 00fb a8be 892e 4dbe
00000130: bbeb 6cbe 56e4 6bbd 408c 8b3e 6ce3 a1bc
00000140: 5dce cebe 9057 4dbe 8953 d7be 9012 943d
00000150: 5a62 d63d 0c50 9abe fd47 f1bd 3a92 6cbe
00000160: 1cd4 853d 47c2 623e cb80 86be ee70 2ebe
00000170: 94c6 6c3d 0ea2 7a3d 0118 9fbd 9192 9bbd
00000180: ceca dcbd efa2 a13e dfa8 8ebd a4df bfbe
